models/Jan05_09-43-56_simple_rl_genesis.pt (torch, 769680 bytes, 8 tensors)

weight f4 [512, 45]
000000 bc 57 87 be 66 8a 60 bd 6b b5 a1 be 68 97 4d 3e
       -0.26434124 -0.054819487 -0.31583723 0.20077288
000010 a0 bd 6a bd 06 36 29 bd 78 e2 54 be d9 e1 6d 3e
       -0.057309747 -0.041311286 -0.20789516 0.23230685
000020 af be 80 3e a3 35 6d bd 2b e9 2d be 94 fc 72 3e
       0.2514548 -0.05791248 -0.16983478 0.23729163
000030 15 61 7f 3e 56 e2 2f bd 27 38 59 be cf 4a 39 be
       0.24939378 -0.04294046 -0.21212827 -0.18094943
000040 e8 5c 90 3e 3e 43 ed 3d 7d d0 4c 3b 86 72 45 bd
       0.28195882 0.11585091 0.0031252198 -0.04820492
000050 11 89 16 be 64 92 d6 bd d9 ba 0c bd 05 75 f6 bc
       -0.14700724 -0.104771405 -0.03435788 -0.030085096
000060 95 d0 9c 3e 3a 32 63 3e 93 99 1d bf a7 97 f0 3c
       0.30627885 0.22187129 -0.6156246 0.029369188
000070 84 09 36 3e 20 31 1a 3d da 78 68 3e 70 3c f8 bd
       0.17777067 0.037644506 0.22702351 -0.121209025
000080 09 84 b7 be 6c 01 83 3d bc ba de 3c 3c ac 99 3d
       -0.35842922 0.063967556 0.027188651 0.07503554
000090 7c 0f 3c bd 81 60 8b bd 02 bd 4d 3c a7 39 3a bc
       -0.045913205 -0.06805516 0.01255727 -0.011366284
0000a0 95 3c 86 bd a3 23 c6 bd 67 fa 8d bc 47 60 ba 3d
       -0.06554524 -0.09674766 -0.017331315 0.09100395
0000b0 e2 28 00 3e 45 79 b1 bc 7c 58 9b bd e7 29 c3 3e
       0.12515596 -0.021664271 -0.075852364 0.38117906
0000c0 42 06 e7 3d 73 f3 69 bd ff 79 15 3d 40 22 56 3e
       0.112804905 -0.057116937 0.036493298 0.20911503
0000d0 7d 3c 70 3e 25 56 94 be 22 9a 51 3d 5c f9 1c 3e
       0.23460574 -0.28971973 0.051172383 0.15329498
0000e0 04 a4 ae bd b2 b4 70 3e 7d 5e 82 bd 66 8d 9a 3d
       -0.08527377 0.2350643 -0.063656785 0.07546501
0000f0 99 9e 3e be b8 3f 61 bd 73 39 52 be 3f 5c 8d bd
       -0.18615188 -0.054992408 -0.20529728 -0.0690236
000100 ba ad 44 3d d3 2f 38 3e e6 c4 15 be 16 6f 77 be
       0.04801724 0.17986993 -0.14625892 -0.2416347
000110 3b 3f e8 be 44 a6 5f 3d 9f 2a 5b 3e fa 33 41 be
       -0.4536074 0.054601923 0.21402977 -0.18867484
000120 34 e4 0f be 64 01 7c be be d3 bf be 98 01 4c 3e
       -0.14051896 -0.24609905 -0.37466234 0.19922483
000130 b5 48 a0 be 4e 58 2b be 3f b6 eb 3c db bb 48 ba
       -0.3130547 -0.16732904 0.028773425 -0.0007657387
000140 10 6b 19 3d 27 c4 ce 3d 18 cf ed bc 7e 5c 2a 3c
       0.03745562 0.10096007 -0.029029414 0.010398028
000150 d6 ec 4f bd 01 40 14 bd 24 da 63 3d d2 7c 0a bd
       -0.050762974 -0.03619385 0.055627957 -0.033810444
000160 a9 68 7b 3d 81 fc be bc 3c 8c 82 3e 2c b0 01 3d
       0.06137911 -0.023313763 0.25497615 0.03166215
000170 06 fd 62 be d7 16 21 3e 00 ce c2 be 1a ca 34 3d
       -0.22166833 0.15731369 -0.3804779 0.04413805
000180 02 72 bc bc c3 ce 09 3e 17 74 ae bc 97 b3 10 3e
       -0.023003582 0.1345778 -0.02129559 0.14131008
000190 2a 2b 26 be 01 01 f9 bc fa e8 18 3d b2 28 ad 3e
       -0.16227403 -0.030395987 0.03733156 0.3382011
0001a0 46 97 67 3e 3a 69 58 3c 0e 50 61 be 1d 4c 02 bb
       0.226163 0.013208682 -0.22003195 -0.0019881793
0001b0 89 b0 a3 3d d4 bf ef 3d 22 2f 23 be 90 79 31 be
       0.07992656 0.1170651 -0.15935948 -0.17331529
0001c0 cd cb c5 be 4b 2d 8d 3d ab 87 6a 3d eb cd 05 3e
       -0.3863205 0.068934046 0.05725829 0.13066833
0001d0 8c 7e 5e 3e b9 09 11 be dd 0e e1 bd 6e f3 8a be
       0.21727961 -0.14163865 -0.10989163 -0.27138847
0001e0 4f 7e f1 3e b2 7b ee be f3 71 b8 bd 5f da c1 bc
       0.47166678 -0.46578747 -0.09006109 -0.023663698
0001f0 2a 55 ac bb 86 1c 92 bb 2f 96 90 bc 28 cf 10 bc
       -0.005259176 -0.0044589667 -0.017649738 -0.008838452
000200 ba 81 23 3d df 51 76 3d ff 3c 00 3d c6 eb 3a 3b
       0.03991864 0.060136672 0.03130817 0.002852188
000210 55 50 8b bb 88 5d a8 bc 16 69 7f 3c e0 7c b3 3d
       -0.0042515197 -0.020552412 0.015589019 0.087640524
000220 65 b8 10 be b3 07 57 3e ed 93 d9 bd 56 65 52 3d
       -0.14132841 0.20999031 -0.10623918 0.051366173
000230 64 53 89 bd 1d 87 70 bd b6 19 e8 3d 29 6a d1 3c
       -0.067053586 -0.058722604 0.11333029 0.025563316
000240 0a ce b7 3d 34 99 4f be d7 03 10 be 7d 4d 59 be
       0.08974846 -0.20273286 -0.14063965 -0.21220966
000250 7e fe e2 bd 57 01 ad 3c f5 13 41 be 0e 50 80 3e
       -0.11083697 0.021118803 -0.18855269 0.25061077
000260 e3 77 20 3e 30 9a 9f 3d 85 2b 2c bd 73 a4 86 3d
       0.15670733 0.07793081 -0.04203369 0.06574335
000270 e0 2d 11 be f5 b8 a5 bd e9 cf 4f be 5a 46 d7 bd
       -0.14177656 -0.080919184 -0.20294155 -0.10511465
000280 51 f0 80 3e 34 7f a5 be af 81 1b 3e c9 33 59 3e
       0.25183347 -0.3232361 0.15186189 0.2121116
000290 2c 7f 14 3e 10 e1 89 3e fc 94 08 3d 55 1d 82 be
       0.14501637 0.26929522 0.033345208 -0.25413004
0002a0 a1 aa bf bd ad 8e 56 bd dd 13 ae bd e0 be 3d 3d
       -0.09358717 -0.05238216 -0.08499882 0.04632461
0002b0 84 96 11 be 01 da c1 3d 23 08 66 bc 8b 50 49 bd
       -0.14217573 0.09465409 -0.014040026 -0.049149077
0002c0 a4 ed 2e 3e 3e 24 96 3d 4a 73 7c bb 0b 59 e7 bd
       0.1708284 0.073311314 -0.0038520866 -0.112962805
0002d0 b8 4f 12 bd d6 a1 fa 3c e8 88 f0 be 0e b6 be be
       -0.035720557 0.030594748 -0.4697945 -0.37248272
0002e0 ca e0 cc be 53 2b 95 3d 7a 37 63 bd 16 4a 01 bf
       -0.4001525 0.07283654 -0.05547283 -0.5050367
0002f0 7f 6d c9 3d 47 de 4e bd 4a d4 f7 ba 9f ef be bd
       0.09835338 -0.05050495 -0.0018907872 -0.09323048
000300 9b 29 12 bd 01 76 29 be 49 b5 65 3d 1b 47 de bd
       -0.03568421 -0.16548921 0.05608109 -0.10853406
000310 48 92 4c be b7 32 c5 3e 61 20 15 3e 92 70 4d 3c
       -0.19977677 0.38515255 0.14563133 0.012539046
000320 96 fd 50 be 19 f1 90 3e bd 0e 6d bd 83 e4 b3 bd
       -0.20409235 0.28308943 -0.057875384 -0.087838195
000330 e7 7e 03 3f f7 c6 c1 bd 45 69 47 3d 41 ee 6d 3d
       0.5136551 -0.09461778 0.048684377 0.058088545
000340 9f 21 94 3e 63 ec a1 bd d5 af ee 3e 60 dd 34 be
       0.289319 -0.07906415 0.46618524 -0.17662573
000350 db b8 71 be 68 1f 95 bd dd 6e 11 bd 8e 18 36 bc
       -0.23605673 -0.07281381 -0.035506118 -0.011114253
000360 e9 d0 98 bc ef f2 52 3d e1 aa 16 3c 13 56 04 3d
       -0.018654304 0.05150121 0.009196014 0.03230865
000370 a2 34 c7 bc a2 f3 21 bd cb 11 0d 3c 1b 0a db ba
       -0.02431709 -0.039538987 0.008610199 -0.0016711386
000380 9f e7 ce 3d 58 f3 db 3e ad 79 02 be 2b 30 46 3e
       0.10102772 0.42959094 -0.12741728 0.19354312
000390 f3 30 6a be aa 78 a5 bd 5e 5a dc 3d 72 aa 35 3e
       -0.22870235 -0.080796555 0.10759424 0.17740801
0003a0 09 2e 23 be 73 14 c1 bd d0 55 a1 3d d6 30 30 3e
       -0.1593553 -0.094277285 0.078776956 0.1720613
0003b0 19 e2 a2 bd a6 c6 8c be 42 94 d0 be ea f6 b8 bd
       -0.07953281 -0.27495307 -0.40738112 -0.0903147
0003c0 14 46 95 3e 82 c4 19 be 62 57 a1 bd c6 5c a9 3e
       0.29155028 -0.15016368 -0.07877995 0.33078593
0003d0 e0 57 26 3e 2f 58 e0 bd e8 6e b0 3d ea c1 77 bd
       0.16244459 -0.1095432 0.08614904 -0.060487665
0003e0 35 07 8c be b6 2a 28 be 56 b2 45 bc 6a 0c 41 be
       -0.2734925 -0.16422543 -0.012066444 -0.18852392
0003f0 7e 43 8d 3e 33 7c 82 be 84 72 9b be 65 ac 21 bd
       0.27590555 -0.2548538 -0.30360806 -0.03947105

bias f4 [512]
000000 90 ef 86 bd 6a 74 df 3d c3 3c 29 3d 88 9c b9 3d
       -0.06588662 0.10910876 0.041317713 0.09063059
000010 ff ca 8d 3c 0d e0 86 bd 68 96 da bd 4c ae c1 3d
       0.01730871 -0.06585703 -0.10673219 0.094570726
000020 91 d6 a7 bd 64 a8 21 bd ea 56 e1 3d 64 7f 71 bd
       -0.08195222 -0.03946723 0.11002906 -0.05895938
000030 02 3b e0 bd f1 6c 98 bd 26 a5 02 be ef 47 72 3d
       -0.10948755 -0.07442654 -0.12758312 0.059150632
000040 66 b3 17 3d c0 2a 8c bd 3d 87 31 be 3f 8c 90 bc
       0.037036322 -0.068440914 -0.17336746 -0.017645
000050 4d 41 75 bd 32 9f 7e 3c 4a 3a ec 3c 3a 8b a8 3c
       -0.05987673 0.015540885 0.028836388 0.0205742
000060 ab 73 00 be 95 e7 90 bd e9 63 1f bb a9 aa 12 3e
       -0.12544124 -0.07075421 -0.0024321026 0.14322914
000070 f0 75 9d bd e1 7e ee bd 12 1d 29 bd 8b 04 1f 3e
       -0.076885104 -0.11645294 -0.04128749 0.15529077
000080 70 c9 b7 bc 62 3b bd 3b 6a 86 ec 3d 60 f6 13 be
       -0.02243492 0.0057749012 0.11549075 -0.14449453
000090 8a 85 f7 3d 51 5f 4d 3d 16 2e 7e 3c 7e 82 ce 3d
       0.120860174 0.05013973 0.015513917 0.10083483
0000a0 1b 1b 27 3e 42 61 d7 bc a7 d3 8b 3d 07 f2 b6 bd
       0.16318934 -0.026291493 0.06827479 -0.08932882
0000b0 92 f2 0b be d4 75 03 be d9 f3 1a 3d bc 99 aa bd
       -0.13666752 -0.12837917 0.037830207 -0.08330104
0000c0 8e b7 af bd 46 15 36 bd b0 4a f3 bb dd 1b b1 3d
       -0.08579932 -0.04445388 -0.007424675 0.086478926
0000d0 35 b3 9a bd 8c b9 c6 bd 96 7c a7 3c 7f 36 25 be
       -0.07553712 -0.09703359 0.02044515 -0.1613407
0000e0 b2 56 cf 3d 12 b3 3d 3c c2 19 6c 3d a3 93 10 bd
       0.10123958 0.011578338 0.057641752 -0.035297047
0000f0 5d 87 43 bd d4 d4 9f bd 98 2c ca bc c4 4f af 3d
       -0.047736514 -0.078042656 -0.024679467 0.08560136
000100 0a 46 03 3d ca 10 20 be e8 30 e9 3d 67 36 fa 3b
       0.032049216 -0.15631405 0.11386281 0.00763588
000110 59 46 ad bd 38 47 c2 bd 2a c9 9d 3d 22 64 db ba
       -0.084606834 -0.0948624 0.077043846 -0.0016738216
000120 c9 a4 92 3c ed 8f 7c bd 19 67 11 bd c7 9e 9e bd
       0.017900841 -0.061660696 -0.035498712 -0.07745128
000130 34 87 88 3d db 21 ea bd 2a c4 1e 3d 2a 00 12 be
       0.06666413 -0.11432239 0.038761295 -0.14257875
000140 a9 c1 fb bc 58 3e d5 bd fd d5 62 be 0a c4 a2 bc
       -0.030731993 -0.10412282 -0.22151943 -0.01986887
000150 88 56 24 be 89 e0 ee bc 5f 6c a6 3d 57 d4 a9 3c
       -0.16048634 -0.029159801 0.08126139 0.020731134
000160 50 41 2e bd ab 6c 69 3d 64 53 e5 3d a5 a4 b5 bd
       -0.042542756 0.0569884 0.11197546 -0.08869294
000170 3e 26 0d 3d 69 44 57 bd 40 20 a3 bd f5 b3 8c 3d
       0.0344603 -0.052555475 -0.079651356 0.068702616
000180 fb 6d e1 3d 6a 48 20 3e 0e 55 aa bd 39 c7 ab bd
       0.11007305 0.15652624 -0.08317004 -0.08387608
000190 a4 2e 6a bd 40 71 8c 3d ca e1 b0 3c d8 ac 65 bd
       -0.057173386 0.06857538 0.02159204 -0.05607304
0001a0 2b 30 9a bd cb 13 7c 3d 3c 6a 00 3e e7 42 13 3e
       -0.075287186 0.061542314 0.12540525 0.1438099
0001b0 59 5d af 3d c2 4b 29 bd 5e 58 ff bd 44 78 dd 3d
       0.085627265 -0.041332014 -0.124680266 0.108139545
0001c0 fb 25 9b 3d a6 6b 36 be 6a c8 d2 3d c2 e0 da 3d
       0.075756036 -0.17814502 0.10292132 0.106874004
0001d0 d3 8e 84 bd 11 09 0e 3e 19 4c 03 3e 69 76 85 3d
       -0.06472554 0.13870646 0.12821998 0.065167256
0001e0 05 4c 80 ba 24 76 f2 3d c6 50 b8 3d f7 a9 08 3e
       -0.0009788281 0.1183894 0.08999781 0.13346086
0001f0 e8 8c 76 3d 74 59 d2 bd b5 9f b2 ba 69 0d e5 3d
       0.060192972 -0.10270968 -0.0013627919 0.111841984
000200 e8 03 17 3d 40 f4 19 3e 34 5d 1d bd 73 0b eb bd
       0.03686896 0.1503458 -0.038418964 -0.11476793
000210 8f 0a 73 3d e1 09 f0 3d 21 3e 00 3c c1 ab 49 bd
       0.05933624 0.11720634 0.007827313 -0.049236063
000220 8c d0 68 bd f2 e6 1b bd 86 8f ea bd dc f7 27 be
       -0.05683951 -0.038062043 -0.11453156 -0.16403145
000230 63 0c d1 3d 66 c0 98 3d f4 66 04 be 95 50 2a 3d
       0.10207441 0.07458572 -0.12929899 0.041580755
000240 be 77 39 3d f9 be 16 be bb 9f f4 b9 2a dc 95 3c
       0.04528021 -0.14721288 -0.00046658315 0.018293459
000250 a7 de 39 3e 66 b6 a4 3c 79 cc bc 3d 3e c6 70 bd
       0.18151341 0.020106506 0.092186876 -0.05878281
000260 48 8c 07 bd 01 f7 45 3e d5 14 c2 3d f5 a8 9a 3c
       -0.033092767 0.19332506 0.0947663 0.018879393
000270 75 e4 f8 bd c3 33 07 be c2 09 21 3e 5a a0 ce bd
       -0.1215295 -0.1320334 0.15726379 -0.100891784
000280 17 ad 0f 3e fb 0c 1e 3d 39 50 9f 3d 3c 40 07 3e
       0.14030872 0.038586598 0.07778973 0.13208097
000290 4c a4 9b 3d ce 9b de bc a0 fb 54 3d 80 fd 94 3d
       0.075996965 -0.027173903 0.05199778 0.07274914
0002a0 52 e6 5a 3e a6 e5 4e 37 22 90 c1 3d 83 5b 1a be
       0.21376923 1.2332026e-05 0.09451319 -0.15073971
0002b0 ff a8 f6 bd 9f c5 0a be ff 24 91 bd c2 2a bc bd
       -0.12043952 -0.13551949 -0.070871346 -0.09187843
0002c0 21 ea 52 be 60 b8 47 3d 40 72 df bc 6f e2 b0 3d
       -0.20597126 0.048759818 -0.027276158 0.08636939
0002d0 f4 8c 0a be 16 cf cf 3d ee b9 08 3e d3 93 f3 bd
       -0.13530332 0.101469204 0.13352177 -0.118934296
0002e0 fd 62 02 be 90 fd 86 bd 01 6a 33 3d 20 5e 7a 3d
       -0.12733074 -0.06591332 0.043802265 0.06112492
0002f0 4f 05 e7 bd 12 4d 2c be 9e b2 19 bd 63 c1 5f bd
       -0.112803094 -0.16826275 -0.03752386 -0.054627787
000300 e4 76 b6 bd 97 02 bf 3d 87 6b 2e 3d 15 dd 14 bc
       -0.08909395 0.09326666 0.042583015 -0.009085913
000310 9d b5 ea bd 9f 1c ca 3c 8a e0 53 bd 23 06 17 bd
       -0.11460421 0.02467185 -0.05172781 -0.036871087
000320 94 76 7b 3d b3 ce ac bc 85 d6 c7 3d c9 24 89 3d
       0.06139238 -0.021094656 0.09757713 0.06696469
000330 23 de 7d bc 1e 75 0d 3d 6f 61 48 be 53 46 5e 3d
       -0.015494856 0.03453552 -0.19568418 0.054266285
000340 e7 ac 1f bc 0c a9 9a bd 91 3b a7 bd 06 ad bf bd
       -0.009745813 -0.075517744 -0.08165658 -0.093591735
000350 d7 14 06 be 88 5f 1d 3e 54 eb 81 3d 9c 20 35 bd
       -0.13093887 0.15368474 0.063437134 -0.04422055
000360 63 93 ac 3d d1 f7 94 3c e1 40 67 bd 66 91 bd bd
       0.08426549 0.018184574 -0.056458358 -0.09256248
000370 e0 f9 50 bd f2 d8 c7 3d e8 3f 8f bd ce 04 07 3e
       -0.05101955 0.09758176 -0.06994611 0.13185427
000380 16 aa 03 3c b9 a1 0b 3e aa 40 db bd 19 16 66 bd
       0.008036157 0.13635911 -0.10705693 -0.056173418
000390 db 7e 30 bd 0a fd 89 bd 8d b9 4d bd ea 42 14 be
       -0.04308973 -0.067377165 -0.050225783 -0.1447865
0003a0 89 79 b3 bc 99 0e b5 3c 68 cd a1 3d 9f 83 c5 bc
       -0.021908538 0.022101687 0.07900506 -0.024110613
0003b0 22 12 ae 3d 25 d4 f8 3d ec 5f 60 be 87 e0 88 bd
       0.08499552 0.12149838 -0.21911591 -0.0668345
0003c0 21 b7 a0 3b e5 91 51 3c 83 a5 06 3e a4 a7 50 3d
       0.004904643 0.012791132 0.13149075 0.050941125
0003d0 a5 55 a9 3d 08 68 ef bc 4f 48 04 be a2 ad 6e bc
       0.082682885 -0.02922441 -0.12918209 -0.0145677645
0003e0 66 e1 b9 bd 62 e4 13 bc 40 e6 b4 bc ba 06 a8 bd
       -0.090761945 -0.009026619 -0.022082448 -0.08204408
0003f0 ab fe a4 3d f3 9f 90 3d c8 bf 85 bd f5 4b 96 bd
       0.080563866 0.07061758 -0.0653072 -0.073387064

weight f4 [256, 512]
000000 67 b7 36 be 50 79 a1 bd a4 bf f1 3c a3 19 24 bd
       -0.178434 -0.07884467 0.029510327 -0.04006351
000010 4f e0 ca ba f5 be 16 3e 0b ca 9d 3d f8 88 ec 3c
       -0.0015478226 0.14721282 0.07704552 0.028873906
000020 52 7f 20 3d d5 8b da bd 92 fc c3 3b 2e f0 8d bc
       0.039183922 -0.10671202 0.0059810365 -0.01732644
000030 6e 34 03 be c9 d0 68 3d 39 a9 5e 3d f6 fc f3 3c
       -0.12812969 0.056839738 0.054360602 0.029783707
000040 67 e9 b2 bd 14 bb ff 3d 08 9e 94 bd 20 3b 81 3d
       -0.08735924 0.12486854 -0.072567046 0.06310105
000050 2a 89 11 bd 41 62 f0 3d 72 16 04 be ec ea 8a bd
       -0.0355312 0.117374904 -0.12899187 -0.06783089
000060 57 fa 96 3d 85 63 03 3e 9f 55 b6 3c d3 45 ae 3d
       0.07371967 0.12830932 0.022257624 0.08509412
000070 e4 70 a0 3d 80 2f 9f 3c 66 6f 4c 3b 90 53 c1 3d
       0.07834032 0.01943183 0.0031194328 0.094397664
000080 db 1e 3f 3d b6 4c 53 bd 2b d0 34 3d d8 28 95 3c
       0.046660285 -0.05158683 0.044143837 0.018207952
000090 7a 92 16 bb 0e 29 0d 3e c6 62 68 be 4c 22 20 be
       -0.002297549 0.13785192 -0.22693929 -0.15638083
0000a0 9a bb 30 3e 02 c5 b5 3d d3 32 d5 3c e1 4d 2d 3d
       0.17259064 0.08875467 0.026025211 0.0423106
0000b0 22 0d 0b bc 78 f7 9c bd c3 ce e1 3d 43 d0 3f bd
       -0.008487018 -0.076643884 0.11025765 -0.046829473
0000c0 eb 92 bd 3e 1c 68 3c 3d e7 73 6c 3d 5c dd a8 bd
       0.37026152 0.045997724 0.05772772 -0.08245346
0000d0 5f db 48 3d cf c5 8f 3d 04 38 3d be 82 60 21 3d
       0.049037334 0.07020151 -0.184784 0.039398678
0000e0 49 7d da bc 31 dc 14 3e 73 54 12 bd 5c 38 4d be
       -0.026671069 0.14537121 -0.03572507 -0.2004103
0000f0 cb db 59 3e 85 1b 90 3d ea a4 6c 3c 01 fb 22 bc
       0.2127525 0.07036499 0.014443615 -0.009947539
000100 98 7d 00 3d 5c 14 28 3c b8 fa 1c bd 06 32 2f 3e
       0.031369776 0.01025876 -0.03832504 0.17108926
000110 d2 75 15 3e a0 b0 02 be 10 85 a1 bd 2c 89 72 3c
       0.14595726 -0.1276269 -0.07886708 0.014803212
000120 fc 1a 6d bd 4e 0f 11 3c 54 29 02 be 85 8f 84 3e
       -0.057887062 0.008853747 -0.12711078 0.25890747
000130 94 6e 93 bb 7b 56 71 be 8d b4 d2 3d 42 b5 5b bc
       -0.004499266 -0.23568146 0.102883436 -0.013409914
000140 02 92 76 3d 43 0c d9 bc 84 be ef bc 0b 0e e0 bd
       0.060197838 -0.026495105 -0.02926565 -0.109401785
000150 bf d6 16 be f4 21 78 bd 28 37 38 bd 91 27 2c bd
       -0.14730357 -0.060579255 -0.044974476 -0.04202992
000160 fa b1 2e bd f5 c8 47 bd 5a 81 a9 3d eb 39 71 be
       -0.0426502 -0.048775632 0.08276625 -0.2355725
000170 ce b3 0c be 20 3e 7f ba 8f c3 d0 bd 0f b1 97 bd
       -0.13740465 -0.00097367354 -0.1019355 -0.07406818
000180 e6 47 9e 3d 5b 1f 00 be 9b 01 31 bc b6 88 1e bd
       0.07728557 -0.12511961 -0.010803605 -0.038704596
000190 df a4 ec 3c b1 49 a8 bd 48 87 5e bd 88 62 c2 bd
       0.02888721 -0.082171805 -0.054328233 -0.094914496
0001a0 91 db 87 3c 45 9c 1a 3d e9 b8 bc 3d fc 6b cf 3d
       0.01658419 0.037746686 0.09214956 0.10128018
0001b0 46 49 0a be 2d 5b eb bb aa 5a b9 bd e8 f1 10 be
       -0.13504514 -0.0071825 -0.09050496 -0.1415478
0001c0 a7 4c 8e bd 4a 9e 17 3c 5a 2e bc bc 52 d9 1a 3e
       -0.06948214 0.009254048 -0.02297132 0.15121964
0001d0 fd 36 05 3d 08 a8 74 3c 01 d9 98 bd 28 20 d5 bb
       0.032523144 0.01493264 -0.07463265 -0.0065040775
0001e0 81 49 e9 bd 62 ea d9 bd 23 98 66 3d 7d 73 02 3d
       -0.11390973 -0.10640408 0.056297433 0.03184842
0001f0 dd e8 e6 bc 57 d9 0a 3d 6b 0d df bd 01 13 a1 bc
       -0.02818721 0.033898678 -0.10891231 -0.019662382
000200 3d 1b e6 3d ea b1 dd 3d d4 73 01 bd 07 0b 8c bc
       0.11235664 0.1082495 -0.031604603 -0.017095102
000210 80 6f 9a 3d b5 2b 70 3c ed 96 59 bc ec cc ce 3d
       0.07540798 0.014658858 -0.013280612 0.100976795
000220 b6 34 30 3c df 4e 75 3d a8 3c b6 3d 04 9f a7 3d
       0.010754755 0.05988967 0.08898288 0.08184627
000230 f1 fc e9 3d b9 7e c3 3c f0 24 c3 bc e7 25 56 3d
       0.11425198 0.023864137 -0.023821324 0.05228224
000240 0c c4 22 be 80 1d 57 be 8d 07 e5 3b a1 19 4e be
       -0.15895098 -0.21007347 0.0069894255 -0.20126964
000250 10 99 bd bc 4f 79 25 3e 47 c5 19 bd 25 ff ed bc
       -0.023144275 0.16159557 -0.037541654 -0.029052326
000260 c9 07 55 bd e4 19 2c 3d 35 85 33 bd 7f f0 5c 3a
       -0.052009378 0.04201688 -0.043828208 0.00084281707
000270 31 ab 13 3e 1f e9 ed bc 0b 74 86 3c 8f 4c b0 bc
       0.14420773 -0.029041825 0.016412755 -0.021520881
000280 c5 a2 02 3d f9 b4 1c be c2 7f 98 3d 33 fc 71 3d
       0.03189351 -0.1530341 0.07446243 0.059078407
000290 d1 83 3f bd ec 39 26 bc 9f dc 74 bd fa 97 03 be
       -0.04675657 -0.010145646 -0.059780713 -0.12850943
0002a0 88 f5 ba 3c f6 ad b8 bc d6 4c 18 be 22 b3 01 be
       0.022822157 -0.022543889 -0.1487306 -0.1266599
0002b0 b6 0d 8d bd 6e 4d 1c bd 39 24 7a 3d 79 b1 c5 bd
       -0.06887381 -0.03815978 0.0610697 -0.09652991
0002c0 ed b9 2f bc b5 d6 2a 3e fa 7c 82 bd e9 33 19 bd
       -0.0107254805 0.16683467 -0.06371494 -0.03740302
0002d0 32 c7 99 3c e4 86 91 3d ba 9b 9d bd 8b 6e 26 3e
       0.018771742 0.071058065 -0.07695718 0.16253106
0002e0 dc 3a 02 bd 89 78 d0 bc 0a bf 04 be 5c 26 90 3c
       -0.031794414 -0.0254481 -0.129635 0.017596416
0002f0 03 c2 c4 bd b1 32 4b be ac 82 8e 3d f4 cb 66 3d
       -0.09607317 -0.19843556 0.069585174 0.05634685
000300 5d dc 37 be 93 42 c2 bd 72 42 94 bb 4e 7a b3 3d
       -0.17955156 -0.09485354 -0.0045245225 0.08763562
000310 c7 73 41 bd 93 24 cd ba 09 1a 3e 3d 62 5b 93 3d
       -0.047229555 -0.0015651159 0.046411548 0.07195164
000320 54 ed 12 bb 54 d7 bd bd 15 36 f2 3d 91 af 68 3d
       -0.002241929 -0.09269586 0.118267216 0.05680806
000330 76 9c 65 3d 19 4d b0 3d 16 a6 7b 3d d0 d5 01 bd
       0.056057416 0.08608455 0.06143769 -0.031698048
000340 a6 1a 9a bc 83 f0 40 bd 5d a1 97 3d 68 fa e7 bd
       -0.018811535 -0.04710437 0.074038245 -0.11327058
000350 fa af fa bd 74 92 85 bd 7e bf fc 3c 6e 99 70 3c
       -0.12240596 -0.06522074 0.03085303 0.014685018
000360 45 5a a6 bc 3e e1 35 3e 0a b7 ef 3b 80 bd 0c be
       -0.020306716 0.17761704 0.007315521 -0.13744164
000370 20 7d e2 bd 85 b8 82 3c 63 61 d3 bd 36 65 1f bc
       -0.11059022 0.015957126 -0.103213094 -0.00972872
000380 b7 b6 81 bd 0d 50 12 3e ff 32 56 3c 29 e3 df bb
       -0.06333678 0.1428835 0.013073682 -0.0068324995
000390 a9 d9 e6 3d 0c 82 c0 bd a1 95 63 3d 7c a9 e1 bd
       0.11271984 -0.093998045 0.05556262 -0.11018655
0003a0 c7 c5 2a 3d 1d d7 45 bc 56 d8 da 3d 9e d3 65 bc
       0.04169252 -0.012075213 0.10685794 -0.014027504
0003b0 f8 6c 83 bd ee 8d 30 3e 23 43 33 3e 6b 7b 0b bd
       -0.064172685 0.17241642 0.1750608 -0.034053247
0003c0 af 2b 94 3c 5d 73 e8 bd 20 46 85 bc bd db d1 bd
       0.018087236 -0.11350129 -0.01626879 -0.1024699
0003d0 eb 65 cd bd b0 37 13 3e bd 1f 39 3d 18 65 28 3c
       -0.10029205 0.14376712 0.045196284 0.010278009
0003e0 40 f5 a2 3c 80 c6 4a 3d b4 ae 34 3d c6 5e 04 be
       0.019892335 0.04950571 0.044111922 -0.12926778
0003f0 62 84 7b 3b 68 ad 3c 3e 39 f4 c4 bc cd 80 f2 3d
       0.0038378467 0.18425524 -0.024042236 0.11840973

bias f4 [256]
000000 48 43 2d bd a2 47 29 bd 8a b5 84 bd 16 cd 4a bd
       -0.042300493 -0.04132808 -0.06479938 -0.04951199
000010 8b 76 c2 bd 40 6c 8b bc 6b ef 66 bc 5e af 16 bc
       -0.094952665 -0.017019391 -0.014095168 -0.009197084
000020 b3 9e 66 bb 79 bb 8b bc 7e 6e 5e bd 30 82 9d bd
       -0.0035189807 -0.017057167 -0.054304592 -0.07690847
000030 43 cc c2 bc d5 f4 fc bc 57 4e c3 3a 0b c1 da bd
       -0.02377904 -0.030878464 0.0014900666 -0.10681351
000040 eb 3b 33 bd e2 e0 a5 bd 28 00 00 bd ca a5 1b bd
       -0.043758314 -0.080995336 -0.03125015 -0.037999906
000050 12 a1 cf bd 6c b1 53 bd f8 79 44 3d 7f 64 25 bd
       -0.101381436 -0.051682875 0.04796788 -0.040379044
000060 7b 18 9b bd 75 b1 83 bd 0f c4 71 3d 06 86 bd bc
       -0.07573029 -0.064303316 0.059024867 -0.023135196
000070 c4 99 81 bc 79 48 b2 bd 1c 4b 1d bd f2 82 49 bd
       -0.015820391 -0.08705229 -0.038401708 -0.049197145
000080 7e 6f c0 bc 73 d8 54 3c 13 5d 49 3d de 6c f1 bd
       -0.023490664 0.012991059 0.049161028 -0.11788343
000090 25 1f f9 bd 69 8c 83 bd b7 3b c0 bd 78 20 e5 bb
       -0.121641435 -0.064232655 -0.0938639 -0.006992396
0000a0 72 30 3a 3c e8 30 65 bd 49 15 d7 3b a1 59 21 bd
       0.011364089 -0.055954844 0.0065638167 -0.039392117
0000b0 6f cd 11 3c ae 84 a7 bd 85 d7 3e bd 98 9e 8f 3c
       0.008899077 -0.081796035 -0.046592254 0.017531678
0000c0 21 9c 15 bd a8 7b 80 bd 3e 5e 98 bd 91 1c 01 bd
       -0.03652585 -0.062735856 -0.0743985 -0.031521384
0000d0 04 d4 eb bc 73 94 0c bd 9b 8e 19 bd 7f 8b b1 bc
       -0.02878762 -0.03432126 -0.037489515 -0.021672962
0000e0 5f 79 14 bd 39 41 d1 bd 6f 78 41 bd 81 16 ed bc
       -0.03624856 -0.10217518 -0.047233995 -0.028941395
0000f0 66 8e 5a 3d df 2d 2a bc 5d a8 0f be 35 24 02 bd
       0.053358458 -0.010386913 -0.14029069 -0.03177281
000100 95 6e 9d bd 80 e0 00 be 13 c5 9e bc 8b 8b b9 bd
       -0.076871075 -0.1258564 -0.019381082 -0.09059819
000110 62 89 cc bc ae 67 52 bd 1b a6 99 bc f8 0a 0a bd
       -0.024967853 -0.051368408 -0.018755963 -0.033701867
000120 56 d9 e1 bd ac 58 d9 bc 46 9a ae bd 0d 07 b4 3c
       -0.11027782 -0.02653154 -0.08525519 0.021976018
000130 c8 d2 9f bd 9e 77 96 b9 b8 e6 d4 ba ac 8d 54 bd
       -0.07803875 -0.0002869935 -0.0016243076 -0.05189292
000140 b5 40 86 bd b3 ee 97 3d 21 7c 93 3d e1 e8 cf bc
       -0.06555311 0.07418575 0.0720141 -0.0253796
000150 b8 66 fa bd 3a 62 d3 3c 6f ac 2b bd 1f 82 a0 bc
       -0.12226623 0.025803674 -0.041912492 -0.019593297
000160 b1 57 27 bd 7d c5 a1 bb 11 c0 67 bc f4 80 7f bd
       -0.040855113 -0.0049368725 -0.014144913 -0.06237884
000170 8e c7 3f bc 4e fa 30 bd dd b3 14 3b 63 ce bd bd
       -0.011705292 -0.04320746 0.0022690215 -0.09267881
000180 64 1a c6 bb a4 01 7c bd 4c 22 95 bc f8 65 4e bd
       -0.0060456265 -0.061525002 -0.01820483 -0.050390214
000190 c0 9a 21 3d 25 46 c8 bd ed 5d 23 3d 1a e8 4f 3c
       0.03945422 -0.09779004 0.039884496 0.012689615
0001a0 e6 b4 8d bd 96 71 8e bd 45 60 8d bd 6a 75 05 3d
       -0.06919269 -0.069552585 -0.069031276 0.032582678
0001b0 4a 67 1a 3d 24 cb 96 bc 4a fa 57 bd 93 c1 35 3b
       0.03769616 -0.018407412 -0.05272893 0.0027733787
0001c0 21 96 a3 bd 33 78 40 bd 7a fb a0 3c e2 e1 89 bd
       -0.07987619 -0.04698963 0.019651163 -0.06732537
0001d0 ae 93 fb bd f4 4c ce bd c2 0d d6 bc 45 5c 1f 3d
       -0.12284027 -0.100732714 -0.026129607 0.038906354
0001e0 2b 48 00 bd 1c 8f 47 bd 31 a9 57 bd 06 86 ca bd
       -0.031318825 -0.048720464 -0.052651588 -0.09888844
0001f0 ca 7c d9 bd e8 3d c3 bd 82 f4 da bd f0 34 cc bc
       -0.10619505 -0.09533292 -0.106911674 -0.024927586
000200 87 70 17 bc 36 4e 77 bd a1 95 1b be 3e 63 f1 bd
       -0.009243137 -0.060377322 -0.15193798 -0.11786507
000210 43 bf 35 3d 46 d4 69 bd bc ec f7 bd e8 f4 b7 bd
       0.044371855 -0.057087205 -0.121057004 -0.08982259
000220 8b 53 8c bd a9 cf 20 bd f4 35 31 bd 24 67 84 bd
       -0.06851872 -0.03926054 -0.043264344 -0.06464985
000230 10 50 8b bd a7 bc a9 bd 32 79 a7 3c 15 25 ca bd
       -0.0680238 -0.08287936 0.020443533 -0.09870354
000240 6b 0e 79 bd 5c fb a1 bd 78 b0 b4 bd a3 5e f1 bc
       -0.060804766 -0.07909271 -0.08822721 -0.029464072
000250 ae 01 79 bd 0a 50 16 bc c3 d7 cf bc 9b 5c 2f bd
       -0.060792617 -0.009174356 -0.025371438 -0.042812925
000260 85 fe 81 bd e8 99 53 bd 8c ce 95 bd 7f 9f b0 bc
       -0.06347374 -0.05166045 -0.07314786 -0.021560429
000270 73 23 21 bd 0d 13 32 bd 2c 7b c1 bd 33 99 9a bd
       -0.039340448 -0.0434752 -0.09447321 -0.07548752
000280 a8 21 8c bd bb 14 4a bd 51 7b 67 bd 3e bd 72 bd
       -0.06842357 -0.049336176 -0.056514088 -0.059262507
000290 37 24 25 bd f4 d2 3f bd 50 34 f3 3a 31 7c b4 bd
       -0.04031774 -0.04683204 0.0018555019 -0.0881275
0002a0 db 52 7d bd 90 90 eb bd fe ae c0 bd 57 d4 a9 bd
       -0.061846595 -0.115021825 -0.09408377 -0.08292454
0002b0 10 5b a4 bd ad 4b 18 bd 02 c4 27 3d 2a 2b 4e bd
       -0.08025181 -0.037181545 0.040958412 -0.050334133
0002c0 f7 f3 8f bd 20 45 42 bc c7 29 03 3d d3 b7 35 bd
       -0.070289545 -0.011857301 0.032022264 -0.04436476
0002d0 01 93 7c bd 8d 83 8c bd e9 57 4b be 1b 7b 83 bc
       -0.06166363 -0.06861029 -0.19857754 -0.016049912
0002e0 86 68 f5 3b 37 d4 be 3b 5b 29 26 bd cb eb da 3a
       0.007489267 0.005823638 -0.040566783 0.0016702352
0002f0 a5 67 46 be 83 1a ba 3b 4e 89 5e bd 52 c3 11 bd
       -0.19375475 0.00567943 -0.054330163 -0.035586663
000300 a4 ca e1 bd d1 c0 85 bd 53 7e f8 bc 0e bd 8f 3c
       -0.11024979 -0.065309174 -0.030333674 0.017546203
000310 22 e3 60 3c 61 87 d9 bd 5c 39 ea 3c 05 c8 e6 bd
       0.013726028 -0.106215246 0.028591804 -0.112686194
000320 ef 48 91 bd b3 a4 78 bd 26 6e a8 bd 4c cd 80 3a
       -0.07093989 -0.060703944 -0.08224134 0.0009826808
000330 0d 5a 0a bc d9 e7 9c bd 82 84 80 bd 03 3e c9 bd
       -0.008444321 -0.07661409 -0.06275274 -0.09826281
000340 21 1c b3 3d 21 84 54 bc ff e2 0a bd db 9d 04 bc
       0.087455995 -0.012970955 -0.033907887 -0.008094276
000350 c7 5a ac bd 47 63 7b bd 12 96 75 bd a8 f3 1a bc
       -0.08415752 -0.061373975 -0.05995757 -0.009457506
000360 57 03 7a bc 09 b8 f4 3c 21 06 0d bd 67 4c 00 bd
       -0.015259585 0.029872911 -0.034429673 -0.031322863
000370 9c b9 02 be 40 02 32 bd 71 bc 3c 3b bb d5 8b bd
       -0.12766117 -0.043459177 0.0028798843 -0.06827875
000380 c9 4f f4 bd 60 9a 32 bd 33 d1 e1 bc 6a ad 63 38
       -0.1192928 -0.043604255 -0.027565574 5.4282522e-05
000390 8d b2 40 bd 69 fd 87 3b d9 b2 29 3d 23 05 d3 bc
       -0.04704528 0.004150082 0.041430328 -0.025759285
0003a0 d1 61 0a bd af bc 83 bc f1 01 e9 bd 77 43 2f 3c
       -0.03378469 -0.016081182 -0.113773234 0.010697237
0003b0 85 64 2e 3d 86 38 ad bd db 50 7e bd b0 de b2 bd
       0.04257633 -0.084580466 -0.06208883 -0.087338805
0003c0 24 9c ab bd 94 d6 4f 3d b1 3d d6 bd 9c 7d ef bd
       -0.08379391 0.050741747 -0.104609855 -0.1169388
0003d0 64 e1 07 bc 7a 65 5d bd e8 28 ef bd cd f9 9d bd
       -0.008293483 -0.054051854 -0.11677724 -0.07713661
0003e0 e8 d8 a5 bd 58 ae 25 3c cc 17 9e bd e2 da 58 3c
       -0.08098012 0.010112368 -0.07719383 0.0132357795
0003f0 ca 10 1a bd 13 4e 3d bd 5f 2a d5 bd 02 0f 25 bd
       -0.037613668 -0.046217036 -0.10408472 -0.040297516

weight f4 [128, 256]
000000 b1 40 43 3d 73 19 b6 bd cc 49 b0 bc da a8 ab bd
       0.047669116 -0.08891573 -0.021519564 -0.08381815
000010 d3 74 cd 3d 82 16 f5 3b 40 1e 2e bd 0b 5e 84 bc
       0.10032048 0.00747949 -0.042509317 -0.016158124
000020 c5 82 25 bd 54 33 ac bd b0 8d 34 ba 63 27 80 bd
       -0.040407915 -0.084082276 -0.0006887568 -0.062575124
000030 42 91 2c 3b 27 7a 06 3e 3e 7c fe 3d 54 e9 36 bc
       0.0026331698 0.13132535 0.12426041 -0.011164028
000040 c4 e2 3e 3b 3b 48 90 bd bb bb 81 bd 33 50 8d bd
       0.0029126862 -0.07045027 -0.06334635 -0.069000624
000050 f8 00 0c 3c 8a 46 81 3d 47 b1 29 bc a0 1f 11 be
       0.008545153 0.063122824 -0.010357208 -0.1417222
000060 f2 56 3a 3d b2 67 3a bd 47 5d f9 3d 75 11 b8 bd
       0.045493074 -0.045509048 0.12175994 -0.08987705
000070 ae bc 63 3c 0b ec 7e 3d f6 b2 c7 bb c3 90 a5 bd
       0.013899965 0.062236827 -0.006094332 -0.08084252
000080 c7 16 88 3d 81 6c 12 39 84 34 f6 bd e6 4f b2 bd
       0.066449694 0.00013964066 -0.12021735 -0.08706646
000090 98 61 00 3c 8b 50 41 3c 0f bf df bd f5 10 c2 bd
       0.007835768 0.011798988 -0.109251134 -0.094758905
0000a0 48 bd 34 3e 98 8f 19 bd ed 89 4f 3d a1 dc f2 bc
       0.1765033 -0.037490457 0.050668646 -0.02964622
0000b0 e1 69 77 3d 2a df 1a bd 38 6e ca bd 59 03 01 3c
       0.06040371 -0.037810482 -0.09884304 0.007874333
0000c0 ca 5e b0 bd fd 1e 89 3d 01 3b e0 bd 59 6a 00 be
       -0.086118296 0.06695364 -0.10948754 -0.12540568
0000d0 f2 bf 14 bc 97 63 5a bd 9e 15 8d 3c 35 3c 9c bd
       -0.009078966 -0.053317633 0.017222222 -0.07628671
0000e0 47 85 f5 3c d8 76 81 3d a5 47 97 3c 87 8a b7 bc
       0.029970778 0.06321496 0.01846678 -0.022404922
0000f0 91 a1 57 bc 39 ad e6 bc f0 46 59 bd fb fd 34 bd
       -0.013161079 -0.02815877 -0.053046167 -0.044187527
000100 6c 74 2e bc 63 2c 41 3e 93 30 ca bd b3 3e fd bd
       -0.010647874 0.18864588 -0.09872546 -0.123654746
000110 07 62 93 3c 58 95 d9 3d 05 18 3c 3d 42 cd c2 3d
       0.017991079 0.10624188 0.045921344 0.09511806
000120 e5 bc 74 bd b9 7c 08 3d 0b 0f 84 3d c4 20 dc bd
       -0.059750456 0.03332207 0.06448182 -0.10748437
000130 bc 9e 59 3c c7 22 81 bd d4 1d 25 be da 1d 58 3d
       0.013282474 -0.063054614 -0.1612466 0.052762844
000140 e7 40 2f bd 2b e2 c7 bd e2 67 83 bd b9 7d 96 bc
       -0.042786505 -0.09759935 -0.064162984 -0.018370496
000150 dd 48 98 bb 4b 13 25 3d f1 02 6d 3d 03 cc e0 3c
       -0.004647358 0.040301602 0.057864133 0.02744103
000160 64 11 af bd a3 24 a6 3b 28 ab 47 bd 2e 98 78 3d
       -0.08548239 0.0050702854 -0.04874721 0.060692005
000170 7f 8a dc bd 56 1c 19 bd 61 cd 0a 3d 2c 72 83 3d
       -0.107686035 -0.03738054 0.03388727 0.06418261
000180 f0 49 e7 ba 3d 0c 1f bd 75 c7 2f 3c f7 34 0d 3e
       -0.0017645936 -0.03883003 0.010728707 0.13789736
000190 59 a3 ab 3d c3 b7 09 3c ad c3 85 bc 3a 39 10 be
       0.083807655 0.008405629 -0.016328657 -0.1408433
0001a0 93 69 b5 3c 7c 1d fb 3c 95 0a a3 3b a0 a4 06 bc
       0.022145068 0.030653708 0.0049756267 -0.008217961
0001b0 df 1a 4d bd 27 75 02 3d 48 ed 6d bd 8f a2 1c bc
       -0.050074454 0.031850006 -0.058087617 -0.009560241
0001c0 7e 56 42 bb 52 f4 5a 3d 52 ba 8f 3d 76 89 8d bd
       -0.0029653604 0.05345566 0.0701796 -0.06910984
0001d0 b1 2a 15 3d 8c 71 23 3d f0 e5 5e bd 96 ad 41 3c
       0.036417667 0.03990321 -0.054418504 0.011821171
0001e0 b7 e8 8a bd 84 e1 9a 3d 70 ab 0a bd b5 71 43 bd
       -0.06782668 0.07562545 -0.0338549 -0.04771586
0001f0 44 68 58 3d 45 a1 35 bd ee 49 56 3d da 3f f4 3a
       0.05283381 -0.04434325 0.0523166 0.0018634752
000200 60 13 1e 3d 59 ec c9 3d 1d 0a da 3c 17 33 4f 3d
       0.038592696 0.09859533 0.02661615 0.050585832
000210 ef 2b 42 bd 3e a3 75 bd 9b ea 8b 3d fc 01 a0 3d
       -0.04740518 -0.059970133 0.06831857 0.078128785
000220 5d b8 68 bb cb 37 e4 bd 04 71 5e bc 31 a8 11 bd
       -0.003551028 -0.11143454 -0.01357675 -0.03556079
000230 ab b1 7c bd 84 a0 8a bc 5e d5 ea 3c b9 80 e6 3d
       -0.061692875 -0.016922243 0.028666195 0.11255021
000240 36 bb fe bd ad 1d bf 3c c1 20 cc 3c 4a 40 4b 3c
       -0.124380514 0.02332958 0.024917962 0.012405464
000250 da 5d d2 bd 4c e9 93 3d c7 ab ba bc 35 79 df bb
       -0.10271807 0.07222232 -0.022786988 -0.006819869
000260 d5 62 fe 3c c2 a4 28 bd 5e ed a9 3c 37 01 18 3d
       0.031052986 -0.04117275 0.020743068 0.037110534
000270 85 08 8c 3c 5c d8 fa 3d de 0d 64 bd 1b aa 91 3d
       0.017093906 0.122482985 -0.055677287 0.07112523
000280 48 8a a5 bc a3 a3 92 bd 54 77 b9 bd 2a 8b ae bd
       -0.02020754 -0.071601175 -0.09055963 -0.08522637
000290 81 b7 06 be d5 2a 4c bd 16 25 07 bd 1b c8 26 3d
       -0.13155939 -0.049845535 -0.032994352 0.04071818
0002a0 4d 10 7d 3d 78 69 04 bb 11 19 b1 3c 0b c0 1e 3d
       0.061783124 -0.0020204466 0.021618398 0.038757365
0002b0 19 14 90 3b e3 00 00 3e 6f 10 40 3d 7b 89 b0 3c
       0.004396927 0.12500338 0.046890672 0.02154993
0002c0 c4 16 b5 bd c6 08 e2 bd 0f ab 3c 3e 5e 4c 11 bc
       -0.08842233 -0.1103683 0.18424629 -0.008868305
0002d0 7d 16 fa 3d 78 be 1e 3d 78 3e 54 3d 32 8f 6c bd
       0.122113205 0.038755864 0.051817387 -0.05775375
0002e0 8b a7 75 3d 92 29 96 bc 81 8d 30 3d 66 de bb bd
       0.059974235 -0.01833037 0.0431037 -0.091732785
0002f0 84 06 23 3b 28 d9 2a bd 48 f2 04 3b b6 df d1 3d
       0.002487571 -0.041711003 0.0020286012 0.102477476
000300 a3 8e 0c be 8b 2b c5 39 09 99 bc bc 25 fe e9 bd
       -0.13726287 0.0003760721 -0.023022192 -0.11425427
000310 b2 ca 06 be 58 0b 89 bc bf af 0b 3b 7e 59 a4 3d
       -0.1316326 -0.016729042 0.002131447 0.08024882
000320 ba 66 a3 3d 30 2c 88 bd 2a 92 db 3d 38 c2 f7 3b
       0.07978578 -0.06649053 0.10721238 0.0075609945
000330 3b 54 4f bd 23 06 3e 3d 63 60 0e bd f3 b8 01 3e
       -0.050617438 0.04639257 -0.03475989 0.12668209
000340 8d 80 31 3d 37 ee 54 bc c9 01 bb 3c c7 c5 43 bd
       0.043335486 -0.012996248 0.022828 -0.047796037
000350 5b c7 3c bd e1 c5 b3 bd 0b 9a 03 3e 7a be d0 bc
       -0.046088558 -0.08777977 0.12851731 -0.025481451
000360 91 08 07 3d b3 58 6f 3d bf 08 73 bd 76 67 e5 bd
       0.032967154 0.0584342 -0.059334513 -0.11201374
000370 a4 b7 0e be 49 99 b3 bd 05 90 78 3d 59 e1 bf bd
       -0.13937241 -0.08769471 0.060684223 -0.093691535
000380 35 2e bc 3d 86 b4 19 3c cb bd 21 bc ac 41 79 bc
       0.09188501 0.009381419 -0.00987191 -0.015213411
000390 bf ab 8b 3d a9 60 01 be 65 8f 84 3d 86 25 a0 bd
       0.06819867 -0.12634529 0.06472663 -0.07819657
0003a0 dc 03 ee bc 11 a6 0d be db 61 b1 3b a5 e9 91 bd
       -0.029054575 -0.1383288 0.0054132766 -0.07124642
0003b0 75 b7 a4 bb 41 59 87 3c 76 30 cc 3c eb be d4 3c
       -0.0050267526 0.016522052 0.024925452 0.025969943
0003c0 65 8c 01 3d 24 76 1b bd 5d 38 a1 3d f0 b9 4d bb
       0.03162803 -0.037954465 0.078720786 -0.0031391345
0003d0 60 db 56 3d 70 c5 c7 3c 69 cb f4 ba e0 4d bb bc
       0.052455306 0.024386138 -0.0018676344 -0.022864282
0003e0 08 1b 5a 3d a2 db c1 3b 65 a6 ce 3d 41 1c 21 bd
       0.053248435 0.005916075 0.10090331 -0.039333586
0003f0 29 85 89 bd c1 f2 b3 39 1d f0 ba bc 8f d6 41 3d
       -0.067148514 0.00034322406 -0.022819573 0.04732376

bias f4 [128]
000000 cf 6f c8 bd b5 6f 24 bd 3f dc 74 bc 05 d7 b6 bd
       -0.09786951 -0.040145595 -0.014945089 -0.089277305
000010 08 d8 e4 bc eb ac f7 bd 71 3a 2b be 15 ea 28 bd
       -0.027935043 -0.12093528 -0.16721512 -0.041238863
000020 94 b6 a6 3d d3 ae 3f be 00 13 b3 bc c2 fb ef bd
       0.08140293 -0.18719034 -0.021859646 -0.11717941
000030 e4 82 09 bc a1 5f 0d 3e 97 4b b0 bd f8 74 f0 bd
       -0.008393023 0.13806011 -0.086081676 -0.1174106
000040 3a e1 34 bd 90 bb 9f bd aa 35 85 bd d2 ca 17 bc
       -0.044160105 -0.077994466 -0.06504376 -0.009264665
000050 ff a2 24 bd fe ee 04 3d 99 68 6a bd b9 93 20 bc
       -0.040194508 0.032454483 -0.05722866 -0.009800845
000060 79 ee d4 bd bd e2 d9 bd 87 be f6 bb 83 ec 48 bd
       -0.103970475 -0.1063895 -0.007530037 -0.04905368
000070 0b 51 ba bd 74 38 ef 3b 71 6d cb bc af 78 12 be
       -0.09097489 0.007300431 -0.02483246 -0.1430385
000080 d8 17 25 bd 02 2e 73 bd 5b b7 dc bd 28 7f e5 ba
       -0.040305942 -0.05937005 -0.1077716 -0.0017509209
000090 ec 27 07 3d a1 11 9a 3d 9e 5f 32 be 9f 87 cc bc
       0.032997057 0.07522894 -0.17419288 -0.024967013
0000a0 6a 88 10 3d 45 a5 e9 bd 44 ac 25 be c8 fa b5 3d
       0.035286345 -0.11408476 -0.16178995 0.08885723
0000b0 71 9f 3d bd 7b ee b5 bc d2 b3 48 3d 4d 43 96 3d
       -0.046294633 -0.022208443 0.048999615 0.07337055
0000c0 68 dd c8 3c 4e df 81 bc 22 df 9f bd 74 09 d6 bd
       0.024519637 -0.01585355 -0.07806231 -0.10451022
0000d0 09 b3 d8 bd 0f 40 8d bd 84 92 10 be 38 5f db bd
       -0.10581023 -0.06896984 -0.14118391 -0.10711521
0000e0 e8 7c c8 bd 22 5b 2e be 9a c8 20 3d d0 3c 91 bc
       -0.09789449 -0.17026952 0.03925381 -0.017729193
0000f0 fb 4f 2a be 13 7d e3 bb 72 69 53 bd a7 9d d1 bd
       -0.16632073 -0.0069424002 -0.051614232 -0.10235148
000100 6b 97 e7 bc 83 99 f5 bd dd 29 53 3d 5d f6 ff 3c
       -0.028270444 -0.11992171 0.051553596 0.031245405
000110 e8 7a c4 bd ab 9d 33 be df 92 0c ba 70 b6 84 bd
       -0.09593755 -0.17540614 -0.00053624617 -0.0648011
000120 0f 58 87 3d 6c 25 d2 bd 08 14 de bd 95 d1 db bd
       0.06608593 -0.10261044 -0.108436644 -0.10733334
000130 04 57 fb bd 42 b0 be bd c8 f2 ed bd f4 43 68 bd
       -0.12272456 -0.09310962 -0.116185725 -0.05670543
000140 9f 31 ab bd da 8b 9b ba 99 fd 99 bd 4b 12 45 be
       -0.08359074 -0.001186724 -0.07519073 -0.1924526
000150 5c 71 0b be 8d b1 2f 3c 5b 62 9d bd 11 1d a2 3d
       -0.13617462 0.010723484 -0.076847754 0.079157
000160 eb 76 91 3b 74 49 9b bd 5d 01 1f bc 46 d1 8a bd
       0.004439225 -0.075823694 -0.009704915 -0.06778197
000170 cd 6f d2 3d 27 bf 03 3d 69 08 00 be d8 4d 6c bd
       0.102752306 0.03216472 -0.12503208 -0.057691425
000180 04 7c c4 bc ba 39 09 be fa aa ee bd 7d e9 4e bc
       -0.023984917 -0.13400927 -0.11653705 -0.01262891
000190 25 c1 fc 3c 78 8d 95 bd 0e 4a 05 be 4b 63 90 bd
       0.030853817 -0.07302374 -0.13016531 -0.07050189
0001a0 2c 11 28 bd f2 71 bd bc 47 fd 32 bc 43 2e 24 bd
       -0.041032 -0.023125622 -0.010924644 -0.04008318
0001b0 73 9b d8 bd 27 a5 f6 bd d0 0b 09 be 53 11 40 bd
       -0.105765246 -0.12043219 -0.13383412 -0.04689152
0001c0 0a 4c 4c bd 59 50 d2 3d b4 00 9c bd 33 11 8a 3b
       -0.049877204 0.10269231 -0.076173216 0.004213476
0001d0 06 44 be 3d b8 ac 0f be 7d e0 9d bd 63 19 4b be
       0.09290318 -0.1403073 -0.07708833 -0.19833903
0001e0 94 01 1a be b0 c2 63 bd 4c 76 68 bc ed bd ce bd
       -0.15039665 -0.05560559 -0.01418836 -0.10094819
0001f0 9d 0e e7 bd 72 53 40 3d 7a fa c1 bd 72 69 cf 3d
       -0.11282084 0.04695458 -0.09471603 0.10127534

weight f4 [12, 128]
000000 41 87 9e 3c d6 a3 6b bc eb 95 a9 bb f2 91 c8 bc
       0.019351603 -0.014382323 -0.0051753423 -0.024483655
000010 4e c5 68 3d 34 0e a5 bd e0 d7 e1 ba fd 58 85 3c
       0.05682879 -0.0805935 -0.0017230473 0.016277784
000020 28 6c 2f bd 34 44 80 bc f6 49 ac 3d 69 0b a2 3c
       -0.042827755 -0.015657522 0.084125444 0.019780831
000030 69 5e 70 bd 5c 84 dc 3c ac c6 72 bc 6d c4 a4 3b
       -0.058683787 0.026918583 -0.014817875 0.0050282986
000040 78 f2 6b ba be 37 98 bd 3e 2f 1f 3c 66 6e 21 bb
       -0.0009000669 -0.07432507 0.009715853 -0.0024632453
000050 5d bd 81 bd 84 9d 94 bd 4f 0e 3e ba 08 a9 f6 3c
       -0.06334946 -0.07256606 -0.0007250057 0.030109897
000060 73 3d 64 bc 0e 54 79 bb 07 92 fd bb 8a c1 99 bc
       -0.013930666 -0.0038044485 -0.007738355 -0.018769044
000070 b3 54 c2 bc 80 56 79 bd 35 e9 af ba e5 8d 19 3b
       -0.023722028 -0.06087351 -0.0013420942 0.0023430523
000080 b6 10 f7 bc 58 be b4 3d e4 f5 fb 3c 77 c0 0c bd
       -0.030159336 0.08825368 0.030756898 -0.034363236
000090 c9 6a 14 3d fa 46 c5 bc 13 ff 1e 3d 31 58 1f 3d
       0.03623465 -0.024081696 0.038817476 0.038902465
0000a0 84 b0 d1 3c 8c 35 ac bc b6 40 7f bb bc 4e a4 3d
       0.025596865 -0.021021627 -0.0038948483 0.0802283
0000b0 5d d9 37 bc 68 a3 0d 3d 03 35 d1 bc 67 ec 5b bd
       -0.011221257 0.034579664 -0.025537973 -0.053692248
0000c0 90 e1 5d bd d1 ef bf 3c 71 41 9a 3c cb 8f 1e bc
       -0.05417019 0.023429783 0.018830033 -0.009677838
0000d0 a3 05 21 3d 4f 5d 8f bc e0 5c 5c 3c 70 5f 4a 3b
       0.039312016 -0.017500548 0.0134498775 0.003087964
0000e0 60 9a ae 3b af 7c cf 3c 08 98 d7 3b b5 9c d0 b9
       0.0053284615 0.025328008 0.006579403 -0.00039789607
0000f0 e8 a6 ab bd 01 f8 e0 bc dd ec 3b 3c 27 20 5d 3c
       -0.08381444 -0.027462007 0.011470047 0.013496435
000100 e8 e9 0f 3c 72 f0 0b 3d 06 4c 06 bb fe 0b 48 bd
       0.008783795 0.034164853 -0.002049209 -0.04883956
000110 28 26 1d 3b 85 3b 42 bc 73 51 a2 3d 71 de 10 3d
       0.0023979042 -0.011855011 0.079256915 0.035368387
000120 54 32 a6 bc 15 61 5d 3d 68 10 9e bd 1c 0e c0 3c
       -0.02028767 0.054047663 -0.07717973 0.023444228
000130 00 94 a3 3c d6 3f 14 bd 2e b6 1b bd cd d8 29 3d
       0.019968033 -0.03619369 -0.038015537 0.041466523
000140 89 06 02 3b ea f1 1d 3d cc 20 87 3c 6d c0 7a bd
       0.001984032 0.038560785 0.016495131 -0.061218668
000150 b8 5e 3f 3a 83 e0 2b bc c2 0c 01 3d 44 1e 6b 3d
       0.0007300186 -0.0104905395 0.031506307 0.05740191
000160 b5 00 ee bc 3f 0a 30 3d 7d 20 68 bc 4e b3 5e 3d
       -0.029053072 0.04297852 -0.014167902 0.054370217
000170 c9 5c 3d 3b 10 72 e2 bd b0 68 c8 3c e1 12 ef 3c
       0.0028894416 -0.11056912 0.024463981 0.029183807
000180 41 86 c4 3c bd 7f 84 bd 8c a8 6a bd 6a 41 bf bc
       0.023989799 -0.06469677 -0.057289645 -0.023346622
000190 34 3c a9 3b e8 f5 84 ba f3 84 e4 bc df 4e 64 3d
       0.0051646475 -0.0010144087 -0.027895426 0.05573928
0001a0 f6 d1 b9 bc ac 5c 9e 3c 9d 5c 6e bd 4a 7f 80 3d
       -0.022683125 0.019331299 -0.05819379 0.062742785
0001b0 60 05 aa 3b 80 ad b1 3c b7 78 14 3d 80 b5 bc 3c
       0.005188629 0.021689177 0.036247935 0.023035765
0001c0 d0 2e 2a bd bd 54 03 bd 27 a7 c0 bc 37 29 34 3d
       -0.04154855 -0.032063235 -0.023517204 0.043984618
0001d0 db 37 b8 3c 54 18 0a 3d 8e 1a b9 bb a2 c7 91 3d
       0.022487571 0.033714607 -0.0056489175 0.07118155
0001e0 a9 db ab bd 18 7e 14 bd d1 5a d7 bb 53 37 22 3e
       -0.08391506 -0.036253065 -0.0065721055 0.15841417
0001f0 d8 fb 05 bd 55 9a a1 bc 05 33 08 3d 7e ea 9a 3b
       -0.03271088 -0.019726912 0.03325178 0.0047276607
000200 a6 a7 f6 3c 0d 73 31 bd 24 65 ea bc d0 34 bb 3b
       0.030109238 -0.04332261 -0.02861268 0.005713083
000210 ae 36 38 bb 08 09 4f 3d 46 eb 92 bc 3a 8e 9e bd
       -0.0028108764 0.050545722 -0.017934453 -0.07741971
000220 71 d3 ac bc 17 cc 41 3c 03 ae 07 bd b6 bd 58 bb
       -0.021096917 0.011828444 -0.033124935 -0.003307206
000230 ed 26 bb 3c ff ab eb bc 3c 09 97 bd c4 54 94 3c
       0.02284571 -0.028768538 -0.07374808 0.018106826
000240 ff 9d 07 3c 13 88 48 bd 70 73 6b 3c 22 83 03 bd
       0.008277415 -0.048957895 0.014370784 -0.03210748
000250 4c 1e 08 bd 40 ba b0 3d 60 da 93 3d 9f 27 83 3b
       -0.03323202 0.08629274 0.07219386 0.004002526
000260 11 6e 18 3b ea ee d9 bc b8 c4 3e 3d 81 34 bc 3c
       0.0023258964 -0.02660318 0.046574324 0.022974255
000270 12 98 be 3d aa 52 8f bd 9c d1 79 bd 80 6e 7a 3c
       0.09306349 -0.06998189 -0.060990915 0.015285134
000280 24 0e 30 bd b7 e9 16 bd f7 27 19 3d d0 f4 b4 3b
       -0.042982236 -0.03684398 0.03739163 0.005522348
000290 76 db 78 3d 46 3b 01 bd 66 55 89 bc 33 f8 93 bd
       0.06075617 -0.03155067 -0.016764354 -0.072250746
0002a0 87 54 28 3d b2 ee 6d bd f0 3a 96 3b fa d2 b8 3c
       0.041096237 -0.058088966 0.0045846626 0.022561539
0002b0 9a a7 3e bd 9a 4f a5 3d 94 8d 80 bb 36 34 86 3c
       -0.046546556 0.080718234 -0.0039231274 0.016382318
0002c0 cf c5 58 3c 6a 10 25 bc 67 be b3 3c 64 94 de bc
       0.013230755 -0.010074714 0.021941377 -0.027170368
0002d0 8f 58 42 3c 69 d6 53 bb 73 c7 8d bc b1 34 83 3d
       0.011861934 -0.0032323843 -0.017307019 0.064065345
0002e0 98 f2 02 bd ff 59 12 3d fd ee 3a bd 8e 4a 9f 3c
       -0.031969637 0.03573036 -0.045638073 0.01944473
0002f0 9a 43 1c bc af d9 28 ba 8f d3 c4 bb 49 a2 50 bc
       -0.009537602 -0.0006441129 -0.006006665 -0.012734004
000300 9d bb 0e bd 83 98 45 bd 65 4a 3c bc d6 d6 87 bd
       -0.03484689 -0.04824115 -0.011492346 -0.066327736
000310 d0 d3 ab 3c 7c 06 c2 3c 9b 1a 39 bd 81 a9 3f bd
       0.020975024 0.023684733 -0.04519139 -0.04679251
000320 d9 94 a1 3b a2 79 43 bd 6c c1 ac bd 12 2f 09 bc
       0.004931074 -0.04772342 -0.0843533 -0.008373039
000330 97 c3 a0 bc 47 1f d9 3c c8 49 db 3b da d8 d5 3c
       -0.019624515 0.026504172 0.006692145 0.02610438
000340 a1 2e b3 3c ec 23 69 3c d7 2a e5 3c 61 fe 09 bb
       0.02187282 0.014229756 0.02797453 -0.0021056163
000350 11 d7 ef bd 16 d6 2c bd 7e c2 19 3b 67 54 1f 3d
       -0.117109425 -0.042196356 0.0023461874 0.03889885
000360 f2 94 b0 bc f1 89 02 3d 14 c6 2e bb f8 0b 17 bd
       -0.021555398 0.031869832 -0.0026668357 -0.03687665
000370 34 fe 25 bd 0a 8a f1 3c b8 88 a5 ba 02 7f 01 bd
       -0.04052563 0.029484767 -0.0012629246 -0.031615265
000380 d1 44 5f bd 92 88 6b 3d eb af 2e 3d 41 26 8c 3c
       -0.054508988 0.05750329 0.042648237 0.017108085
000390 cb fd cb bc 7e 3c 5f bd 86 60 b0 3d 7e 80 45 bd
       -0.024901291 -0.05450105 0.086121604 -0.048218243
0003a0 3d ec 38 3a 97 93 25 3c fa c6 5e 3c fb 4c 00 3d
       0.0007054245 0.010105989 0.013597244 0.031323414
0003b0 6c de fa 3c 53 2f 9e bd 6b f8 d3 3d 76 7d 47 3d
       0.030623637 -0.0772387 0.10350116 0.048703633
0003c0 64 fd 36 3c d5 d8 6e bd 52 42 0f 3d 7a 14 7a bd
       0.0111688115 -0.058312256 0.034975357 -0.061054684
0003d0 3a 0c 6d 3b 90 d9 b2 bd 54 cf d4 3c a1 c2 0d 3d
       0.0036170618 -0.08732903 0.025977768 0.03460944
0003e0 87 d6 47 3d 44 2d 14 bd c8 e4 55 3c 18 94 e7 bb
       0.048788574 -0.03617598 0.013055034 -0.0070672147
0003f0 98 5f 10 bd 79 a6 77 bc 38 b8 f3 bd 28 eb 4c bd
       -0.035247415 -0.015115374 -0.11900371 -0.05002895

bias f4 [12]
000000 40 93 89 bd da 90 e1 3c 3f 63 9f bc cd 02 e9 3d
       -0.06717539 0.02753489 -0.019456504 0.11377487
000010 3c 0e 76 3d 61 bb c3 bd 63 ad 99 3d b8 b5 df 3d
       0.06007217 -0.09557224 0.07503774 0.10923332
000020 86 a2 3a 3d a5 65 88 bc ed 1d 8a 3d 56 7d 0b 3e
       0.04556515 -0.01665003 0.06743989 0.1362203
