models/Sep18_11-52-31_gym_encoder.pt (torch, 369862 bytes, 6 tensors)

weight f4 [256, 180]
000000 d8 c3 d9 bc a7 50 40 3d 4e 52 5a 3c aa fa 03 3c
       -0.026582643 0.046951916 0.013325287 0.008055368
000010 92 37 d8 bd ff 52 dd 3b 26 c1 f4 3e 51 f1 d1 be
       -0.10557474 0.0067542787 0.4780361 -0.41004422
000020 e8 bc 13 be 6b ba aa bd 96 05 0f be 1a 8d 49 bd
       -0.14427531 -0.08336338 -0.13966975 -0.04920683
000030 55 0e cf bd 49 3c 89 3c 6b 63 8b 3d 60 6a 06 bd
       -0.101101555 0.016752379 0.06806072 -0.03281629
000040 4e 82 f3 3c c6 cc 21 bc 00 0e cb bc 4e ac 45 3d
       0.02972522 -0.009875482 -0.02478695 0.048260026
000050 53 7a f4 3c 20 07 19 3f 20 29 8e 3f 89 78 89 c0
       0.029843485 0.59776497 1.11063 -4.295964
000060 ac 9e 7c 3d 41 c2 bf 3d 50 1b a8 bd 2d 78 36 be
       0.06167476 0.09363223 -0.082083344 -0.17819281
000070 6f f9 3d be fa 83 dc 3d dc 16 a7 3e ff a4 45 bd
       -0.18552183 0.1076736 0.32634628 -0.048253056
000080 97 df a0 be 90 77 da bc 10 ad 3f bd 6b 43 1d 3e
       -0.31420586 -0.02666834 -0.046795905 0.15357749
000090 5f f7 06 3d ba 69 f7 bb 2f fc 43 bb 1a e6 a3 3c
       0.032950755 -0.0075504454 -0.0029904952 0.020007182
0000a0 ba d3 6b 3c 55 61 10 bc cc 4f 9f 3d 9f e2 7f 3a
       0.014393741 -0.008812268 0.07778892 0.0009761247
0000b0 0a a0 43 3d ba 2d f3 bb 06 3f 9e 3b c4 7c 07 3d
       0.047760047 -0.0074212225 0.0048292903 0.03307797
0000c0 c6 0b 86 bd a2 fc 77 bd 20 89 58 bc fd e2 01 3d
       -0.06545214 -0.060543664 -0.013216287 0.031710614
0000d0 6f 95 46 be c9 e9 2a be e7 4d 1a 3d 06 9f c6 3b
       -0.19392942 -0.16690744 0.03767195 0.0060614375
0000e0 15 fc 51 bd 78 20 07 3b c4 5c 98 bd 99 b7 eb 3d
       -0.051265795 0.0020618718 -0.07439569 0.11509628
0000f0 05 86 76 bc 99 ee 8f 3d 00 3d 17 3c a8 1a f5 bd
       -0.015046601 0.07027931 0.009230852 -0.11967975
000100 c0 d5 a1 3c 95 ef 51 3d 66 70 a2 3c 7f f2 a8 3e
       0.019755244 0.051253874 0.019828986 0.3299751
000110 21 0a e0 3d 4b 89 d4 3d e5 50 cc 3d 5e 2a 50 3e
       0.10939432 0.10377749 0.09976367 0.20328662
000120 92 12 bf bd b9 4f f1 39 64 23 5b bd be 65 c2 bd
       -0.09329714 0.000460265 -0.053500548 -0.09492062
000130 ea 4c 67 3d d9 67 c4 bc b4 e6 1a bb 38 47 de 3c
       0.056469835 -0.0239753 -0.0023636045 0.02713357
000140 42 4f d2 bd 49 f2 71 bc a2 3b c2 3b dd 8a 53 bd
       -0.102690235 -0.014767238 0.005927519 -0.051646102
000150 90 2f 4e 3b 23 d6 84 bc 0a 56 e9 3b 6e be 4d 3d
       0.0031461455 -0.01621539 0.0071208524 0.050230436
000160 08 72 9a bc 85 7d be bb f0 7e 65 3c 42 a9 83 3b
       -0.018853202 -0.005813303 0.014007315 0.00401798
000170 db 61 1e 3d c6 25 8c bd 7c 45 5c bd a9 c7 0d 3c
       0.03866754 -0.06843142 -0.053777203 0.00865356
000180 a2 58 ff bd 58 02 d8 3d 9a c4 aa bd e4 ca 64 b9
       -0.12468077 0.10547322 -0.0833828 -0.00021819357
000190 be 2e d0 bd 06 27 d0 3d dc 19 6b bd 53 63 fe 3c
       -0.10165165 0.10163693 -0.05739771 0.03105322
0001a0 2d 89 95 3c 61 e4 f1 bc 5e f7 f5 bc d3 cb 38 3d
       0.018253887 -0.029527845 -0.03002518 0.045116257
0001b0 f0 96 62 bd ec 3e d8 3d c1 03 49 ba 1c 45 28 bd
       -0.055319726 0.105588764 -0.0007668101 -0.041081533
0001c0 3d 27 ff be 2b f0 23 40 4a b6 f8 3c 7b 5a e0 3c
       -0.49834624 2.5615337 0.03036036 0.027386894
0001d0 5c 43 68 3e 42 3b ac bd cc 3f 2f bd 84 40 bf 3c
       0.22681946 -0.0840974 -0.04278545 0.023346193
0001e0 0b d0 bc bd a0 03 0a 3d 54 60 06 3e 47 3a 84 3c
       -0.092193685 0.033694863 0.13122684 0.01614107
0001f0 4b e7 bb 3c 99 f4 fa bd c5 da 0a bc da 57 21 3c
       0.022937438 -0.122536846 -0.00847501 0.009847606
000200 a9 b0 55 bd 6a c8 75 3c 31 1f ba bb 2e ed 81 bc
       -0.05217043 0.015001396 -0.005679988 -0.015860166
000210 67 ce e6 3c 51 5a 81 bc 0a 8a bd bc 17 58 13 3b
       0.028174592 -0.015790137 -0.023137111 0.0022482926
000220 a8 ee 15 3d 36 41 74 3c b1 38 20 bd f0 76 69 bd
       0.036604553 0.014908126 -0.039116565 -0.056998193
000230 24 3b 99 3d f6 48 01 be 16 94 4f 3e 36 ee 29 3d
       0.07481983 -0.12625489 0.20271334 0.04148694
000240 f9 8c 2c 3d 24 00 2a be df 4e 9a 3e 89 7c c9 3c
       0.04212663 -0.16601616 0.301383 0.024595516
000250 2d bc b9 bd 80 0b 05 3e 36 f8 f3 bc 73 9f 7f 3d
       -0.09069095 0.12992668 -0.029781442 0.062407922
000260 cb c2 cb 3d 83 b5 fd bd 0d 3c 11 3c bb 20 17 3d
       0.09949263 -0.12388136 0.008864415 0.03689645
000270 31 11 e5 be d2 27 00 bf b6 f2 ff 3f 0c 0e db bd
       -0.44739679 -0.5006076 1.9995944 -0.106960386
000280 16 7d 86 3d 4a 73 17 3e ac a4 6b bd 07 cf ea bd
       0.06566827 0.14790073 -0.05753009 -0.114652686
000290 e5 e3 3d 3e b6 7c 03 be 49 b1 ac 3c 64 ce 63 3e
       0.18543966 -0.12840542 0.02108063 0.222467
0002a0 b2 ff 98 3c 05 af f1 3c d2 01 d1 bd 23 ca 8a 3c
       0.018676613 0.029502401 -0.10205425 0.01694209
0002b0 10 29 63 3a 0e f2 62 bc af 5f 9d 3c 21 c8 b6 ba
       0.00086654816 -0.013851656 0.019210665 -0.0013945141
0002c0 1b 23 ad bc 62 82 a4 b9 64 2c 4f bc 27 0c 96 bc
       -0.021134904 -0.0003137766 -0.012644861 -0.018316342
0002d0 6c 4c cf 3c 89 1c 02 3e 9c 73 b4 bd fd ef 1f 3d
       0.025304995 0.12706198 -0.08811113 0.03904723
0002e0 06 83 95 be d9 c7 05 3e 03 48 96 3c b4 56 28 be
       -0.29201525 0.13064517 0.018344885 -0.16439325
0002f0 e8 2e 73 3e 35 ea 9d bd 05 b6 5d 3d 37 f8 d9 bc
       0.23748362 -0.07710687 0.054128665 -0.026607616
000300 4c ea f1 3d 1b 1b b7 bd 36 a2 60 bd 61 10 7a 3e
       0.11812267 -0.08940717 -0.054842196 0.2442031
000310 1b 6e 35 bd 7f b1 2b 3c e8 c2 fb 3c dd 48 94 bd
       -0.044294458 0.01047933 0.030732587 -0.0724046
000320 5c 53 1b bc f5 44 92 3c a3 5d b6 be e5 ae 6f 3d
       -0.009480324 0.017855147 -0.35618314 0.0585164
000330 7d 18 13 bf 7b b2 ff 3e f8 50 7a be 6c 16 07 bf
       -0.5745924 0.49940857 -0.2444495 -0.5276859
000340 da 6f 9d 3e ad 73 63 3e 93 c6 55 3f 6f 9a c0 be
       0.30749398 0.22212096 0.83506125 -0.37617823
000350 69 5a a0 be 02 ed 44 bd 95 1c b2 bd 6a 4a d8 3d
       -0.31318977 -0.04807759 -0.08696858 0.10561068
000360 5a 62 b4 bd 74 06 56 3d 64 95 5c bd 7f a8 fa 3b
       -0.088078216 0.052252248 -0.053853408 0.007649481
000370 89 a8 0b 3d 7e 70 b2 bd 22 7a b3 3d 7b 6b 45 bc
       0.034096275 -0.087128624 0.08763529 -0.012049551
000380 9d b2 0d 3e 03 94 81 3c 90 d3 e9 3d 52 49 9f bd
       0.13837667 0.015817648 0.114173055 -0.077776566
000390 73 c5 80 3d ed ef 0f be 67 a7 8b 3d 71 71 d5 bd
       0.062876604 -0.14056368 0.06819039 -0.10422028
0003a0 50 b0 63 bd f8 b7 e6 3d 16 b3 97 3d d4 37 9e 3d
       -0.055588067 0.11265558 0.07407205 0.07725492
0003b0 41 2f 14 bd 61 51 d4 3d db 8d db bd 86 0d 07 bd
       -0.036177877 0.10367084 -0.10720416 -0.03297188
0003c0 c0 60 32 3e 26 5e 93 bc 9d 3b fe bc cb a4 96 3d
       0.1741972 -0.01798923 -0.031034285 0.073556505
0003d0 6f 50 89 3c 65 71 6a 3d a0 4b 31 3d 56 41 e4 bd
       0.016761987 0.057237048 0.043285012 -0.11145274
0003e0 2d 10 c2 be 1f ff fb bd 1b 69 65 3e 4a f5 e8 bd
       -0.37902966 -0.1230452 0.22403376 -0.1137491
0003f0 bc 40 99 be 6a 09 22 3e 5a 7b 2b 3e 30 83 6b 3e
       -0.299322 0.15823904 0.16746274 0.22999263

bias f4 [256]
000000 ac 22 d3 bb d4 71 5e 3d 98 82 c2 bd 3c 14 58 bd
       -0.006443342 0.054307774 -0.09497565 -0.052753672
000010 5d 7b 4c be 66 0f f8 bd 58 f6 02 3d 61 58 81 bc
       -0.19968934 -0.12112312 0.031973213 -0.015789213
000020 4d ec 2f 3e e7 ba fe bd 7c a5 2a 3b 8b 97 b8 3d
       0.17179985 -0.124379925 0.0026038578 0.090132795
000030 80 40 76 3e a2 55 06 3d 9c 72 04 bd 84 57 91 3b
       0.24048042 0.03279651 -0.032335863 0.0044354815
000040 65 11 10 3e 02 ec 54 bd 81 dc 6f be 0f 10 b9 bd
       0.14069135 -0.051982887 -0.2342396 -0.09036266
000050 f3 14 29 bd 66 76 a8 3d 83 70 d6 3d b4 0e 28 be
       -0.041279744 0.08225708 0.10470679 -0.16411859
000060 70 ce ed bc 24 7f 80 be ee 1c f1 3d 79 73 4d 3e
       -0.029029101 -0.25097 0.11773096 0.2006358
000070 f1 5b 45 be 0d b3 99 3e b0 2d 2b 3e 17 57 b9 bb
       -0.19273354 0.30019417 0.16716647 -0.005656134
000080 0a 83 2a 3e 36 8e f5 3d 68 2b ac 3c e9 21 06 3c
       0.1665155 0.11990015 0.021016791 0.008186796
000090 21 13 85 bd a0 5b d8 bd 4a 96 6e be dd 0c 01 3e
       -0.06497789 -0.10564351 -0.23299518 0.12602563
0000a0 ab fd 05 3e bd 64 0e bd 1c 8b 05 be 56 9f 88 bb
       0.13085048 -0.03476404 -0.13041347 -0.004169385
0000b0 ee bd ca bd d5 49 ef 3d 8c 68 01 be 75 78 4e 3d
       -0.098995075 0.11684004 -0.12637538 0.050407846
0000c0 a0 17 02 be 58 80 87 3e 59 35 b0 bd 6d 4a f1 bd
       -0.12704325 0.26465106 -0.08603925 -0.11781774
0000d0 8b 14 f5 3d 4b 17 cd bc eb d7 6b be a2 cc 2a 3c
       0.11966809 -0.025035521 -0.23031585 0.010424765
0000e0 81 0d 2e bd ce 9b 21 3d f0 9a 03 3e cd f9 12 3e
       -0.042493347 0.039455228 0.12852073 0.14353104
0000f0 8c 51 1c be bc db 09 3e 4b bc d0 bd 71 75 a8 bc
       -0.15265483 0.13462728 -0.10192164 -0.020563813
000100 6f 42 c4 3a 8d a6 22 3c 12 b9 fc bd 20 63 a4 3c
       0.0014973412 0.009927404 -0.12339987 0.020066798
000110 c2 bf bf 3c 35 f8 e4 bb 5f c2 2e be 54 ac 6f bd
       0.023406867 -0.0069875964 -0.17066334 -0.058513954
000120 04 06 8c 3c 79 75 aa 3d 9a 6b 49 be 18 3d 29 bc
       0.017092712 0.083231874 -0.19669953 -0.010329507
000130 57 b3 b6 bd 05 47 e0 3d 50 1d 32 3d d8 ea 14 be
       -0.08920925 0.10951046 0.043484986 -0.14542711
000140 2f 0a 01 3d 51 e0 07 3d 7b 82 de 3d 87 c5 98 3c
       0.031503852 0.03317291 0.10864731 0.018648876
000150 eb 4e f5 3d 29 1b 17 3d 21 21 47 bd 70 7c f9 bc
       0.11977943 0.036891136 -0.04861558 -0.030454844
000160 f5 16 1a be e5 f8 93 bc 8c e3 67 3e 39 19 5f be
       -0.1504782 -0.018063018 0.22645396 -0.21786965
000170 ea 37 d9 bd de 5d 16 be e3 d2 a2 3d 08 fd d1 bb
       -0.10606368 -0.14684245 0.0795038 -0.0064083375
000180 e5 b3 9f bd 65 10 a8 bc 23 a6 7e bc 75 8b d6 3d
       -0.07797984 -0.02051563 -0.01554254 0.10475818
000190 09 da 10 bd a7 a5 47 3e 30 44 a0 3d 27 0f 40 bd
       -0.035364185 0.19496785 0.07825506 -0.04688945
0001a0 e9 50 ae be 7c cd 06 3e cf e3 71 be 31 05 92 bd
       -0.34046105 0.13164324 -0.23622058 -0.071298964
0001b0 80 03 12 be ae 53 95 bd db ef ec bd e6 a1 b9 bd
       -0.14259148 -0.07291351 -0.11569186 -0.09064083
0001c0 ed e3 3d 3e 5c 78 d0 3d b9 04 5c 3b 2a ff 5b be
       0.18543978 0.10179207 0.003357215 -0.21484056
0001d0 b9 8a cd 3d f1 1f 61 bd 53 4d 44 3d ff 89 1e 3d
       0.10036225 -0.054962102 0.047925305 0.038705822
0001e0 62 f5 81 bd 7f c9 b1 3b 4c a5 72 bd 63 68 0f 3e
       -0.06345631 0.0054256315 -0.05923967 0.14004664
0001f0 b4 bc 84 bc ea 25 96 3e 3b b5 5c be bb 0b 57 be
       -0.016203262 0.293258 -0.21553509 -0.21000569
000200 86 0d 87 bd 28 c7 99 3d 1b fb 21 be d4 cc 91 3e
       -0.06594376 0.07508689 -0.15818445 0.28476584
000210 18 74 b7 3e 1d e6 85 be 3d dc 0a be fa a5 f9 3d
       0.3583076 -0.26152125 -0.13560577 0.12189861
000220 1a 01 32 be 89 52 08 be 3f 54 8f 3d 37 03 c3 3d
       -0.17383233 -0.13312735 0.069984905 0.095220976
000230 e0 4f 2e be f1 f8 ac bc 95 e6 5b bd e5 3e 4b be
       -0.17022657 -0.021114798 -0.053686697 -0.19848211
000240 dc a9 84 be 81 44 b2 3d 8f b6 e3 3e f4 82 a7 3d
       -0.25910842 0.08704472 0.4447522 0.08179274
000250 3c cb 31 be 51 6a 78 3d 19 d3 79 3e ad ee 60 bd
       -0.17362684 0.060648266 0.24396934 -0.05491512
000260 32 5c a8 3d f9 43 0c be f2 ad 21 bd a1 30 dc 39
       0.0822071 -0.13697805 -0.039472528 0.000419979
000270 8e fc 8a be 06 80 99 3d 81 96 2d bd 48 ae c5 3e
       -0.2714581 0.07495122 -0.04237986 0.3860953
000280 77 14 1b 3e cf 34 7b 3e ca 2d 07 3e 7c a1 eb bc
       0.15144525 0.24531864 0.13201061 -0.028763525
000290 ff 26 31 be a9 10 f6 3d 65 bf fb 3d 73 e7 e7 bd
       -0.17300032 0.120148964 0.12292365 -0.11323442
0002a0 a6 05 d9 bc 71 f0 94 bd 14 e9 8e be a4 5e d0 bd
       -0.026491951 -0.07272423 -0.279122 -0.10174301
0002b0 ef 7e 3d be 7e d8 55 be dd ae 8b bc 06 6b 8a be
       -0.18505453 -0.20883366 -0.017051155 -0.27034777
0002c0 15 45 29 be 78 d5 9c 3e cb 5f eb bc 14 97 60 3d
       -0.16530259 0.30631614 -0.028732201 0.05483158
0002d0 9e d8 02 be f2 1e e1 bc 4d 5b c4 3c 02 24 31 be
       -0.12777945 -0.027480576 0.023969317 -0.17298892
0002e0 0e 42 0c 3d 58 99 3d bd 6d 97 f0 bd 33 c9 f6 3e
       0.034242682 -0.046288818 -0.11747632 0.48200378
0002f0 0e 9b b3 bd 28 09 a8 3c 75 2c 38 3d fc 05 bc bd
       -0.08769809 0.020512179 0.044964273 -0.09180829
000300 97 66 2a be cd d1 b6 bd 22 68 27 be f0 12 55 3d
       -0.16640697 -0.08926735 -0.16348317 0.052020013
000310 13 3d 6e bd dd 87 84 3b fe c6 c9 be c0 01 ce 3c
       -0.058163714 0.0040445165 -0.39409631 0.025147319
000320 ce 8c 89 be 73 ea 34 3d fe 0b 5f 3c b6 33 a9 ba
       -0.26865238 0.0441689 0.013613699 -0.0012909088
000330 63 56 e8 3d a4 11 e2 3b af 75 a2 3e cc 7b b7 3d
       0.11344602 0.0068990756 0.3173041 0.08959159
000340 1f fb 73 3d 20 7c a7 be 28 31 cd bd d1 10 a8 bd
       0.05956566 -0.32711887 -0.100191414 -0.082063325
000350 6a 79 bb bc 8b 77 23 3e 54 47 34 be 7a 43 cd 3d
       -0.022885043 0.15963571 -0.17605335 0.10022636
000360 7e 9a b3 be d8 03 7b 3e 84 26 f1 3c 7e ac 4a 3d
       -0.35078806 0.24513185 0.029437311 0.049480908
000370 70 ff 32 be 87 dc f8 3d da b5 e1 bd 9b 78 e5 3d
       -0.17480254 0.12151437 -0.110210136 0.11204644
000380 d0 b9 bb 3d ea 35 47 be b4 f8 4f bd 35 5f 54 3e
       0.091663 -0.1945416 -0.05077429 0.20739444
000390 07 f6 23 be 4d 9b 9c be 8b 4a 18 be 77 18 26 be
       -0.1601182 -0.30587235 -0.14872186 -0.1622027
0003a0 ae 13 6b be 6f 73 65 be 8a c7 6d 3d ad 50 00 be
       -0.22956726 -0.22407316 0.058051623 -0.12530775
0003b0 14 82 6d be 8a 64 e0 3d c6 25 63 3d 0b 3e 33 3d
       -0.23194152 0.10956676 0.055455945 0.04376034
0003c0 b1 05 45 be 9f 06 19 bd b7 33 4c bd 07 ab b6 3d
       -0.19240452 -0.03735983 -0.049854007 0.089193396
0003d0 a5 0c fd bd ae 90 d5 3c b1 5e 71 bd f5 fa 1d 3e
       -0.123559274 0.026069965 -0.058928195 0.15427764
0003e0 c1 f6 73 3c af 3f 41 3d 58 fd 62 3e 9f 1f 87 be
       0.014890374 0.047179874 0.22166955 -0.26391312
0003f0 17 e0 3e 3e ee 36 66 bd 7b 0a f9 3a c2 8b 2b 3d
       0.18640171 -0.05620473 0.0019000316 0.04188133

weight f4 [128, 256]
000000 56 f3 b8 bc 6f e2 13 be cc 28 b3 3d 08 9a 2e bd
       -0.02257697 -0.14441846 0.08748016 -0.042627364
000010 db 52 ac bc f4 2b 26 bd 22 fc 86 bb ca 33 f0 bd
       -0.021035602 -0.04056926 -0.004119412 -0.11728628
000020 2d b7 39 bd 1d 14 c8 3b 72 80 75 be ba 0e f0 bd
       -0.045340706 0.0061059133 -0.23974779 -0.11721559
000030 7e 7d 59 bd 88 ff d3 bd 0a 72 93 ba c3 89 fe 3b
       -0.053098194 -0.10351473 -0.0011249196 0.0077678873
000040 e7 7a 6e bd 6d 55 9f 3d 5c d6 81 bd 3a 31 83 bd
       -0.058222678 0.077799655 -0.06339714 -0.064058736
000050 96 88 8f 3d 72 96 e3 3c 3b d7 cb 3c 6f 26 88 3d
       0.070084736 0.027781699 0.024882903 0.066479556
000060 8d 8b 80 bd df b8 1a 3c 9d 02 36 bd 20 6f 42 bd
       -0.06276617 0.009443491 -0.044436086 -0.04746926
000070 1d 04 78 3d 8b c1 a6 3c 30 9d e8 bc a3 57 ad 3b
       0.060550798 0.02035596 -0.028395265 0.005289988
000080 59 ce ed bc cc 41 d3 bc 05 fa 76 be f3 52 35 bd
       -0.029029058 -0.02578821 -0.24118812 -0.04426856
000090 f1 1a 02 bd 09 23 a0 3d fb 2f e1 b6 20 31 2e 3c
       -0.031763975 0.078191824 -6.711108e-06 0.0106318295
0000a0 01 35 6d 3d 94 e2 73 3d ab 06 c0 3d 64 df 4a be
       0.057911877 0.059542254 0.09376272 -0.1981178
0000b0 b2 3f 36 bd ee 2f 76 3d cd 76 25 3d d0 33 03 bd
       -0.04449434 0.060104303 0.0403965 -0.032031834
0000c0 4a 64 cb 3c b2 86 27 3c 52 5b af 3d fb 40 05 3e
       0.024828095 0.010224985 0.0856234 0.1301307
0000d0 44 c6 b7 bc 80 a1 48 bd de 8c 0e 3e 08 13 fc bd
       -0.022433408 -0.048982143 0.13920924 -0.123083174
0000e0 fc 31 9b bc 8f 9c a7 bd 45 a0 07 bc c2 b7 94 bd
       -0.018944733 -0.08184158 -0.008277957 -0.072616115
0000f0 92 f6 66 3d 34 fe 64 3c 94 ee 29 bd b3 91 12 3d
       0.05638749 0.013976622 -0.04148729 0.03578348
000100 ac 6a 1e 3c e1 c5 df 3c ac d4 ab bd 01 3a bc 3d
       0.009668987 0.027316036 -0.08390173 0.09190751
000110 26 ba 2d 3d b2 c9 44 3d 53 14 b0 3d fa fd bf bc
       0.042413853 0.048043914 0.085976265 -0.023436535
000120 ef 49 03 3e 8a 6e 32 bc f5 2f e4 3c 8c cb 8b bd
       0.12821172 -0.010890612 0.027854899 -0.06825933
000130 5f b3 d9 bd 3f 5b 1f 3d 84 87 89 bd 76 56 b8 bd
       -0.106299154 0.03890538 -0.06715301 -0.09000866
000140 6a a7 ef 3d 14 07 5a 3d 11 d1 99 3d 6d aa f8 3c
       0.117018536 0.053229406 0.075105794 0.030354703
000150 72 8b 7e bb 58 f0 14 3d d6 20 11 bc 61 10 e5 3b
       -0.003884044 0.036362022 -0.008857926 0.006990478
000160 bb 6e cb bd 8d 87 1d 3d 4d 88 2b 3b e5 38 42 3c
       -0.099332295 0.03845935 0.002617377 0.011854385
000170 23 12 30 be b5 ea 7f bd 16 61 86 3c 7b 43 24 3c
       -0.17194419 -0.062479693 0.016403716 0.010025854
000180 e5 4b 4c bc 8e 73 fd 3d c0 43 e0 3c 3d 3e d9 bd
       -0.012469267 0.12375556 0.027376056 -0.10607574
000190 30 e1 f4 3d 7c e0 d4 bc b6 c4 01 3e 9a e0 32 3d
       0.119570136 -0.025985949 0.12672696 0.043671228
0001a0 42 b1 f8 bb 40 b2 24 bd 76 55 fc bc f8 07 e7 3d
       -0.00758949 -0.040209055 -0.03080247 0.11280817
0001b0 f8 0c 5b 3d 39 56 23 3e 87 b9 b4 3d 94 d7 4e be
       0.053479165 0.1595086 0.08824449 -0.20199424
0001c0 b2 96 0c be cb 63 8a 3d af 6b 1c bd 41 fb 24 be
       -0.1372936 0.06757315 -0.038188633 -0.16111471
0001d0 6b 47 d0 bd 8f 81 c9 bd 6e 77 0f bc 99 52 49 bd
       -0.10169872 -0.098391645 -0.008756502 -0.049151037
0001e0 ba cc 64 3d ca 8c 20 3d 57 8a 4a bd 01 87 9c bd
       0.055859305 0.039196767 -0.049448337 -0.076429375
0001f0 2c a2 b8 bc 00 4e 8b bd b2 0d 15 bd bf 2f 29 3c
       -0.022538267 -0.06801987 -0.036390014 0.010326325
000200 16 8d 84 bd e2 ce 15 bd fb 32 5b bd d6 87 2c be
       -0.064722225 -0.036574252 -0.053515416 -0.16848692
000210 0a d0 9e 3d f1 9d c8 3d 95 ce 20 be 38 b2 66 3d
       0.07754524 0.0979575 -0.15703805 0.056322306
000220 72 c4 bd 3d d6 30 5c bd e8 35 b3 bd 22 b1 dc 3d
       0.092659846 -0.05375751 -0.08750516 0.10775973
000230 99 ac 4e bc aa b8 18 bd b6 d7 80 3d be af cd 3d
       -0.012614393 -0.037285484 0.062911436 0.10043286
000240 93 02 26 3d 26 48 5f bc a9 87 f5 bc dc 88 ef 3c
       0.0405298 -0.013628041 -0.029971914 0.029240064
000250 8a 9d 7e 3b f6 f3 7f bd 2f b2 0f be 03 18 82 bd
       0.0038851225 -0.06248852 -0.14032815 -0.06352236
000260 6e 6c cf bd 1e 9b 51 3e 79 61 fa 39 40 70 14 3e
       -0.10128103 0.20469329 0.0004775634 0.14495945
000270 69 3c 57 3d 55 a8 1e bc d0 aa 1d be ec a1 eb bd
       0.052547846 -0.009683688 -0.15397191 -0.115054935
000280 b9 03 88 3d 49 cc 61 bd 08 16 63 bc 77 2e 41 bd
       0.06641335 -0.055126462 -0.013860233 -0.047163453
000290 1a c1 e2 bd d3 99 e9 bd f3 ae 8f 39 bd 9e 37 3e
       -0.110719875 -0.11406293 0.00027405433 0.17931648
0002a0 b9 c5 60 3d 7c 9d bb bd a1 32 ba 3c 94 60 94 bd
       0.054876063 -0.09160897 0.02272922 -0.07244983
0002b0 0d 69 8b 3d ca 55 c0 3d b6 7e c8 3c 27 51 79 3d
       0.06807146 0.09391363 0.024474483 0.06086841
0002c0 7e 61 75 bd b1 76 ff bd 23 8c 97 3b 27 99 8e bb
       -0.05990743 -0.124738105 0.00462486 -0.0043517533
0002d0 f3 90 8e bc 94 09 ab 3d 18 e8 d1 3d d7 6c a4 bc
       -0.017403102 0.08351436 0.102493465 -0.02007143
0002e0 dd 56 14 be 18 ef 22 bc 57 51 09 3c 8c 31 d5 3c
       -0.1448626 -0.0099447 0.008381209 0.026024602
0002f0 6c 53 0e 3e bd 48 c1 3d cd 19 00 3e f3 cc c8 bb
       0.1389901 0.09437702 0.12509842 -0.0061279475
000300 ec d1 03 3e e3 a4 0a 3e 31 d6 9f 3d e9 af e8 3d
       0.12873048 0.13539462 0.07804526 0.11361677
000310 da a9 38 bc 2d a0 13 bd 81 5a 9a 3b b2 20 3c bc
       -0.0112709645 -0.036041427 0.004710496 -0.011482405
000320 f1 15 3c 3d 6c 8a 40 be 22 b0 1b be a9 da ca bd
       0.045919362 -0.18802804 -0.15203908 -0.09904987
000330 f7 8c bb bd 14 06 7d bd 26 59 63 bd f3 f9 89 bc
       -0.09157746 -0.061773375 -0.05550494 -0.016842818
000340 2d 67 c4 bd 5e 4a 9c 3c 29 96 1d bd bc a8 0b bd
       -0.09589992 0.01907843 -0.038473282 -0.034096465
000350 68 5f 35 3e 7c dd 6e be e2 f9 f3 3b 7f cf a6 bd
       0.17712176 -0.23326677 0.00744556 -0.081450455
000360 09 22 15 3e fb 89 c3 bd 2f 73 11 be 8d 1e 84 bc
       0.14563765 -0.09547802 -0.14204095 -0.016127849
000370 a5 e0 2f 3d 38 a6 45 be fb 8f 37 be 3d 14 5f bd
       0.042938847 -0.19301689 -0.17926018 -0.05446266
000380 b4 5d 13 3e 3d b1 ce 3d 64 1f 1a bd 68 12 30 bd
       0.14391214 0.10092399 -0.037627593 -0.042986304
000390 53 12 cd 3b ff 49 9a 3c df b8 fa bd 02 a0 88 bc
       0.006258288 0.018834112 -0.122422926 -0.01667786
0003a0 1a 7e 87 3d cb 9a 96 bd 39 1e 1c 3d ac 37 65 3d
       0.06615849 -0.07353743 0.03811476 0.055961296
0003b0 38 46 42 bd 01 dd 35 bd b6 c5 ab bd 5c a5 24 3b
       -0.047430247 -0.04440022 -0.0838732 0.0025122976
0003c0 a7 25 ab bc 5e 92 63 bd 10 49 06 3d 86 f3 cf 3d
       -0.020891977 -0.05555951 0.03278452 0.1015387
0003d0 ec 6f 27 3e 26 cc a7 bd c7 f5 c1 bb 3b 11 3f 3c
       0.16351289 -0.08193235 -0.0059191915 0.011661823
0003e0 46 3f 59 bc 10 cd 7d bd 56 41 8c be b9 f6 66 bc
       -0.0132597145 -0.06196314 -0.27393597 -0.014096909
0003f0 b3 8e 90 bc 1a 29 a6 3b 17 e8 f6 3a ed 65 81 3d
       -0.01764617 0.0050708177 0.0018837479 0.06318269

bias f4 [128]
000000 ce ab 92 bd da 6f 9c bd 62 6c 90 bd 24 4b 19 be
       -0.071616754 -0.076385215 -0.070519224 -0.1497007
000010 6c 3e 81 3d 23 21 81 bd a8 e8 ce bd b0 b0 84 bd
       0.06310734 -0.063051485 -0.101029694 -0.06479013
000020 e7 e5 19 bc e1 59 9b bd 9e 95 c4 bd 9f 65 b9 bd
       -0.009393192 -0.075855024 -0.0959885 -0.09052586
000030 49 38 4b bd c2 08 f6 bd 6a e5 93 3b c9 26 0f bd
       -0.049614225 -0.12013389 0.0045134323 -0.034949098
000040 5e f3 88 3d 5c 44 4c bb 93 00 f2 3c 2f c0 50 bc
       0.066870436 -0.0031168675 0.02954129 -0.012741133
000050 57 8d 63 bd 83 4f 9a bc 9d a2 b5 bd 22 ed 60 bd
       -0.055554714 -0.018836742 -0.08868907 -0.054913647
000060 97 a3 ad 3c c3 8a 28 be 84 8a 81 bd 1f 0e 77 bd
       0.02119617 -0.16459183 -0.06325248 -0.0603162
000070 04 68 45 bd d0 22 2c bd ec 8c be 3a d3 1d dd bc
       -0.0481949 -0.042025387 0.0014537848 -0.02699176
000080 18 2f b3 bd fc 1c 73 bd 66 c4 1f 3d dc bb a5 bd
       -0.08749217 -0.059353814 0.03900566 -0.08092472
000090 56 e9 b8 bc b1 bb 35 be a1 25 6a bd f7 d8 b4 bc
       -0.0225722 -0.1774738 -0.057164792 -0.022076113
0000a0 3d 51 ce bb 8c 21 b6 bd 72 f3 57 bd 97 06 5f 3d
       -0.0062963055 -0.08893117 -0.052722402 0.054449644
0000b0 6c a6 a4 bd ae 58 2c bd 5f 51 a2 3b a2 e7 a3 bc
       -0.08039555 -0.04207676 0.004953548 -0.020007912
0000c0 3c eb 68 39 ff b2 6a bc d8 d1 f7 bd 9e 1a 4d bd
       0.00022212876 -0.014324903 -0.121005714 -0.050074212
0000d0 87 df 50 bd b6 3c 6c bd 4c 9a d2 bb 74 a0 c2 bc
       -0.050994422 -0.057675086 -0.006427085 -0.02375815
0000e0 c3 5b ba bd 0a b9 5d bd 2e 76 87 bd 01 ee bc bd
       -0.090995334 -0.054131545 -0.06614338 -0.09225083
0000f0 d8 83 51 bd 91 2b 8c bd a2 ff e4 3c d5 b2 aa bd
       -0.051151127 -0.06844247 0.027953926 -0.08334891
000100 ca 1c c5 bd 45 b1 5c bd 6c 07 1c bd 30 b3 9f 3c
       -0.09624632 -0.053879995 -0.038093016 0.019494623
000110 93 22 9b bc 49 5e 08 bc 6c b9 66 bd 7d db e8 bd
       -0.018937385 -0.008323261 -0.056329176 -0.11369989
000120 5a 67 b3 bd b4 95 db bd 8b cd 9e 3c a0 5b 6e bd
       -0.08759947 -0.10721913 0.01938512 -0.05819285
000130 d8 f0 11 bd 80 ff 0c bd 67 c9 1e bd 64 6c 91 bd
       -0.035630077 -0.03442335 -0.03876629 -0.07100752
000140 40 10 7f bc 3a 95 0e bd d7 a3 10 bd 54 56 23 bd
       -0.015567839 -0.034810282 -0.0353125 -0.03987725
000150 8c b6 ae bd fb 9c d8 bd 4f 2b ab bd a3 d0 80 3b
       -0.08530912 -0.10576817 -0.0835787 0.0039311214
000160 38 b8 b3 bd de 4d 66 bd b6 47 8e bd 78 6d 78 bd
       -0.08775371 -0.056226604 -0.069472715 -0.060651273
000170 58 5b d8 bc f3 bb 93 bd 1d 96 75 bd ac d2 7c bc
       -0.026410744 -0.07213583 -0.059957612 -0.015431087
000180 97 4a 3c bd be 71 48 bd 6c 4b d7 bd d8 37 fa bd
       -0.045969572 -0.048936598 -0.105124325 -0.122176826
000190 f0 7e c4 bd 13 75 b8 bc 06 d1 40 bd 02 6a 42 3c
       -0.09594524 -0.022516763 -0.04707434 0.011866095
0001a0 9e ba 65 bd 80 e2 e6 bc 0e fa 01 be 91 c0 5f bd
       -0.056086175 -0.028184175 -0.12693045 -0.054627005
0001b0 a0 49 9f bd ba 8f db bc bc 84 06 bd 4e b2 d5 bd
       -0.07777715 -0.026801933 -0.03284143 -0.104343995
0001c0 37 2f 92 bc 4f 5d 53 bd ce a3 6f bd b4 a2 a0 bd
       -0.01784478 -0.051602658 -0.058505826 -0.07843533
0001d0 20 b0 4b bd 2e 6f 27 bd b1 3e 80 3b ca 82 f8 bd
       -0.049728513 -0.040877514 0.0039137234 -0.12134321
0001e0 e0 d1 cd bd 6c 51 13 3d c5 fb ff bd ba fe fa 3c
       -0.10049796 0.03596632 -0.12499193 0.030639041
0001f0 eb 22 2d bd 57 68 23 bc d7 ee 8a bc d6 6d 3c bd
       -0.04226963 -0.009973607 -0.01695959 -0.046003185

weight f4 [82, 128]
000000 90 23 7c 3b 41 b7 82 bc 2b 14 b7 bc 4b ca 38 bd
       0.0038473345 -0.015956523 -0.022348484 -0.045114797
000010 d4 31 48 bc 0e d0 8f bc fe cc a5 3c de c8 88 bc
       -0.012218911 -0.017555263 0.02023935 -0.016697343
000020 ee c7 a6 3b f1 f6 a7 bc ec 3f 08 3d ec 22 ff bc
       0.0050897514 -0.020503493 0.033264086 -0.031144582
000030 d8 f9 b6 bc 9c 6a 0c bd ca f2 e4 3b 59 14 c6 3c
       -0.022335932 -0.034281358 0.0069869505 0.024179624
000040 ef 12 3c 3d 0c d9 3b bc 1e bc 7f bc 53 73 b4 bb
       0.045916494 -0.011465322 -0.0156088155 -0.005506912
000050 e4 22 e8 bd ee c7 db 3c 9a b5 66 bd 8f ba 3b 3c
       -0.1133478 0.026828732 -0.056325532 0.011458053
000060 2a 2e 81 3d 83 7d 65 3c 5d 5a 23 3c 3a f0 49 ba
       0.06307633 0.014006975 0.009970275 -0.0007703338
000070 b5 84 be 3c 6c c5 9e 3c 67 4a aa bd df 48 4e bd
       0.023256639 0.019381247 -0.08314972 -0.050362464
000080 70 b7 a9 bb 58 bd 20 3b 2a bc e0 39 96 0d 2e bc
       -0.005179338 0.002452692 0.00042864803 -0.010623356
000090 e3 7f 18 bb ff 8e bd 3c 03 16 af bc 98 0a 87 3b
       -0.0023269586 0.023139475 -0.0213728 0.004121136
0000a0 4b dc 66 bd 7e f7 3e bd 92 66 1f bd 52 c4 ef 3d
       -0.05636243 -0.046622746 -0.038916178 0.11707367
0000b0 c7 81 18 3c c4 52 11 3d cd 69 11 3d b7 5f 21 3c
       0.009308285 0.035479322 0.03550129 0.00984948
0000c0 82 96 79 bb fe 0c b2 ba 0c 60 a6 3d 73 7b dc bc
       -0.0038084094 -0.0013584194 0.08123788 -0.026914334
0000d0 58 43 b1 bc 62 f3 43 bd 27 45 c1 bc 05 fb 79 bc
       -0.021638557 -0.04783953 -0.023592545 -0.015257602
0000e0 44 99 20 3d be 8c 36 3c dc ed a9 3d 78 d6 8e bb
       0.039208665 0.011141954 0.08297321 -0.0043590628
0000f0 af 2e 55 3c 73 3e f3 3c d2 0b 8d b9 95 92 6e bb
       0.0130116185 0.029692864 -0.00026902423 -0.0036403288
000100 ff 92 07 3e 8c bb e4 3b d6 09 6c 3c 96 2d d6 3c
       0.13239668 0.006980365 0.014406642 0.026144784
000110 49 16 40 3c 9e f0 74 3c 1e e4 10 bd 4f 47 24 3d
       0.011724063 0.014949946 -0.0353738 0.040107068
000120 9b 5f f8 bc 38 39 a7 bc a0 e1 81 3c d3 cd 53 3d
       -0.030319026 -0.020413026 0.015854657 0.05170996
000130 12 d1 93 bc 5d a3 34 3c 05 12 b6 3b e5 b2 9c bb
       -0.018044028 0.011025277 0.0055563473 -0.004782068
000140 6e be 01 bd 6b a3 30 bb 16 5a ad 3b de 95 2d bb
       -0.03167575 -0.0026952873 0.00529028 -0.0026487033
000150 61 39 0a 3d 32 48 b2 3c 1a aa 11 bd 9c 01 2d bd
       0.033746127 0.021762941 -0.035562612 -0.042237863
000160 70 f7 7f 3d 07 5c dc bb 63 08 b4 bc 42 d1 e0 bb
       0.062491834 -0.0067248377 -0.021976655 -0.006860883
000170 06 41 18 bc e1 fb 9f bc c2 ac 4a 3c 61 54 01 3c
       -0.009292847 -0.019529285 0.01237029 0.007893653
000180 a1 7a b9 bc 23 46 f4 3b 91 aa b0 bd 34 cd 31 3d
       -0.022641482 0.00745465 -0.08626283 0.043408588
000190 5d df 9a 3a 0a 2d 8f 3b 57 ce bf bc d3 b4 60 3c
       0.0011815835 0.0043693827 -0.02341382 0.013714987
0001a0 60 8b b0 bc de 1c a2 bc 21 1f 0f bb 32 53 57 bb
       -0.021550834 -0.019789156 -0.0021838623 -0.0032855985
0001b0 34 2d 56 3d 86 62 ca bc a2 04 31 3d 07 57 82 3c
       0.052289203 -0.024705183 0.04321731 0.015910638
0001c0 24 25 5c 3c 43 9f 02 bc 2b 71 c9 bd 78 e7 92 bc
       0.013436589 -0.007972541 -0.09836038 -0.017932639
0001d0 86 c4 46 bb d9 fe 21 3d 1d 5a 2e 3c 57 5a 44 bc
       -0.003032954 0.039549682 0.010641602 -0.011984429
0001e0 07 e8 c1 bc 91 c2 e4 3a 1c 36 a4 3c 18 80 c4 3d
       -0.02367021 0.0017453005 0.020045333 0.095947444
0001f0 08 b1 6a 3c 4d 1a 81 bc e8 c1 01 3c 4c 20 8b bd
       0.014324434 -0.015759612 0.007919766 -0.067932695
000200 bc f4 87 3c 82 7a 07 3d 75 ca 80 bd a2 a7 4c 3d
       0.01659619 0.033075817 -0.062886156 0.049964555
000210 40 96 51 3d 1b 53 4c bc 6b 92 26 3d 10 62 00 bc
       0.05116868 -0.012470986 0.04066698 -0.00783588
000220 87 3f c3 bd 6a e3 93 3b 8e 58 f0 bb 52 6b 80 3c
       -0.09533601 0.004513194 -0.0073347753 0.015676174
000230 45 01 6b 3c cd 87 a5 3d 81 43 e3 3b 99 44 77 3d
       0.014343564 0.080825426 0.0069355373 0.060368154
000240 4b 7d 71 bd ca 19 5c 3d b0 8c 99 3d ae 97 d1 bc
       -0.05895738 0.053735532 0.07497537 -0.025585022
000250 66 b8 ac 3c a8 06 b4 bb ad 7d f7 ba 3e 31 2d 3d
       0.021084022 -0.0054939575 -0.0018882059 0.04228329
000260 55 56 f8 3c 1c 76 88 3c 30 87 38 be 8c 26 04 bd
       0.030314604 0.016657881 -0.1802032 -0.032263324
000270 8b 09 ee 3c 73 cd c1 bb 93 9e 64 bc da 33 73 3d
       0.029057285 -0.005914384 -0.013953823 0.05937562
000280 76 68 84 bc bc a0 fb bd fa e9 b3 3d 97 44 8d bc
       -0.016163092 -0.12286517 0.08784862 -0.01724462
000290 3e d3 3c bd 60 d3 48 bd 42 90 3d 3d fe 32 49 bd
       -0.046099894 -0.049029708 0.046280153 -0.049120896
0002a0 93 4b 44 bd 60 30 94 3c e6 d5 23 3c 30 8e 48 bc
       -0.047923636 0.018089473 0.009999728 -0.012240931
0002b0 50 5c 79 bd a5 b7 7e bc b6 e2 b8 3d 10 53 95 bd
       -0.06087905 -0.015546714 0.09027617 -0.072912335
0002c0 41 10 ac bd 54 c3 b0 bd 70 c0 08 bd 13 ca 24 3d
       -0.08401538 -0.08631006 -0.033386648 0.040231775
0002d0 17 f2 57 3d 90 9c 64 bc 5d 5f 22 3c 32 a9 17 bd
       0.05272111 -0.013953343 0.009910432 -0.03702659
0002e0 ed f9 52 3c 3c c8 af bc d3 a2 05 bd 74 b5 04 bd
       0.01287697 -0.021457784 -0.032625984 -0.03239961
0002f0 a8 fe 52 bd ec d7 da 3c 15 84 0d 3d 5e de 02 3d
       -0.05151239 0.026714288 0.03454979 0.031950347
000300 a6 f5 dd bc 2e 0f 99 bc 9f 32 93 bc da ea a9 bc
       -0.027094673 -0.018683996 -0.017968474 -0.020741869
000310 c0 08 7c bb 05 f2 bd bd 4c b0 d5 bc 0d fb 03 3d
       -0.0038457364 -0.09274677 -0.026085041 0.032221843
000320 b1 78 60 3c 00 d7 62 3d 20 e3 03 3d 2b 14 73 3d
       0.01370065 0.05538082 0.032199025 0.059345406
000330 f2 3c e0 3c e6 21 b9 3d ca f2 0e 3c d6 75 4e 3c
       0.027372811 0.09039669 0.008724878 0.012601336
000340 95 34 72 bd cf b0 17 3d f8 a0 3d bc 98 11 b2 bd
       -0.059132177 0.037033852 -0.0115740225 -0.08694762
000350 19 7a d2 bd 23 39 f5 bb 44 09 bd 3c a8 1a f9 3c
       -0.102771945 -0.007483618 0.023075707 0.030408219
000360 44 0f df bc 65 44 8c bc 8a b2 84 3d 6e cb 24 bd
       -0.027228959 -0.017122457 0.06479366 -0.04023307
000370 20 0d 08 3d 5e c6 b5 3b 79 ed 20 3c c2 c9 61 3d
       0.033215642 0.005547329 0.009822243 0.055124052
000380 b2 af 87 bb 90 27 ac 3d ae 86 9d 3c 1e b0 60 bd
       -0.0041408176 0.084059834 0.01922926 -0.05485546
000390 4e 65 78 3d 4c 3c 44 3d c3 0d 85 3a ce 99 0d bd
       0.060643487 0.047909066 0.0010151196 -0.034570508
0003a0 9a 84 f1 bc e7 2a 58 bc 3a f3 11 bd 1c b1 56 3d
       -0.029482175 -0.0131938225 -0.03563235 0.052415
0003b0 ee cf 96 3c ce fe 80 3b ad 27 94 bd 4c 6a 52 bd
       0.018409695 0.003936625 -0.0723413 -0.051370904
0003c0 d8 fd 59 3c 58 1f ba 3c 8c 7f 4a 3c 9d 65 1d 3d
       0.01330515 0.022720024 0.012359511 0.038426984
0003d0 ba e6 b6 3c 83 da 8e 3c 48 dd 58 3d 05 a6 aa 3b
       0.022326816 0.017438179 0.052945405 0.0052077794
0003e0 aa f8 8c bc 00 8b 2f bd dd 5d fc bc 3c 3a 01 bd
       -0.017208416 -0.04285717 -0.030806476 -0.031549677
0003f0 bc c8 a1 3d 99 93 05 bc 8f f4 22 bd 65 a8 59 3d
       0.07899615 -0.008152866 -0.03978401 0.05313911

bias f4 [82]
000000 77 d7 c8 bc 8a f3 16 3c 9a b1 61 3b cb d3 b1 bc
       -0.024516804 0.009213338 0.0034438134 -0.021707436
000010 01 2a 1d 3d 05 cd b1 3b cf 3b e3 bc 86 2d 3f 3c
       0.038370136 0.0054260516 -0.02773848 0.0116685685
000020 2f 12 04 bd 16 ec cf ba d9 21 ac 3c 4f 32 7c bc
       -0.032243904 -0.0015863206 0.021012234 -0.015392854
000030 10 e8 9d 3b 14 88 98 3c cd a4 3f 3d f9 a1 fc 3c
       0.004818924 0.018619575 0.046788026 0.030838953
000040 a6 fd 8d bc 55 a9 d4 bc b4 be fa 3b b3 1f 50 3c
       -0.017332863 -0.02595965 0.007652128 0.01270287
000050 5c 9e 02 bc 3b 50 52 3c 32 aa df 3c 26 c6 cb 3a
       -0.007972326 0.012836511 0.027302835 0.0015546724
000060 32 05 85 bc 96 01 2d bd 1d ac b8 3b ee 6c 80 3c
       -0.016237829 -0.04223784 0.005635752 0.015676942
000070 70 a5 dd 3c bc 9c 91 3c a8 00 f5 3b ca d9 e6 bc
       0.027056426 0.017774932 0.007476885 -0.028180022
000080 df 26 fb 3a 66 0f 27 bc 5e 3d 8b 39 4b 1a 06 3c
       0.0019161365 -0.010196542 0.00026557868 0.00818498
000090 0b ac 52 bc ef 6c a1 3a 49 22 cb bc 0b ed 12 3d
       -0.012858401 0.001231579 -0.024796622 0.035870593
0000a0 c4 a6 b4 bc 5c eb 1f 3d 08 6d 83 3c 0e 38 de bc
       -0.022052176 0.039042816 0.016043201 -0.027126338
0000b0 8f b2 69 bd d8 38 8a bc 62 00 d3 bc c2 c1 fd bc
       -0.057055052 -0.016872808 -0.025757018 -0.03097618
0000c0 71 71 24 3c 9e fa 04 bb a6 a3 20 3b 19 55 86 bb
       0.010036812 -0.002029098 0.0024511605 -0.0040995
0000d0 1b 74 6b bc b6 a3 30 bc ab 56 38 3d 46 5f 59 bc
       -0.014370943 -0.010781219 0.045004528 -0.013267344
0000e0 03 36 f7 bc 54 42 6b 3a 16 56 c0 bb de 8f 5b bc
       -0.030177122 0.0008974422 -0.0058696372 -0.013401
0000f0 1f 80 94 39 86 04 68 3b c8 ed d2 3c 66 92 bb 3c
       0.00028324217 0.0035403087 0.025748149 0.022896957
000100 6c ae 20 3d 36 fe e0 bc 27 a2 88 bc 4d 70 34 bc
       0.03922884 -0.027464967 -0.016678883 -0.011013103
000110 2d d1 89 bc 06 52 55 3c 78 73 8c bb 35 e0 0d bd
       -0.016823376 0.013020044 -0.004286226 -0.03463765
000120 08 6e 90 ba e0 0f ca bc 05 7a 2c 3c e9 df 21 bb
       -0.001101912 -0.024665773 0.010527139 -0.0024700111
000130 71 2e 1a bb b7 42 ee 3c 88 11 b7 3a c8 14 0b bb
       -0.0023526216 0.029084546 0.0013967017 -0.0021222103
000140 9d d7 73 3c 0b c3 47 3c
       0.014882949 0.012192498
