models/Sep18_11-52-31_gym_policy.pt (torch, 937363 bytes, 8 tensors)

weight f4 [512, 127]
0.07413111 0.16558206 -0.0028169292 0.46888122 -0.6036648 -0.011768053 0.12736824 0.38149178
-0.13648374 -0.15845948 -0.25307977 -0.086687505 0.07170653 0.16606924 -0.03307003 0.19551943
-0.028354922 0.01177549 0.062834926 0.0771841 -0.01984663 0.064948395 -0.27534637 0.17005654
0.26891395 -0.32095537 0.3277473 -0.110801175 0.244736 0.013540708 0.67780685 0.12387733
-0.08739962 0.010732949 -0.023837894 0.033338375 0.007227067 -0.032466523 -0.03295164 -0.03583786
0.013517488 0.020089341 0.05257805 0.016774321 -0.0027719892 0.03903343 -0.07964805 -0.033774894
0.011648833 -0.0063244672 -0.1736498 -0.122786984 0.0046184096 0.08232554 0.076766916 -0.0082739005
-0.07046168 -0.108015314 0.043863796 0.06998045 -0.038146313 0.03347916 -0.04482957 0.06652831
0.115800776 -0.015292478 0.12376649 0.07031735 0.054302707 0.0033923546 -0.07449489 -0.108649574
-0.024505762 0.07650052 -0.031192956 0.012863105 0.103730194 -0.031993054 -0.030734042 0.0070557296
-0.104427576 0.027507717 0.13014263 -0.03491558 0.05552593 0.043268133 -0.14928356 0.02943618
-0.04899066 -0.08109128 0.004877158 -0.0321821 0.093199894 0.042020608 0.06801383 0.08226754
0.051533375 0.078182295 0.028459916 -0.0025247536 0.07707436 -0.14392021 -0.019864399 0.053405512
-0.033463955 -0.1505749 0.16215178 -0.061452836 -0.017529195 -0.01150529 0.11547641 -0.052969888
-0.17733471 0.0076701622 -0.014522631 -0.05902301 -0.06917024 0.095970675 -0.071757056 -0.050579824
0.0062593957 0.017478663 0.15464826 -0.09042397 -0.0036184182 -0.0047259014 0.059738718 0.013710257
-0.116536595 -0.5663216 0.041116428 0.0018970117 -0.057000913 -0.13953252 -0.042888947 -0.005169545
0.3530992 0.085690476 -0.0893301 -0.27168187 -0.116437286 0.039848626 -0.15304089 0.08560251
-0.22618546 0.07044576 -0.14607024 -0.14611533 -0.4985825 -0.17425264 -0.16544944 -0.5197805
-0.44253126 -0.21055184 0.25029975 0.14043918 0.037968047 -0.5847 -0.28101742 -0.10367944
0.0110907825 0.008683117 0.0005967344 0.0047552683 0.058589015 -0.019411728 0.021244286 -0.075269185
-0.0015604026 0.04868105 0.03639337 0.03667888 0.053972874 0.013980375 -0.054038946 0.045162767
-0.010908309 0.015606742 0.025270732 0.0069589834 -0.058755 0.153742 -0.041689236 0.054034088
0.07802221 0.12557244 0.054722004 0.08445847 -0.018649459 -0.09415719 0.060545597 0.040466905
0.038952496 0.0049816556 0.056957677 -0.034727864 -0.039578155 -0.0071753617 0.018297156 0.066889785
0.06229445 0.029694384 -0.00068655104 0.09533125 0.08745213 0.016280739 -0.022929076 -0.10452102
0.051901694 -0.11709281 -0.10462118 -0.017737057 -0.0029536407 0.037559383 0.061949033 -0.023340512
0.09253817 0.0832794 0.038161203 -0.004496566 -0.06846861 0.029782034 0.017284937 -0.07053221
0.049228597 -0.10154523 -0.042688265 0.0769624 0.033034284 0.04564805 0.016922282 -0.06591896
0.00065569783 -0.1094512 0.012328054 -0.04519887 -0.17072576 0.047885988 -0.081556045 0.027890034
-0.09827219 -0.02366579 -0.039294228 0.17253758 0.012153726 0.13725021 0.058751307 0.02418852
0.013709061 -0.0018388965 0.0013661103 0.0025440697 -0.04828975 0.059270486 -0.15563983 0.0797724
00000000: 0dd2 973d 588e 293e 3b9c 38bb 3311 f03e
00000010: c789 1abf cbce 40bc d26c 023e e452 c33e
00000020: 65c2 0bbe 3443 22be ac93 81be 3889 b1bd
00000030: e0da 923d 0e0e 2a3e 7174 07bd 3f36 483e
00000040: 9548 e8bc fced 403c 99af 803d b312 9e3d
00000050: 6695 a2bc aa03 853d 33fa 8cbe 4d23 2e3e
00000060: 17af 893e 4354 a4be 7ece a73e baeb e2bd
00000070: 139c 7a3e d9d9 5d3c c084 2d3f 66b3 fd3d
00000080: 92fe b2bd 40d9 2f3c b047 c3bc d28d 083d
00000090: 08d1 ec3b 9efb 04bd 4df8 06bd b8ca 12bd
000000a0: 7478 5d3c 6792 a43c 155c 573d 4d6a 893c
000000b0: 43aa 35bb 85e1 1f3d 841e a3bd 8b57 0abd
000000c0: bfda 3e3c 7a3d cfbb 41d1 31be be77 fbbd
000000d0: 0756 973b 4b9a a83d f937 9d3d 418f 07bc
000000e0: 374e 90bd 2237 ddbd 86aa 333d e951 8f3d
000000f0: 4f3f 1cbd 7221 093d 369f 37bd ff3f 883d
00000100: f528 ed3d 4d8d 7abc 4979 fd3d 8b02 903d
00000110: 846c 5e3d 4452 5e3b c790 98bd ab83 debd
00000120: 4fc0 c8bc 4eac 9c3d 5f88 ffbc c6bf 523c
00000130: 7f70 d43d 260b 03bd f5c5 fbbc c033 e73b
00000140: 20de d5bd dd57 e13c 1c44 053e a403 0fbd
00000150: 286f 633d ed39 313d cadd 18be 2524 f13c
00000160: 6eaa 48bd 2f13 a6bd 91d0 9f3b 61d1 03bd
00000170: 96df be3d cd1d 2c3d d64a 8b3d e27b a83d
00000180: a914 533d 0a1e a03d c524 e93c 5676 25bb
00000190: 29d9 9d3d d25f 13be aaba a2bc bdbf 5a3d
000001a0: 8011 09bd 4e30 1abe 1e0b 263e f8b5 7bbd
000001b0: 6399 8fbc af80 3cbc e57e ec3d f4f6 58bd
000001c0: 3b97 35be fc55 fb3b 54f0 6dbc 1dc2 71bd
000001d0: 20a9 8dbd 468c c43d 5df5 92bd ca2c 4fbd
000001e0: 9e1b cd3b 6a2f 8f3c 1d5c 1e3e 3430 b9bd
000001f0: fc22 6dbb bcdb 9abb 96b0 743d fca0 603c
00000200: bdaa eebd 74fa 10bf b369 283d 26a5 f83a
00000210: ca79 69bd 9de1 0ebe 52ac 2fbd 4965 a9bb
00000220: 6bc9 b43e 7d7e af3d b3f2 b6bd e319 8bbe
00000230: ac76 eebd 5038 233d c0b6 1cbe 5e50 af3d
00000240: 299d 67be de45 903d 7093 15be 429f 15be
00000250: 3546 ffbe 496f 32be 946b 29be 5610 05bf
00000260: 7593 e2be e79a 57be 4a27 803e 4acf 0f3e
00000270: 6284 1b3d e6ae 15bf 84e1 8fbe e355 d4bd
00000280: 1db6 353c a243 0e3c 2b6e 1c3a 15d2 9b3b
00000290: 09fb 6f3d 5805 9fbc 7f08 ae3c bb26 9abd
000002a0: 6c86 ccba c865 473d 3711 153d 983c 163d
000002b0: a912 5d3d f10d 653c f157 5dbd 98fc 383d
000002c0: c4b8 32bc 6cb3 7f3c 9104 cf3c 2f08 e43b
000002d0: 15a9 70bd 8b6e 1d3e 55c2 2abd d952 5d3d
000002e0: 1cca 9f3d 1096 003e 2e24 603d 90f8 ac3d
000002f0: c0c6 98bc 7cd5 c0bd a9fe 773d a0c0 253d
00000300: a78c 1f3d 283d a33b 744c 693d ce3e 0ebd
00000310: b41c 22bd 4c1f ebbb ebe3 953c 83fd 883d
00000320: 7728 7f3d a341 f33c a9f9 33ba 083d c33d
00000330: 1a1a b33d 2f5f 853c c2d5 bbbc 1e0f d6bd
00000340: df96 543d 5bce efbd a143 d6bd 4e4d 91bc
00000350: de91 41bb ded7 193d 45be 7d3d 9a34 bfbc
00000360: a784 bd3d 648e aa3d ec4e 1c3d ee57 93bb
00000370: 4539 8cbd 74f9 f33c 2499 8d3c 3173 90bd
00000380: eda3 493d f2f6 cfbd e4d9 2ebd 769e 9d3d
00000390: f54e 073d 73f9 3a3d 99a0 8a3c 8500 87bd
000003a0: 23e3 2b3a f327 e0bd 9bfb 493c 7322 39bd
000003b0: bcd2 2ebe 1924 443d db06 a7bd a479 e43c
000003c0: ee42 c9bd c2de c1bc fcf2 20bd b1ad 303e
000003d0: 6c20 473c 528b 0c3e 36a5 703d 0127 c63c
000003e0: f89b 603c 2107 f1ba 0e0f b33a 68ba 263b
000003f0: 79cb 45bd 9cc5 723d 0c60 1fbe b65f a33d

bias f4 [512]
-0.11505088 0.028805906 -0.09437288 0.050193537 0.039153904 -0.078746445 -0.059689812 0.05496752
0.0006660474 0.08000737 -0.15146102 -0.111205235 0.085068755 -0.11998038 -0.08772888 -0.012342832
0.13675947 0.1058063 0.12723213 0.0832157 -0.023079595 -0.03360222 -0.011913003 -0.06394607
-0.17029132 -0.074019775 0.11483927 -0.0781271 -0.02510763 -0.09129949 -0.07855891 -0.16414563
-0.046333477 -0.08386383 -0.16930814 -0.0411605 0.009616566 -0.004365389 0.002775818 -0.05676525
-0.08694881 -0.062376108 -0.07347205 0.04740715 -0.0508074 -0.04602498 -0.10792736 0.018047538
-0.08028317 0.1128812 -0.014735485 -0.086557746 0.023912232 0.019559335 -0.056220915 0.014327022
0.0017861553 -0.014322586 -0.16042759 0.08321297 -0.1648299 -0.09051174 -0.027252376 -0.057394177
0.05897847 0.11197613 0.012878915 -0.059852 0.14317083 0.0021209256 0.12534566 0.016944395
-0.013014155 -0.08759245 -0.006397977 -0.14303899 -0.12726769 -0.11097833 -0.1388565 -0.08206887
0.10425888 -0.01681924 -0.18219538 -0.1666945 -0.097645655 -0.06328019 -0.090534426 -0.16087462
0.013213378 0.18163352 0.08321564 0.003869338 -0.03542127 -0.16314715 -0.047093514 0.15694863
-0.12359145 0.03505306 0.11904934 0.026108215 -0.06038825 -0.02617503 0.007934853 -0.13005196
-0.12089379 -0.10069294 -0.19954787 -0.03631198 -0.06382835 0.113910764 0.0076999892 -0.0707627
-0.03890093 0.029976286 -0.06412028 0.04849712 0.013680509 -0.0749508 -0.08475672 0.0045398963
-0.105991974 0.037682507 -0.066946715 -0.015952913 -0.15700403 -0.1137134 -0.13267417 -0.030413907
-0.03273237 -0.0478273 -0.03897889 -0.04068902 0.08057099 0.0048849825 0.009232575 0.012946988
-0.13615702 -0.07713231 -0.03665996 -0.12094782 -0.0016824408 -0.12116148 -0.06922459 0.06736392
-0.0101538 0.059740726 0.108251944 0.027077997 -0.02553628 -0.20105793 -0.030488225 -0.022539956
-0.10401701 -0.12219046 -0.022399168 -0.08116401 0.14469086 -0.042273693 0.057175957 0.032977555
0.053095922 0.02926651 -0.05299482 0.050500017 -0.06756035 0.009553694 0.076532565 -0.08128243
-0.042801205 -0.15024312 -0.069134876 -0.14140591 0.044142794 -0.0052567455 0.009435836 -0.14985248
-0.03594068 -0.017411051 0.046786707 -0.06513888 -0.09102103 0.05786694 0.019244416 -0.0023677947
0.04592869 -0.08839264 0.010311151 -0.057132676 -0.15706173 -0.07004423 -0.0042993245 -0.11155842
-0.066874854 -0.10151844 0.13518384 -0.022916887 -0.061337687 -0.12724029 0.043841474 -0.097479366
-0.07893975 0.124021076 -0.15727964 -0.016396444 -0.13188697 -0.0085533485 -0.0039575417 -0.122300565
-0.11552522 -0.09557924 0.024506295 -0.038512073 -0.03450999 -0.016258875 0.05425601 -0.07134412
-0.020418959 -0.15576594 -0.18176103 0.1306443 -0.072575256 0.043506533 -0.029734466 0.06898979
-0.049748667 -0.029334532 -0.06544362 -0.027572358 -0.15242913 -0.10791768 0.057236817 -0.09784378
-0.04436679 0.10235851 0.005069194 0.057038207 0.020111347 -0.12882955 0.010573702 -0.097295225
-0.072827816 0.052003715 -0.114047945 -0.01764671 -0.018783199 -0.09707658 0.010770466 -0.06943708
-0.09427623 -0.034824006 -0.054291766 -0.06981175 0.04040213 -0.089210235 -0.16127342 -0.09766367
00000000: cc9f ebbd 5dfa eb3c 9246 c1bd bd97 4d3d
00000010: d85f 203d d145 a1bd 4e7d 74bd 9f25 613d
00000020: af99 2e3a e7da a33d 9918 1bbe 92bf e3bd
00000030: 8738 ae3d 46b8 f5bd 33ab b3bd 9739 4abc
00000040: ad0a 0c3e f9b0 d83d 2449 023e fe6c aa3d
00000050: 6b11 bdbc 7ba2 09bd c22e 43bc 28f6 82bd
00000060: d960 2ebe ae97 97bd da30 eb3d 1a01 a0bd
00000070: 84ae cdbc 3afb babd 7ee3 a0bd cb15 28be
00000080: 2cc8 3dbd cdc0 abbd 1d5f 2dbe ea97 28bd
00000090: cd8e 1d3c 890b 8fbb 80ea 353b ae82 68bd
000000a0: 3812 b2bd 177e 7fbd 8478 96bd 002e 423d
000000b0: 6c1b 50bd b084 3cbd 0509 ddbd 6ed8 933c
000000c0: 816b a4bd 422e e73d 1b6d 71bc 3045 b1bd
000000d0: 96e3 c33c e63a a03c e747 66bd e3bb 6a3c
000000e0: 6d1d ea3a 48a9 6abc 2147 24be 906b aa3d
000000f0: 2bc9 28be 385e b9bd 6040 dfbc 2816 6bbd
00000100: 6893 713d be53 e53d 1602 533c 5f27 75bd
00000110: 609b 123e 3aff 0a3b 9d5a 003e f9ce 8a3c
00000120: 5339 55bc ac63 b3bd 1fa6 d1bb d078 12be
00000130: 7652 02be 9b48 e3bd 6630 0ebe b913 a8bd
00000140: ae85 d53d 81c8 89bc 6d91 3abe f7b1 2abe
00000150: 72fa c7bd 0b99 81bd 1d6a b9bd 51bc 24be
00000160: ed7c 583c 23fe 393e f66c aa3d b894 7d3b
00000170: e515 11bd 0c10 27be 21e5 40bd 24b7 203e
00000180: 841d fdbd cc93 0f3d 24d0 f33d e5e0 d53c
00000190: ab59 77bd 046d d6bc 3001 023c 572c 05be
000001a0: 2a97 f7bd 1a38 cebd 4756 4cbe dfbb 14bd
000001b0: 70b8 82bd 0c4a e93d 3150 fc3b 09ec 90bd
000001c0: 9556 1fbd d490 f53c 7e51 83bd eba4 463d
000001d0: 3724 603c ce7f 99bd ee94 adbd 69c3 943b
000001e0: 5212 d9bd f958 1a3d 5c1b 89bd afaf 82bc
000001f0: aac5 20be 92e2 e8bd bddb 07be 9626 f9bc
00000200: 6112 06bd 8fe6 43bd 54a8 1fbd 88a9 26bd
00000210: 6702 a53d 3412 a03b 3a44 173c 9b1f 543c
00000220: bf6c 0bbe 8bf7 9dbd c128 16bd 7eb3 f7bd
00000230: 5885 dcba 8323 f8bd 9fc5 8dbd 18f6 893d
00000240: 205c 26bc b1b2 743d 32b3 dd3d add2 dd3c
00000250: 7631 d1bc 21e2 4dbe 71c2 f9bc b7a5 b8bc
00000260: df06 d5bd fe3e fabd 767e b7bc 5139 a6bd
00000270: d729 143e 2e27 2dbd 5631 6a3d 7913 073d
00000280: 1c7b 593d 52c0 ef3c 1911 59bd 1bd9 4e3d
00000290: 155d 8abd 1987 1c3c 1bbd 9c3d 6777 a6bd
000002a0: 5150 2fbd 55d9 19be 9696 8dbd b6cc 10be
000002b0: 13cf 343d c740 acbb c498 1a3c ee72 19be
000002c0: 8936 13bd 9fa1 8ebc 6ba3 3f3d 8867 85bd
000002d0: 3c69 babd e205 6d3d 77a6 9d3c 012d 1bbb
000002e0: b91f 3c3d 3307 b5bd 1af0 283c f403 6abd
000002f0: cad4 20be 5973 8fbd 59e1 8cbb be78 e4bd
00000300: aff5 88bd e6e8 cfbd a26d 0a3e 32bc bbbc
00000310: 3a3d 7bbd 474b 02be 1e93 333d 43a3 c7bd
00000320: 2aab a1bd c3fe fd3d ea0d 21be d651 86bc
00000330: 610d 07be 5823 0cbc 44ae 81bb b878 fabd
00000340: 7d98 ecbd 0cbf c3bd 6dc1 c83c d6be 1dbd
00000350: 595a 0dbd 5531 85bc 8d3b 5e3d de1c 92bd
00000360: a945 a7bc 1b81 1fbe 901f 3abe 9fc7 053e
00000370: 56a2 94bd e833 323d b295 f3bc 854a 8d3d
00000380: 42c5 4bbd f94e f0bc 4e07 86bd 6ddf e1bc
00000390: 6216 1cbe f203 ddbd 2771 6a3d 5262 c8bd
000003a0: f4b9 35bd 57a1 d13d 7b1b a63b e5a0 693d
000003b0: 8dc0 a43c e5eb 03be 523d 2d3c b842 c7bd
000003c0: c026 95bd d901 553d f891 e9bd d58f 90bc
000003d0: 39df 99bc 16d0 c6bd 9c76 303c 0735 8ebd
000003e0: e513 c1bd 9ea3 0ebd 0b61 5ebd 76f9 8ebd
000003f0: b47c 253d dbb3 b6bd dc24 25be e403 c8bd

weight f4 [256, 512]
-0.097260855 -0.021702306 0.028440984 -0.17768143 0.013066858 0.11486041 0.13247249 0.012946553
0.007569645 0.022892559 -0.07754008 -0.06562257 0.009048539 0.054067787 0.042842716 -0.10974756
-0.15459545 0.15123509 0.06656418 0.08332433 -0.030074058 -0.118283734 -0.009330382 0.11678486
0.071038775 -0.048989497 -0.02846677 0.04687828 0.05449569 0.055347096 -0.12271692 0.013009115
0.07808705 -0.08449947 0.0018597422 -0.124542326 0.0388476 -0.006753176 -0.02287944 -0.038749862
0.014869929 -0.13227078 0.0040013995 -0.01982699 -0.08235467 0.05998164 0.021750363 -0.06555452
-0.09474338 -0.0032200937 0.0065821586 0.0202995 -0.02481452 0.0013976957 -0.059328992 -0.060564354
0.013219081 -0.050189834 0.16514984 -0.07072776 0.15065408 -0.008524512 0.007946683 -0.0157313
-0.1019708 0.06961353 -0.060311273 0.023266288 0.063491955 -0.089542374 -0.039128415 0.054934785
0.10001315 0.009519677 -0.027918935 0.023104701 -0.17560022 0.038083363 0.1568782 0.09178055
0.11474276 0.11512443 -0.04085276 0.03417591 0.09383834 -0.004739515 -0.0103321 0.015826613
0.10536338 0.038396623 -0.03609841 0.026396576 0.13441868 -0.13415687 -0.06646019 0.08954038
0.049706772 -0.009272097 0.015114599 0.13118039 0.05285794 -0.021119442 -0.01641052 0.23158951
-0.043222334 -0.054763768 0.1188544 0.0110569745 0.02617858 0.006307627 -0.10327495 0.022995368
-0.04856701 0.017547011 0.033081222 0.15544349 0.056460377 -0.01555579 -0.073243424 0.032316953
0.038571734 0.042467386 0.01796904 0.027428478 0.069790706 -0.02577719 0.08721555 -0.02276338
0.06488696 0.043924887 -0.05646969 -0.097880416 -0.046197746 0.025438787 0.004580399 -0.012660569
0.06939537 -0.088573225 0.008550979 0.08285243 0.21125223 0.030117327 0.11362646 -0.07135388
0.096681386 -0.097230285 0.04739272 -0.07579781 -0.088944145 -0.013181746 0.015564114 0.017252645
-0.09413479 -0.051779203 0.044795744 0.03249956 -0.042851478 0.036923926 0.08439279 0.0034276524
-0.012157882 0.08466271 -0.018335884 0.065643646 -0.12942323 0.052635923 0.09865838 -0.09175612
0.0668026 0.067058556 0.01165412 0.07063698 -0.034966692 0.019151496 0.0657531 -0.03963782
0.07288271 -0.03375734 0.03160282 -0.079856135 -0.0634562 -0.0071340385 -0.106182255 0.08723588
0.045061126 -0.005450466 0.00063321163 -0.102247864 0.057888214 0.002104832 0.045161236 -0.08314361
0.12314348 0.014624257 -0.07921472 0.040131535 -0.014645739 -0.08328024 -0.0972362 0.04832887
-0.053751137 0.0050205644 0.1381478 -0.0049013495 -0.0047026924 0.07736121 0.01096119 -0.029008713
0.08731858 0.013614354 0.006257767 0.02889714 0.011259639 -0.09418631 0.07142482 0.009536242
0.06537191 -0.027153365 0.088381045 0.038882643 0.03270253 -0.014929792 -0.01189695 0.12446192
-0.0022720608 -0.07494558 0.0029392622 0.0796361 -0.06314707 0.035691734 -0.049973812 -0.028782586
0.034034993 0.022857973 0.0556377 0.059373885 0.045992166 -0.048631985 -0.03452127 0.015614599
-0.055412848 0.024810413 0.055015102 0.0258137 0.037813522 -0.03239843 -0.0023287951 -0.08399294
-0.04601226 -0.026280465 -0.03358489 -0.09937446 -0.008233236 -0.014682374 -0.048925005 -0.048311595
00000000: b330 c7bd 09c9 b1bc 11fd e83c 1ff2 35be
00000010: 6016 563c ef3b eb3d dea6 073e c71d 543c
00000020: c90a f83b 2d89 bb3c 55cd 9ebd 2065 86bd
00000030: 5340 143c 2f76 5d3d d87b 2f3d 54c3 e0bd
00000040: 454e 1ebe 5fdd 1a3e cd52 883d f2a5 aa3d
00000050: df5d f6bc be3e f2bd 75de 18bc e72c ef3d
00000060: c77c 913d 36a9 48bd 2533 e9bc 7003 403d
00000070: df36 5f3d a3b3 623d 0253 fbbd 2f24 553c
00000080: 1aec 9f3d 0f0e adbd 98c2 f33a 0c10 ffbd
00000090: a91e 1f3d bf49 ddbb aa6d bbbc 2db8 1ebd
000000a0: 01a1 733c fe71 07be 2c1e 833b 366c a2bc
000000b0: 91a9 a8bd 4faf 753d d12d b23c 7341 86bd
000000c0: d108 c2bd 3508 53bb 26af d73b 234b a63c
000000d0: d247 cbbc e332 b73a f502 73bd 5412 78bd
000000e0: d894 583c db93 4dbd 0a1d 293e b7d9 90bd
000000f0: 1045 1a3e 65aa 0bbc ce32 023c edde 80bc
00000100: 11d6 d0bd 8a91 8e3d f408 77bd f198 be3c
00000110: 1208 823d fe61 b7bd 1e45 20bd 4c03 613d
00000120: b2d3 cc3d 6bf8 1b3c 40b6 e4bc 1246 bd3c
00000130: 8bd0 33be 4dfd 1b3d aea4 203e 71f7 bb3d
00000140: 41fe ea3d 5bc6 eb3d 3955 27bd 0afc 0b3d
00000150: 512e c03d ef4d 9bbb f847 29bc d0a6 813c
00000160: c1c8 d73d c745 1d3d eddb 13bd a23d d83c
00000170: 0da5 093e 6b60 09be 481c 88bd f260 b73d
00000180: 5499 4b3d fee9 17bc 39a3 773c 2754 063e
00000190: 9181 583d ae02 adbc 5b6f 86bc cd25 6d3e
000001a0: e709 31bd f94f 60bd f069 f33d 5028 353c
000001b0: 7674 d63c 36b0 ce3b d181 d3bd c860 bc3c
000001c0: 33ee 46bd c0be 8f3c 2d80 073d 942c 1f3e
000001d0: ff42 673d b6dd 7ebc a600 96bd c85e 043d
000001e0: 65fd 1d3d 48f2 2d3d cf33 933c b0b1 e03c
000001f0: 6eee 8e3d b02a d3bc 119e b23d 457a babc
00000200: 74e3 843d 95ea 333d c34c 67bd 8775 c8bd
00000210: d939 3dbd 0165 d03c 2c17 963b 466e 4fbc
00000220: 291f 8e3d e165 b5bd 6819 0c3c 89ae a93d
00000230: 8152 583e 9db8 f63c fdb4 e83d fc21 92bd
00000240: e400 c63d ac20 c7bd de1e 423d e23b 9bbd
00000250: 5928 b6bd 40f8 57bc a000 7f3c 6b55 8d3c
00000260: bec9 c0bd 6e16 54bd be7b 373d 421e 053d
00000270: 0885 2fbd 8b3d 173d 21d6 ac3d 77a2 603b
00000280: da31 47bc a563 ad3d 2335 96bc 2d70 863d
00000290: 8687 04be c498 573d 680d ca3d a2ea bbbd
000002a0: cdcf 883d ff55 893d ecf0 3e3c 1faa 903d
000002b0: 3c39 0fbd 99e3 9c3c 90a9 863d 445b 22bd
000002c0: 8843 953d 2345 0abd f571 013d 9d8b a3bd
000002d0: 53f5 81bd a7c4 e9bb 1576 d9bd baa8 b23d
000002e0: 0492 383d d399 b2bb 1dfe 253a 5467 d1bd
000002f0: 311c 6d3d 39f1 093b fdfa 383d 3247 aabd
00000300: a632 fc3d 949a 6f3c 543b a2bd f760 243d
00000310: aff4 6fbc d58e aabd c623 c7bd 7ef4 453d
00000320: 272a 5cbd 8c83 a43b 9e76 0d3e 809b a0bb
00000330: 0b19 9abb 8e6f 9e3d 9096 333c aea3 edbc
00000340: 15d4 b23d bd0e 5f3c f40d cd3b b2b9 ec3c
00000350: 597a 383c c1e4 c0bd 2d47 923d e63d 1c3c
00000360: b5e1 853d bc70 debc 1f01 b53d 6843 1f3d
00000370: 17f3 053d 169c 74bc 6deb 42bc e4e5 fe3d
00000380: dbe6 14bb 117d 99bd a3a0 403b 4018 a33d
00000390: 4053 81bd 7f31 123d 57b1 4cbd 75c9 ebbc
000003a0: 4768 0b3d a540 bb3c 5be4 633d 0832 733d
000003b0: 4862 3c3d 5532 47bd 2d66 0dbd 60d4 7f3c
000003c0: 95f8 62bd 353f cb3c 8457 613d 4177 d33c
000003d0: 5ae2 1a3d 37b4 04bd b39e 18bb 7e04 acbd
000003e0: 5a77 3cbd 214a d7bc 4f90 09bd d684 cbbd
000003f0: b2e4 06bc 578e 70bc 9665 48bd 61e2 45bd

bias f4 [256]
-0.033824205 -0.10721945 -0.06612443 -0.083592765 -0.119920105 -0.043186422 -0.12171024 -0.12238708
-0.060572635 -0.16901752 -0.027981935 -0.03711843 -0.14048769 0.089679286 -0.09255443 -0.050282136
-0.13814105 -0.041757282 -0.044575457 -0.13408633 -0.13301273 0.024642408 -0.10134687 -0.07915888
-0.09325653 -0.057580348 -0.1710678 -0.2180093 -0.10106669 -0.12175183 -0.18205981 -0.16477129
-0.041263275 -0.043567266 -0.08051644 -0.15442878 -0.02652976 -0.18338823 -0.046619486 -0.09234872
-0.12003815 -0.06738688 -0.06113839 -0.11279171 -0.09225351 -0.063700005 -0.171289 -0.06909437
-0.13204625 0.05076291 -0.020316845 -0.08897954 -0.1103123 -0.13669772 0.027996223 -0.07906917
-0.04589023 -0.020638715 -0.07703247 0.00995281 -0.0017267243 -0.14258872 -0.030184887 -0.10775964
-0.019421533 -0.06063639 -0.13252546 0.017933559 -0.117838845 -0.02443892 -0.06871469 -0.029207412
-0.019349888 -0.013239938 -0.018764157 -0.120799735 -0.046474893 0.034516588 -0.1081791 -0.041372273
-0.056095645 -0.06097123 0.044241406 -0.1249435 -0.18015124 -0.052547194 -0.015282406 -0.1560989
-0.020074155 -0.10998323 -0.14166053 -0.16605295 -0.16761567 -0.030200856 -0.045954507 -0.027134737
-0.14739059 -0.036890637 -0.08770199 -0.060896166 0.016369633 0.007115424 -0.082830615 -0.12524386
-0.13621038 -0.07059945 -0.14072157 0.013034179 -0.0041721314 -0.044848233 -0.097752616 -0.08112632
0.012162253 -0.066761844 -0.047190536 0.005716131 0.07700134 -0.16914818 -0.08975768 -0.085483216
0.07503815 -0.024622234 0.021562085 -0.06827793 0.111667894 -0.09941551 -0.067537256 -0.07338401
-0.004478236 -0.11705221 -0.1264583 0.014397947 -0.09418448 -0.0155381365 0.02870579 -0.11826004
-0.104460455 -0.01276626 -0.08580373 -0.08304776 -0.08964136 -0.07441027 -0.10782595 -0.023240022
0.0032755 -0.17405409 -0.08215017 -0.12748562 -0.16503295 -0.1339231 -0.1320988 -0.062196244
-0.10512398 -0.14826334 -0.13444543 -0.11993438 -0.058188315 0.022091381 0.027776573 0.015359704
-0.12808102 -0.045368414 -0.13603535 -0.078333214 -0.06461718 -0.003974992 0.028949607 -0.15895331
-0.06302672 0.049268324 -0.11646432 -0.03000674 -0.023960676 -0.05663745 0.067246236 -0.10979112
-0.15909736 -0.073228545 -0.15140387 -0.03731782 -0.07503695 -0.06931987 -0.081207015 -0.042654417
-0.03942582 -0.09330914 -0.10665358 -0.057309978 -0.11068529 0.02154597 -0.15628949 -0.111113325
-0.10370251 -0.015336321 -0.006605545 0.049113408 0.077140495 -0.090126075 -0.07529705 0.0458138
0.043985866 -0.085825615 0.032755733 -0.07232825 -0.1260981 -0.08995619 -0.062102046 -0.10021231
-0.039085317 -0.023473734 0.016206257 -0.05710304 -0.008260509 0.036076 -0.07201279 -0.07072869
0.025016703 -0.12648317 0.024188511 -0.16340512 0.09025351 -0.072180495 -0.0137271285 -0.09250065
-0.04877553 -0.03527013 0.04204275 -0.011536626 -0.097502396 -0.040676564 -0.036080018 -0.068258666
-0.05355412 -0.10383571 -0.16269979 -0.09007176 0.04759249 -0.13194156 -0.13421038 -0.0083504
-0.13803452 -0.022380264 -0.06497758 -0.054986987 -0.1548767 -0.065069444 -0.0010397756 -0.021110171
-0.09860921 0.030401906 -0.0576641 -0.107922584 -0.08152428 -0.095486306 -0.029743664 -0.046385404
00000000: 408b 0abd df95 dbbd 3f6c 87bd af32 abbd
00000010: ac98 f5bd 3fe4 30bd 3843 f9bd 14a6 fabd
00000020: 031b 78bd ee12 2dbe 5f3a e5bc 7f09 18bd
00000030: 01dc 0fbe c6a9 b73d 2d8d bdbd a4f4 4dbd
00000040: d974 0dbe af09 2bbd c194 36bd ed4d 09be
00000050: 7d34 08be e0de c93c f38e cfbd 0d1e a2bd
00000060: 48fd bebd 5fd9 6bbd 662c 2fbe d43d 5fbe
00000070: 0efc cebd 0659 f9bd e36d 3abe ceb9 28be
00000080: ae03 29bd 9773 32bd cee5 a4bd 9422 1ebe
00000090: f054 d9bc 20ca 3bbe 13f4 3ebd 5321 bdbd
000000a0: 90d6 f5bd 2202 8abd 406c 7abd 57ff e6bd
000000b0: 69ef bcbd 2675 82bd 6266 2fbe 5981 8dbd
000000c0: 2237 07be c5ec 4f3d 836f a6bc e83a b6bd
000000d0: 6aeb e1bd 7dfa 0bbe 5658 e53c 04ef a1bd
000000e0: 65f7 3bbd 8612 a9bc 33c3 9dbd 1c11 233c
000000f0: 4153 e2ba c702 12be 4c46 f7bc 16b1 dcbd
00000100: e819 9fbc dd5d 78bd c1b4 07be 66e9 923c
00000110: 7e55 f1bd 2134 c8bc 4aba 8cbd 6244 efbc
00000120: a883 9ebc 53ec 58bc 4ab7 99bc da65 f7bd
00000130: 755c 3ebd 4461 0d3d 018d ddbd f975 29bd
00000140: 8cc4 65bd f8bc 79bd 7a36 353d 61e2 ffbd
00000150: 9179 38be ba3b 57bd 0e63 7abc 64d8 1fbe
00000160: 8e72 a4bc e33e e1bd 750f 11be c909 2abe
00000170: 71a3 2bbe c967 f7bc cb3a 3cbd ab49 debc
00000180: 8fed 16be a31a 17bd 1a9d b3bd 426e 79bd
00000190: 9c19 863c 8128 e93b 19a3 a9bd ed3f 00be
000001a0: bc7a 0bbe 7296 90bd 5119 10be 4f8d 553c
000001b0: 60b6 88bb c8b2 37bd 8632 c8bd 8e25 a6bd
000001c0: 3044 473c 6fba 88bd dd4a 41bd 624e bb3b
000001d0: e1b2 9d3d 2e35 2dbe e0d2 b7bd d311 afbd
000001e0: 9aad 993d 91b4 c9bc f8a2 b03c 4dd5 8bbd
000001f0: 23b2 e43d 5c9a cbbd f950 8abd 5b4a 96bd
00000200: 2bbe 92bb 12b9 efbd 497e 01be 5ee5 6b3c
00000210: cbe3 c0bd ab93 7ebc 6828 eb3c 5232 f2bd
00000220: 5def d5bd 9329 51bc deb9 afbd f214 aabd
00000230: e495 b7bd 6964 98bd dad3 dcbd dc61 bebc
00000240: c5a9 563b 3c3b 32be 593e a8bd 978b 02be
00000250: 66fe 28be 2323 09be e844 07be 7dc1 7ebd
00000260: 3e4b d7bd 58d2 17be 10ac 09be 28a0 f5bd
00000270: df56 6ebd fcf8 b43c b28b e33c 45a7 7b3c
00000280: ac27 03be 3bd4 39bd da4c 0bbe 2a6d a0bd
00000290: 0356 84bd a640 82bb ba27 ed3c a8c4 22be
000002a0: 2714 81bd 95cd 493d d884 eebd b2d0 f5bc
000002b0: 2e49 c4bc acfc 67bd 65b8 893d 2bda e0bd
000002c0: 6bea 22be d9f8 95bd 9e09 1bbe 92da 18bd
000002d0: f9ac 99bd 93f7 8dbd dd4f a6bd 66b6 2ebd
000002e0: f87c 21bd dd18 bfbd 316d dabd debd 6abd
000002f0: f8ae e2bd 2d81 b03c 5a0a 20be 628f e3bd
00000300: fb61 d4bd 3145 7bbc 5473 d8bb 242b 493d
00000310: d6fb 9d3d 0594 b8bd 5735 9abd 40a7 3b3d
00000320: 862a 343d 57c5 afbd e02a 063d d520 94bd
00000330: dc1f 01be f33a b8bd b75e 7ebd 1d3c cdbd
00000340: ed17 20bd fd4b c0bc fcc2 843c e1e4 69bd
00000350: 1657 07bc 6ec4 133d 717b 93bd 34da 90bd
00000360: d4ef cc3c ce84 01be fc26 c63c ac53 27be
00000370: d5d6 b83d 5ed3 93bd c0e7 60bc fb70 bdbd
00000380: dac8 47bd 6977 10bd 0535 2c3d 1e04 3dbc
00000390: 56af c7bd 789c 26bd a4c8 13bd 33cb 8bbd
000003a0: 915b 5bbd d1a7 d4bd c69a 26be 8b77 b8bd
000003b0: 58f0 423d b01b 07be 726e 09be 1ed0 08bc
000003c0: ec58 0dbe d156 b7bc f712 85bd 093a 61bd
000003d0: ff97 1ebe 2143 85bd 1449 88ba 3def acbc
000003e0: a0f3 c9bd 6b0d f93c 3131 6cbd 8406 ddbd
000003f0: 34f6 a6bd 538e c3bd fca8 f3bc 9ffe 3dbd

weight f4 [128, 256]
-0.05284172 0.0079637505 -0.05795037 -0.026317032 -0.10728817 0.123643085 -0.066569135 -0.02307882
0.056928188 -0.010177382 0.058817625 0.11595659 -0.030152656 0.06330989 -0.049945295 0.016686829
0.023466658 0.02807302 -0.017796522 0.004848964 0.0928712 0.028973334 0.05899003 0.08206694
0.00068277185 -0.086930625 -0.029400645 -0.042947464 0.015208176 -0.011548128 -0.076865934 0.0042723655
-0.018131536 -0.04907834 -0.07863992 -0.043175086 -0.02532966 0.00465337 -0.05221852 -0.06703156
0.034289993 0.009900698 -0.045953956 0.08027322 -0.07157462 0.05942693 -0.07515655 -0.020391114
-0.076315716 -0.015450919 -0.0063076266 -0.06693037 0.020434717 0.083142534 0.03586782 -0.020117188
-0.08871993 0.11977093 0.103891715 -0.0072296667 0.016325926 -0.10787698 0.0018783106 -0.038988017
0.06332634 -0.011726757 0.10023979 -0.07882397 0.0767714 -0.08657729 0.07613974 -0.17255792
-0.02044796 0.012148028 0.013138725 0.066915706 -0.06879943 -0.068115704 0.06262768 0.16971901
0.038971562 -0.039349083 0.0020866673 0.108966686 0.020698842 0.056575797 -0.048095334 0.004153759
-0.1504879 0.090738565 0.060865838 -0.012594488 -0.1419728 0.0118864775 -0.0020688411 0.0014153477
0.02189981 -0.0718144 -0.012750867 0.014370693 -0.03703231 -0.021654023 -0.085175075 0.06856041
0.0051287157 0.07669955 0.0934998 -0.009843699 -0.054171827 -0.07310742 -0.07937389 -0.08723698
0.039780717 0.21135758 0.049837105 -0.034951393 -0.0060858484 0.045691058 -0.18689491 0.06391589
0.046937514 -0.021073345 -0.03600047 -0.057652377 0.09261294 -0.032129012 0.05358556 -0.084358685
-0.11913058 0.031454403 0.0527679 -0.029412499 0.0835752 0.081968136 -0.057530653 -0.020719538
0.063655406 -0.04396138 -0.08403565 -0.046125017 0.08434017 0.07038942 -0.045801133 -0.017587
-0.019885039 -0.13341364 -0.04235551 0.07325265 0.036553465 -0.015803266 -0.06820623 0.088722296
-0.001510005 0.05141587 -0.037095018 0.09257575 -0.019659897 -0.10593699 0.019989906 -0.0899082
0.04344954 -0.053958222 0.0576122 0.021959597 -0.017364347 0.051731437 -0.05658858 0.151754
-0.034073595 -0.10288105 0.03326087 0.007320357 0.03562065 -0.06737904 -0.19322151 0.120619446
-0.031110378 0.062004965 0.087374955 -0.05755339 0.083670795 -0.09891074 -0.046282288 -0.039988898
0.028078457 -0.0161867 -0.023714874 -0.028683966 -0.07992913 -0.010421517 0.008033416 0.117941074
0.17553681 0.019155677 -0.0344981 0.03427816 0.013972716 -0.021420278 -0.025791593 0.013811589
-0.009863701 -0.10082787 -0.048034288 0.059807453 0.038982134 0.05175966 0.016597852 0.08216962
0.08925502 -0.12057728 -0.041696448 0.11452352 -0.13523446 -0.059748605 -0.11551372 0.10501686
0.046970133 0.011557255 -0.11143424 0.11509241 -0.031917334 -0.17509776 0.013389812 -0.010234341
0.006782038 0.019279877 0.029264051 0.05175794 -0.09180358 0.012087722 0.012781359 0.08705703
0.068651296 -0.008010301 0.02060037 0.007665816 -0.08564696 -0.18833849 -0.091383025 -0.21955515
0.05409558 -0.084450066 -0.12183651 -0.041848935 -0.010121372 0.047296554 -0.089288056 -0.10401823
-0.02096207 0.027929254 -0.07445289 -0.004320973 -0.053427603 -0.011492579 0.09105407 -0.0026291537
00000000: 8f70 58bd 647a 023c 5e5d 6dbd d196 d7bc
00000010: e6b9 dbbd 9638 fd3d 6655 88bd cb0f bdbc
00000020: 882d 693d 09bf 26bc c0ea 703d a67a ed3d
00000030: b402 f7bc 9ea8 813d 7093 4cbd d1b2 883c
00000040: 263d c03c 64f9 e53c 03ca 91bc 0fe4 9e3b
00000050: 4133 be3d 7c59 ed3c 889f 713d b612 a83d
00000060: 0bfc 323a af08 b2bd 9fd9 f0bc aee9 2fbd
00000070: b72b 793c 5c34 3dbc e36b 9dbd 33ff 8b3b
00000080: 9688 94bc 5f06 49bd f70d a1bd 5cd8 30bd
00000090: 2680 cfbc 4c7b 983b 16e3 55bd d847 89bd
000000a0: aa73 0c3d 8a36 223c 373a 3cbd 4966 a43d
000000b0: b795 92bd a769 733d adeb 99bd 440b a7bc
000000c0: 6a4b 9cbd da25 7dbc 35b0 cebb ca12 89bd
000000d0: b566 a73c a246 aa3d 23ea 123d cdcc a4bc
000000e0: cbb2 b5bd 764a f53d 2ec5 d43d d7e6 ecbb
000000f0: f3bd 853c 9bee dcbd a531 f63a e6b1 1fbd
00000100: 3db1 813d 9521 40bc 854a cd3d 766e a1bd
00000110: 533a 9d3d 6f4f b1bd 27ef 9b3d 06b3 30be
00000120: 7b82 a7bc 8608 473c cf43 573c 1a0b 893d
00000130: b7e6 8cbd 3f80 8bbd f142 803d d2ca 2d3e
00000140: a5a0 1f3d 812c 21bd 78c0 083b ed29 df3d
00000150: 9e90 a93c 06bc 673d 9dff 44bd 421c 883b
00000160: 8019 1abe 24d5 b93d 754e 793d 1d59 4ebc
00000170: 5161 11be 80bf 423c 6595 07bb 3083 b93a
00000180: 3b67 b33c 6e13 93bd 03e9 50bc 0e73 6b3c
00000190: 31af 17bd c763 b1bc 4570 aebd 6669 8c3d
000001a0: c90e a83b a714 9d3d d37c bf3d 7747 21bc
000001b0: 47e3 5dbd 58b9 95bd c78e a2bd 4da9 b2bd
000001c0: 1bf1 223d 1f6e 583e fe21 4c3d 3129 0fbd
000001d0: cc6b c7bb 8c26 3b3d 6161 3fbe 56e6 823d
000001e0: 8d41 403d 02a2 acbc 3b75 13bd e624 6cbd
000001f0: daab bd3d b699 03bd 887c 5b3d 3fc4 acbd
00000200: bcfa f3bd 55d6 003d 2723 583d 7bf2 f0bc
00000210: 7929 ab3d e9de a73d 43a5 6bbd 05bc a9bc
00000220: c45d 823d d910 34bd e21a acbd 96ed 3cbd
00000230: 8aba ac3d 5428 903d f899 3bbd 9d12 90bc
00000240: f3e5 a2bc 969d 08be f97c 2dbd 7c05 963d
00000250: 16b9 153d da75 81bc b5af 8bbd 09b4 b53d
00000260: 5ceb c5ba 7399 523d f2f0 17bd 5b98 bd3d
00000270: cb0d a1bc 7ef5 d8bd dfc1 a33c ca21 b8bd
00000280: 25f8 313d 4c03 5dbd c5fa 6b3d 9de4 b33c
00000290: ad3f 8ebc 58e4 533d 6dc9 67bd 6765 1b3e
000002a0: c190 0bbd 4db3 d2bd 8d3c 083d 9bdf ef3b
000002b0: f5e6 113d 06fe 89bd dcdb 45be 5407 f73d
000002c0: 31db febc ebf8 7d3d a4f1 b23d 1abd 6bbd
000002d0: 985b ab3d b791 cabd 7f92 3dbd 66cb 23bd
000002e0: cb04 e63c f899 84bc b245 c2bc a3fa eabc
000002f0: e2b1 a3bd 03bf 2abc 979e 033c 178b f13d
00000300: ecbf 333e 5eec 9c3c e14d 0dbd 4267 0c3d
00000310: d2ed 643c 9479 afbc e448 d3bc 014a 623c
00000320: 5c9b 21bc d87e cebd 9abf 44bd a9f8 743d
00000330: bbab 1f3d f001 543d 38f8 873c 8c48 a83d
00000340: 56cb b63d 39f1 f6bd e5c9 2abd 4f8b ea3d
00000350: e77a 0abe f4ba 74bd 7592 ecbd 1413 d73d
00000360: c163 403d a45a 3d3c a337 e4bd 92b5 eb3d
00000370: c0bb 02bd d44c 33be f160 5b3c f0ad 27bc
00000380: dc3b de3b d5f0 9d3c 2abb ef3c 2200 543d
00000390: 8403 bcbd 950b 463c e868 513c f54a b23d
000003a0: 0d99 8c3d a33d 03bc 1bc2 a83c 8731 fb3b
000003b0: ac67 afbd cedb 40be 0627 bbbd 11d3 60be
000003c0: 5493 5d3d 28f4 acbd 6c85 f9bd ca69 2bbd
000003d0: 1cd4 25bc 08ba 413d a8dc b6bd 8307 d5bd
000003e0: a6b8 abbc e4cb e43c c27a 98bd f396 8dbb
000003f0: e7d6 5abd 5f4b 3cbc 8e7a ba3d e14d 2cbb

bias f4 [128]
-0.043074206 0.0046428773 -0.13887998 -0.009210928 -0.029202795 0.14798309 0.05764495 -0.047244113
-0.061306745 -0.112447076 -0.0817303 -0.043668337 0.04722988 -0.10759055 0.029473418 -0.01775532
-0.043106668 -0.09251115 -0.025689295 -0.008344053 -0.033896554 -0.11837341 -0.034061417 -0.030569956
-0.049825933 -0.10075231 -0.053180613 -0.061960187 -0.10722464 -0.0076946253 -0.13624454 0.01418302
-0.03825802 -0.21357545 -0.17261267 -0.0108524775 0.058912892 0.043180376 0.06946785 -0.016591288
-0.08449502 -0.046098907 -0.021208812 -0.08545311 -0.06689177 -0.027876535 -0.060326032 -0.109601125
-0.0787212 -0.13298988 0.020038124 -0.05769971 -0.10532236 -0.046572845 -0.117729135 -0.017503573
-0.030229494 -0.07982001 0.049765203 -0.05528173 -0.17866164 -0.089684255 -0.04271988 0.06432332
-0.024029836 -0.15606056 -0.07198536 -0.0412295 -0.15220761 0.006214441 -0.26329675 -0.06300094
-0.060302775 -0.051370297 -0.068322845 -0.00400698 -0.0737703 -0.3108597 0.016708788 0.0030860777
-0.053784274 -0.014746748 -0.10994006 -0.047342025 -0.25942436 -0.19786213 -0.1389531 -0.15110038
-0.032203216 0.018343795 -0.012602537 -0.08123293 -0.05860771 -0.096969545 -0.048239518 -0.21275365
-0.023473764 -0.12695979 0.0049789557 0.17164582 -0.10448213 -0.15498063 -0.06374913 0.14203359
-0.24049126 0.07752147 -0.04402065 -0.051374104 -4.513395e-05 -0.06836471 0.003836841 -0.058853347
-0.06338936 -0.110415384 -0.034102548 -0.080862194 -0.08084986 -0.03139392 -0.0047714217 0.1434156
0.039894424 -0.04338604 -0.15654016 0.037201066 -0.13172044 0.014887881 -0.04014243 -0.1064518
00000000: 946e 30bd 4723 983b 8e36 0ebe 6fe9 16bc
00000010: b33a efbc e188 173e 1c1d 6c3d 0b83 41bd
00000020: c81c 7bbd a74a e6bd 3762 a7bd 92dd 32bd
00000030: 1e74 413d 6f58 dcbd 3d72 f13c 9b73 91bc
00000040: 9e90 30bd 7c76 bdbd 5b72 d2bc 7fb5 08bc
00000050: 1dd7 0abd c26d f2bd fc83 0bbd d86d fabc
00000060: 4716 4cbd 3a57 cebd ead3 59bd f7c9 7dbd
00000070: 9898 dbbd 3223 fcbb b083 0bbe e65f 683c
00000080: 71b4 1cbd 86b3 5abe 60c1 30be 97ce 31bc
00000090: a54e 713d e8dd 303d 2945 8e3d 74ea 87bc
000000a0: ba0b adbd 35d2 3cbd 1abe adbc 0a02 afbd
000000b0: 8dfe 88bd 555d e4bc 6e18 77bd 8e76 e0bd
000000c0: 9538 a1bd 802e 08be fe26 a43c 8856 6cbd
000000d0: 40b3 d7bd 2bc3 3ebd f91b f1bd a763 8fbc
000000e0: d8a3 f7bc ac78 a3bd 99d6 4b3d 186f 62bd
000000f0: 14f3 36be 61ac b7bd 0afb 2ebd f2bb 833d
00000100: 38da c4bc 57ce 1fbe 0f6d 93bd 44e0 28bd
00000110: 50dc 1bbe 82a2 cb3b d5ce 86be a306 81bd
00000120: 0b00 77bd a969 52bd d9ec 8bbd fc4c 83bb
00000130: e214 97bd 0129 9fbe dee0 883c cb3f 4a3b
00000140: e64c 5cbd 589c 71bc 4128 e1bd b6e9 41bd
00000150: 45d3 84be 5f9c 4abe b949 0ebe 0fba 1abe
00000160: 85e7 03bd ba45 963c df7a 4ebc 735d a6bd
00000170: a30e 70bd f897 c6bd cd96 45bd 18dc 59be
00000180: 0d4c c0bc bf01 02be 8226 a33b ecc3 2f3e
00000190: bafa d5bd 3eb3 1ebe e78e 82bd 4171 113e
000001a0: 5743 76be 94c3 9e3d ff4e 34bd a76d 52bd
000001b0: 364e 3db8 cc02 8cbd 8373 7b3b 3510 71bd
000001c0: 48d2 81bd 7621 e2bd 1daf 0bbd 149b a5bd
000001d0: 9d94 a5bd e996 00bd 9659 9cbb 8adb 123e
000001e0: 5668 233d 8fb5 31bd 104c 20be 2560 183d
000001f0: b9e1 06be 4dec 733c 646c 24bd 6703 dabd

weight f4 [12, 128]
-0.079955205 -0.010270438 -0.010192638 -0.06551753 -0.052145194 0.042705238 -0.0024232639 -0.012886986
0.03523343 -0.022561893 0.042288873 -0.053840764 -0.007896034 -0.0038223963 -0.01116765 0.10784996
0.029145328 -0.011601234 0.018515665 -0.06830455 -0.03756134 -0.012330722 -0.024765259 0.009846789
-0.00939433 0.032758344 -0.008716194 -0.0074796295 0.013269011 -0.02856601 -0.022499667 -0.044697687
-0.03953102 -0.032676216 -0.036143143 -0.01945032 0.049514472 -0.04359537 -0.028577577 0.017913207
0.03261494 -0.011699079 -0.09014904 0.011445133 0.008182962 -0.015995027 0.029425997 0.059059925
-0.015137738 0.009079678 0.021438375 0.056323074 0.06126191 0.043034006 -0.0018631069 -0.0046448545
-0.009413984 0.040957272 -0.02279907 -0.04809566 -0.008334702 0.00933402 -0.001591389 -0.09561894
0.016758997 0.0022410392 0.022361675 -0.015052748 -0.032171365 -0.008009426 -0.04602602 0.01851716
0.0015465092 -0.009849821 0.028403169 -0.0010938465 0.015139756 0.028491955 -0.012879051 0.0059436937
-0.007819618 -0.015742594 0.05346199 0.01749587 0.014831973 0.0015115798 0.016406136 0.0016581106
-0.020276625 -0.07894564 -0.071521424 0.04121566 0.037665043 0.063703395 0.012801299 -0.024707995
0.049387466 -0.031465564 -0.011498744 -0.05651888 -0.05795385 -0.042105805 0.015210203 0.014176691
-0.003419407 0.021631964 0.010262603 0.07083309 -0.021029472 0.017926421 0.009362694 0.042995986
-0.0058159055 0.051622882 0.010423936 0.019402951 -0.007389793 -0.026929487 -0.04074942 0.005998083
-0.076841824 -0.014922627 -0.07358443 0.0063193506 -0.022967186 0.04720694 -0.024282956 0.020334
0.015443969 0.03086653 0.009182705 -0.05113134 -0.059324924 -0.018705754 -0.008772745 0.005437211
0.0058419392 0.084255405 0.01267232 0.03494235 0.0068016993 0.016207354 0.060154125 0.025726145
0.02581737 -0.10599331 -0.004855594 0.041520193 -0.071338534 -0.046894558 0.079293475 -0.03225882
0.02807957 -0.028535293 0.01937323 0.041702837 0.032429997 -0.031726032 0.04239978 -0.05931893
-0.080907956 -0.03469032 -0.09002826 -0.06115427 -0.045667853 0.056313466 0.025582217 -0.011860397
-0.08161949 0.021492217 0.081013866 -0.027294647 -0.0010383887 0.019103983 -0.063973114 -0.0590388
0.10334665 -0.10413518 0.008352958 0.0124926865 0.038848072 0.025252528 -0.13858059 -0.08332994
-0.0037582335 -0.007000033 -0.018715579 -0.019100472 -0.020395726 0.02181726 -0.06736345 -0.10535152
-0.02123476 -0.019637508 -0.028284987 -0.01516761 0.06591656 0.06205644 0.09943703 -0.051548976
0.001976917 0.066563204 0.033247102 -0.03059673 0.026060548 -0.11081175 0.023226215 -0.0036331327
-0.045495495 0.014413452 0.088594586 -0.014970006 -0.07969353 0.046392918 -0.014997843 -0.0034790558
-0.011988752 0.01764573 0.06572622 0.059039094 0.090983935 0.024976939 -0.016958142 -0.01969559
-0.036745355 0.023948278 0.07218509 0.09549448 -0.0041092103 -0.07088073 -0.108206205 0.09580942
-0.11165087 0.06555199 0.0086819185 0.0031274485 -0.019796519 -0.051595706 -0.054357152 0.11248295
0.0022506255 -0.022789175 -0.08809055 -0.027487013 -0.016522732 0.006977132 -0.03144109 0.018911816
0.08865112 -0.02226897 0.031501837 0.037941277 0.0065805176 0.03837355 0.09976964 0.095196865
00000000: 8ebf a3bd 5745 28bc 06ff 26bc 0e2e 86bd
00000010: 3396 55bd b0eb 2e3d 9fcf 1ebb f023 53bc
00000020: ee50 103d b8d3 b8bc 1937 2d3d 2288 5cbd
00000030: 5e5e 01bc 2b81 7abb 85f8 36bc 71e0 dc3d
00000040: 2fc2 ee3c 1a13 3ebc 2aae 973c 42e3 8bbd
00000050: ebd9 19bd cc06 4abc 83e0 cabc 6d54 213c
00000060: adea 19bc 9d2d 063d 5ece 0ebc ae17 f5bb
00000070: 4466 593c 4403 eabc 3951 b8bc ec14 37bd
00000080: 47eb 21bd 7fd7 05bd d50a 14bd 4756 9fbc
00000090: b0cf 4a3d 0f91 32bd 861b eabc b8be 923c
000000a0: 3e97 053d 7ead 3fbc 0fa0 b8bd 5e84 3b3c
000000b0: d511 063c 0108 83bc ca0e f13c d2e8 713d
000000c0: 4604 78bc eec2 143c 889f af3c 06b3 663d
000000d0: c5ed 7a3d 6d44 303d 7e33 f4ba dd33 98bb
000000e0: 1c3d 1abc d0c2 273d 1ec5 babc f4ff 44bd
000000f0: 468e 08bc b8ed 183c 2796 d0ba ddd3 c3bd
00000100: 2a4a 893c 66de 123b d52f b73c cd9f 76bc
00000110: 1fc6 03bd f839 03bc c885 3cbd 4db1 973c
00000120: 3db4 ca3a 2561 21bc c3ad e83c 665f 8fba
00000130: bd0c 783c f667 e93c a802 53bc 51c3 c23b
00000140: db1d 00bc 9df6 80bc f6fa 5a3d 8053 8f3c
00000150: ce01 733c 3420 c63a 2966 863c f654 d93a
00000160: 2a1b a6bc 40ae a1bd d379 92bd c0d1 283d
00000170: a946 1a3d ed76 823d 8abc 513c 6c68 cabc
00000180: 834a 4a3d 09e2 00bd 3a65 3cbc 5780 67bd
00000190: 0461 6dbd 2377 2cbd 3734 793c 5a45 683c
000001a0: 2118 60bb 8435 b13c 7a24 283c f010 913d
000001b0: 0046 acbc 6eda 923c fc65 193c 8f1c 303d
000001c0: 5a93 bebb 8472 533d 28c9 2a3c f0f2 9e3c
000001d0: 1426 f2bb 3a9b dcbc dde8 26bd 918b c43b
000001e0: 3f5f 9dbd 097e 74bc 6fb3 96bd 8e12 cf3b
000001f0: ae25 bcbc 105c 413d 0ded c6bc 7d93 a63c
00000200: b308 7d3c cedb fc3c 0e73 163c 196f 51bd
00000210: b1fe 72bd cf3c 99bc 8fbb 0fbc a22a b23b
00000220: bd6d bf3b 198e ac3d 909f 4f3c b61f 0f3d
00000230: cae0 de3b 49c5 843c 2c64 763d a3bf d23c
00000240: f37e d33c 0513 d9bd ad1b 9fbb 1411 2a3d
00000250: f019 92bd 8214 40bd 9e64 a23d d321 04bd
00000260: 2007 e63c d9c2 e9bc 9cb4 9e3c 98d0 2a3d
00000270: 51d5 043d 28f3 01bd 64ab 2d3d 68f8 72bd
00000280: 12b3 a5bd 7017 0ebd bd60 b8bd e67c 7abd
00000290: 370e 3bbd f3a8 663d cc91 d13c 1c52 42bc
000002a0: 1f28 a7bd 7210 b03c 99ea a53d 0699 dfbc
000002b0: 8b1a 88ba f57f 9c3c 5604 83bd abd2 71bd
000002c0: 69a7 d33d d344 d5bd d8da 083c 20ae 4c3c
000002d0: 281f 1f3d 64de ce3c 12e8 0dbe e3a8 aabd
000002e0: b24c 76bb 8860 e5bb 6a51 99bc 9878 9cbc
000002f0: f014 a7bc 1cba b23c d9f5 89bd 8ac2 d7bd
00000300: 85f4 adbc d7de a0bc ebb5 e7bc 9181 78bc
00000310: 43ff 863d e52e 7e3d a4a5 cb3d 0525 53bd
00000320: 2a8f 013b 4a52 883d 1d2e 083d fea5 fabc
00000330: ee7c d53c 45f1 e2bd e744 be3c da19 6ebb
00000340: 7c59 3abd 6626 6c3c 1471 b53d c244 75bc
00000350: 5d36 a3bd 8006 3e3d 83b9 75bc df00 64bb
00000360: 786c 44bc c78d 903c 789b 863d fad2 713d
00000370: c955 ba3d 709c cc3c cdeb 8abc a558 a1bc
00000380: 4c82 16bd 2e2f c43c c7d5 933d 9c92 c33d
00000390: 8ea6 86bb eb29 91bd 379b ddbd bb37 c43d
000003a0: 36a9 e4bd 1f40 863d 9b3e 0e3c e1f5 4c3b
000003b0: 4f2c a2bc 0556 53bd 9ba5 5ebd 765d e63d
000003c0: 3b7f 133b 5db0 babc d168 b4bd 722c e1bc
000003d0: ae5a 87bc 6da0 e43b 5fc8 00bd f4ec 9a3c
000003e0: b88e b53d 6a6d b6bc 1208 013d 5068 1b3d
000003f0: 62a1 d73b 952d 1d3d 0654 cc3d 93f6 c23d

bias f4 [12]
-0.016968248 0.070692815 -0.07976502 0.10098048 0.09785178 -0.07780643 0.04051968 0.196304
0.025307627 0.119365826 0.25050998 0.13916783
00000000: ff00 8bbc 65c7 903d d85b a3bd dbce ce3d
00000010: 8466 c83d fa58 9fbd f7f7 253d ea03 493e
00000020: f151 cf3c 1276 f43d d842 803e 0382 0e3e
