models/Sep28_17-01-19_gs_encoder.pt (torch, 376047 bytes, 6 tensors)

weight f4 [256, 180]
0	0x3da5d716	0.08097665
1	0xbe057e60	-0.1303649
2	0xbe68c2e2	-0.22730592
3	0x3d9960e9	0.07489187
4	0xbe90f0c2	-0.28308684
5	0xbbedb02f	-0.0072536687
6	0xbe0d45b1	-0.13796116
7	0xbd836233	-0.064152144
8	0x3f3bf32e	0.7341794
9	0xbcdaeeec	-0.026725255
10	0xbe82f017	-0.255738
11	0xbbd500cd	-0.0065003396
12	0xbd8d5d34	-0.06902543
13	0xbdee6a9d	-0.116414286
14	0x3da247b3	0.07923832
15	0x3d7214cd	0.05910187
16	0xbc6d6c57	-0.014491162
17	0x3d136a8b	0.03599028
18	0xbe86b645	-0.26310936
19	0xbd3867d2	-0.045020886
20	0x3edac009	0.42724636
21	0xbea595f0	-0.32340956
22	0x3efd5e39	0.4948595
23	0x3c7ffbdf	0.015624016
24	0x3e4ae7e2	0.19815019
25	0xbdb298d0	-0.08720553
26	0xbcec7ae7	-0.028867198
27	0x3de99226	0.11404829
28	0x3dd5eeda	0.10445948
29	0x3e06a28a	0.13147941
30	0x3e900758	0.28130603
31	0x3eeadc8e	0.45871395
32	0xbeb0c790	-0.34527254
33	0x3cb4cec8	0.022071257
34	0x3cafa115	0.021439115
35	0x3b9e1e9d	0.0048254267
36	0xbd7ec8d2	-0.062203236
37	0x3bb7cd2e	0.005609176
38	0xb90c46fa	-0.00013377881
39	0x3cc84d4a	0.024450917
40	0xbc11cb86	-0.008898621
41	0xbd5491a3	-0.051896702
42	0x3d939fd4	0.07208219
43	0x3cd26d79	0.025686966
44	0xbc9cfb98	-0.019162938
45	0x3cc983f9	0.024599062
46	0xbda8288d	-0.082108594
47	0xbe586f53	-0.21136217
48	0x3d835ab9	0.06413788
49	0xbeaaecd9	-0.33383825
50	0xbd10a4a7	-0.035313275
51	0xbabc40a7	-0.001436253
52	0xbd772248	-0.060335428
53	0x3ef0dcb8	0.47043395
54	0xbbaabff7	-0.0052108723
55	0xbe214b08	-0.15751278
56	0xbd31547c	-0.04329346
57	0xbddfaa67	-0.109211735
58	0xbd8c850a	-0.06861313
59	0x3c1a69b1	0.009424613
60	0x3c947b42	0.01812518
61	0xbd8e69bd	-0.06953762
62	0x3e93f7f4	0.2890011
63	0xbeb2f2bd	-0.3495082
64	0xbdd28e19	-0.10281009
65	0x3eb4ddc5	0.35325447
66	0xbe59d2fb	-0.21271889
67	0xbdb77ffe	-0.089599594
68	0xbcdbd68c	-0.026835702
69	0x3d981326	0.07425527
70	0x3d1b4dda	0.037916042
71	0x3d9b3f16	0.07580392
72	0xbd67699a	-0.056497194
73	0xbddd18e0	-0.1079576
74	0x3e60c342	0.21949485
75	0xbe2b2137	-0.16711889
76	0xbe030254	-0.12793857
77	0x3ea7aae1	0.32747558
78	0xba19dc79	-0.000586934
79	0x3d940a3d	0.07228515
80	0xbc1b879b	-0.00949278
81	0xbd0ab7bc	-0.03386663
82	0x3c033b66	0.008009767
83	0x3c7e8f3f	0.015537082
84	0x3dc786a2	0.09742476
85	0x3d3b9707	0.045798328
86	0xbd8f4f0b	-0.06997498
87	0x3e4565a0	0.19277048
88	0x3de12f37	0.10995334
89	0xbdca174d	-0.098677255
90	0x3d143747	0.03618553
91	0xbdb6cc05	-0.089256324
92	0xbe6a452c	-0.2287795
93	0x3ab0063a	0.001342959
94	0xbeb76a07	-0.3582308
95	0x3d439af6	0.047755204
96	0xbd92d5fe	-0.07169722
97	0x3ebcbd18	0.36863017
98	0x3df4cf48	0.11953598
99	0xbd925271	-0.07144631
100	0xbe16fe23	-0.14745383
101	0x3d2f976b	0.042869013
102	0xbda5f3da	-0.081031516
103	0x3d1b91ec	0.03798096
104	0x3d810369	0.062994786
105	0xbb9f766b	-0.0048664114
106	0xbe5bab20	-0.21451998
107	0x3ef92217	0.4865882
108	0xbf010a90	-0.5040674
109	0xbe174081	-0.147707
110	0x3eeb84f2	0.45999867
111	0xbd35fef4	-0.044432595
112	0xbe619c14	-0.22032195
113	0xbdd848e1	-0.105607755
114	0x3e2ff1fb	0.17182152
115	0xbd2e9aee	-0.04262822
116	0xbe0dc6c2	-0.13845351
117	0xbdc93ef0	-0.098264575
118	0xbe8e6b78	-0.27816367
119	0x3ed59f40	0.4172306
120	0xbee9f099	-0.45691374
121	0xbe610ded	-0.21977969
122	0x3ed0a32b	0.40749487
123	0xbcadd5e5	-0.021220157
124	0x3dbf3418	0.09336108
125	0xbcfbd9c7	-0.030743493
126	0xbd530f7c	-0.05152844
127	0xbbe47a18	-0.0069725625
128	0x3c983250	0.018578678
129	0x3db3dbe8	0.08782178
130	0x3d28ce63	0.04121245
131	0xbdc96e9a	-0.09835549
132	0x3e6e7bb7	0.23289381
133	0x3e0ad31f	0.13557099
134	0xbddc8576	-0.10767643
135	0xbc2993dc	-0.010350194
136	0x3cdf7a0c	0.027279876
137	0x3cc586da	0.024112154
138	0x3cc5ba49	0.02413668
139	0xbe932192	-0.2873655
140	0x3d0ffb58	0.03515181
141	0x3da57a5b	0.08079978
142	0xbe7d0352	-0.24708298
143	0xbf88084c	-1.0627532
144	0x3df6ee69	0.12057192
145	0xbe7ea2e7	-0.2486683
146	0xbe4c0712	-0.19924572
147	0xbddc1f7a	-0.10748191
148	0xbde7ef68	-0.1132496
149	0xbd72ac20	-0.059246182
150	0xbe5400ee	-0.2070348
151	0xbe1a4d7a	-0.15068617
152	0x3f529b2f	0.8226804
153	0xbf271e5e	-0.6528071
154	0xbe35913e	-0.17731187
155	0x3f0f7318	0.56034994
156	0x3dc176d6	0.09446494
157	0xbf552a19	-0.8326736
158	0xbea2640d	-0.31716958
159	0x3ed2c5dd	0.41166583
160	0x3e26fece	0.16308138
161	0xbe292c1d	-0.16520734
162	0xbec2f786	-0.3807947
163	0xbe142304	-0.14466482
164	0x3ff2d590	1.8971424
165	0xbef8128c	-0.4845165
166	0xbe987c01	-0.29782107
167	0x3e4aa74c	0.19790381
168	0xbcfdccf0	-0.03098151
169	0x3db27983	0.08714583
170	0x3d3bbb7a	0.04583309
171	0xbda97161	-0.082735784
172	0xbb1e8ea4	-0.0024193907
173	0x3d2ceef6	0.04222008
174	0x3d9d1296	0.076695606
175	0xbd8ce413	-0.06879439
176	0xbd8ff841	-0.070297725
177	0x3e6547c6	0.2239066
178	0x3dae9704	0.08524898
179	0xbce13faa	-0.027496178
180	0xbe4db16e	-0.20087215
181	0x3e39e438	0.18153465
182	0xbd2a4284	-0.04156734
183	0xbc88b498	-0.016687676
184	0x3e4b3a23	0.19846396
185	0x3d2bd5dc	0.041952
186	0xb9d751b7	-0.00041068878
187	0x3d671927	0.05642047
188	0xbdf1f331	-0.11813963
189	0xbedbdfd5	-0.42944208
190	0xbe13921c	-0.14411205
191	0xbe6b3cb8	-0.22972381
192	0x3eb157a9	0.34637192
193	0x3cb2807d	0.021789784
194	0xbc175cae	-0.009238405
195	0xbe090411	-0.13380457
196	0xbdd9b3d6	-0.10630004
197	0x3cea9893	0.028637206
198	0xbdc64e26	-0.096828744
199	0xbd9fe03c	-0.07806441
200	0x3eb5d78d	0.35516015
201	0x3d92307a	0.071381524
202	0x3d1d528d	0.038408805
203	0x3e809723	0.25115308
204	0xbeb17241	-0.3465748
205	0xb94ec043	-0.00019717314
206	0xbe9e6f06	-0.3094408
207	0xbe2b99e8	-0.1675793
208	0xbe7f7048	-0.24945176
209	0x3e813037	0.25232098
210	0xbd6c1d7f	-0.057645317
211	0xbdff0589	-0.124522276
212	0xbe20884d	-0.15676995
213	0xbdfb1a39	-0.12260861
214	0x3caad6cf	0.020854382
215	0xbc83a519	-0.016069936
216	0xbdcb0f78	-0.0991506
217	0xbcc01cbe	-0.023451205
218	0x3d532dd7	0.05155739
219	0xbc4af709	-0.012387999
220	0x3a37ae52	0.0007006872
221	0x3ccffe4c	0.025389813
222	0xbd1cc590	-0.038274348
223	0xbcdf9b38	-0.027295694
224	0x3b24c546	0.0025141998
225	0xbe23cd82	-0.15996364
226	0x3e205568	0.1565758
227	0xbbc17391	-0.005903669
228	0xbd9c3afc	-0.07628438
229	0x3e9bb57c	0.304119
230	0x3ddcb30d	0.10776339
231	0xbe8a9385	-0.27065673
232	0xbe5a6b59	-0.21330012
233	0xbe9a3b1d	-0.30123225
234	0xbe804b1e	-0.2505731
235	0xbc2677bb	-0.010160382
236	0xbe634648	-0.22194779
237	0x3e5e8a84	0.21732527
238	0x3d8b8227	0.06811934
239	0xbdad54f9	-0.08463473
240	0xbd2a5907	-0.04158881
241	0xbd1e7cc6	-0.038693212
242	0x3d138b6b	0.03602163
243	0xbe1f95cc	-0.15584487
244	0xbd320dbc	-0.04347013
245	0x3e749754	0.23885852
246	0x3df3baff	0.11900901
247	0x3e09f907	0.13473903
248	0x3de049e0	0.109515905
249	0x3dfcd1c0	0.12344694
250	0x3d55cec6	0.052199148
251	0xbe2e6bbc	-0.17033285
252	0xbd0073de	-0.0313605
253	0xbdf9cbc4	-0.12197068
254	0x3d16a9a1	0.036782864
255	0x3dbc95ed	0.092082836

bias f4 [256]
0	0x3c668e4c	0.014072012
1	0x3d7b4a5b	0.061350208
2	0xbd934782	-0.071913734
3	0x3c8ff32d	0.01757201
4	0xbea6231a	-0.32448655
5	0xbf170db8	-0.5900531
6	0x3e8c4834	0.27398837
7	0xbedb2eac	-0.42809045
8	0x3cd289b5	0.02570043
9	0x3e1506ec	0.14553422
10	0xbe1bc5d7	-0.15212189
11	0x3efbced9	0.4918125
12	0xbeae691f	-0.34064576
13	0x3e51042b	0.20411746
14	0xbe98b380	-0.29824448
15	0xbe86be76	-0.26317185
16	0x3f4bbe26	0.7958702
17	0xbe50addb	-0.2037882
18	0xbcab2315	-0.020890752
19	0xbd2d3982	-0.04229117
20	0xbdbf76de	-0.09348844
21	0x3e2cb728	0.16866744
22	0x3eba5c17	0.36398384
23	0xbdf96529	-0.12177498
24	0x3dfa77a7	0.12229853
25	0xbe243841	-0.16037084
26	0xbe5b901b	-0.2144169
27	0xbe461d32	-0.19347075
28	0x3eeafcad	0.458959
29	0x3de35e8b	0.11102017
30	0x3e27144f	0.16316341
31	0x3d98a800	0.074539185
32	0xbeba7fa6	-0.36425513
33	0x3e255b5e	0.16148135
34	0xbda3213a	-0.07965322
35	0x3e051741	0.12997152
36	0xbc4045dd	-0.011735407
37	0x3e851031	0.25988916
38	0x3eeab381	0.45840076
39	0x3e168503	0.14699177
40	0xbd1fe5d6	-0.039037548
41	0x3d6e3937	0.058160033
42	0xbe9e4bfd	-0.3091735
43	0xbd6a6c7d	-0.05723237
44	0xbf03ca48	-0.5148053
45	0x3da50dde	0.080592856
46	0x3e30c480	0.17262459
47	0xbd340a94	-0.0439554
48	0xbe694174	-0.22778875
49	0x3e97a310	0.29616594
50	0xbd925c47	-0.07146507
51	0xbe327b11	-0.17429759
52	0x3d4cadae	0.04997032
53	0x3bb96ca7	0.0056587043
54	0xbea0686c	-0.31329668
55	0xbd77e0ce	-0.060517125
56	0xbe28de2c	-0.16491002
57	0xbe4cf491	-0.2001517
58	0xbd9ca3ca	-0.07648428
59	0x3f2b1b19	0.6683822
60	0xbe9a1e05	-0.30101028
61	0xbd0c756b	-0.034291666
62	0xbf13c308	-0.5771947
63	0x3e6071ca	0.21918407
64	0x3e536bfe	0.20646665
65	0xbe938c1c	-0.28817832
66	0xbe6f8093	-0.23388891
67	0x3ddc98cd	0.10771332
68	0x3f7ceebf	0.988018
69	0x3e182041	0.14856054
70	0x3dc88050	0.09790099
71	0xbebef6db	-0.3729771
72	0xbe93a052	-0.28833252
73	0x3e067b4a	0.13132969
74	0xbe007e0e	-0.12548086
75	0xbe8a0dff	-0.26963803
76	0xbdd2712c	-0.10275492
77	0xbe14126c	-0.14460152
78	0x3d90f464	0.07077864
79	0x3dd3f647	0.10349708
80	0xbd6bc24f	-0.057558354
81	0xbd094919	-0.033516977
82	0xbe952946	-0.29133052
83	0xbde903de	-0.11377691
84	0x3bb9525d	0.0056555704
85	0xbedc53be	-0.4303264
86	0x3e5e302b	0.21698062
87	0x3e8c6b7d	0.27425757
88	0xbf16343b	-0.5867345
89	0x3e97d7b0	0.29656744
90	0x3f077b8e	0.52922904
91	0x3e52b59c	0.20577091
92	0xbe5dce31	-0.21660687
93	0x3cda17fd	0.026622767
94	0xbe93ec71	-0.28891328
95	0xbda09bd3	-0.07842221
96	0xbf1196a6	-0.56870496
97	0x3d7992c2	0.060930975
98	0xbcc00d68	-0.023443893
99	0x3cf4efe9	0.029899554
100	0xbf164935	-0.58705455
101	0xbeb78cb9	-0.3584955
102	0x3ca1c204	0.019745834
103	0xbee6b68b	-0.45061144
104	0xbec08c13	-0.37606868
105	0xbe97a011	-0.29614308
106	0xbdd798db	-0.10527202
107	0xbecef51e	-0.40421385
108	0xbe651f00	-0.22375107
109	0xbe6b7642	-0.2299433
110	0xbe6975c0	-0.22798824
111	0x3deae735	0.114698805
112	0x3dcb7159	0.09933729
113	0xbe3bc726	-0.18337688
114	0xbe4b94be	-0.1988096
115	0x3e4676a3	0.19381194
116	0xbe0449d2	-0.12918785
117	0xbe87fffa	-0.26562482
118	0xbe7baf4f	-0.24578594
119	0xbd6a80f8	-0.0572519
120	0x3e9c3b62	0.30514055
121	0x3df21b4f	0.11821615
122	0xbe859b3c	-0.26094997
123	0xbe0814a2	-0.13289121
124	0xbc4e676c	-0.0125979
125	0xbef93390	-0.48672152
126	0xbc2b6914	-0.010462064
127	0xbbc54d56	-0.006021182
128	0x3ea0a294	0.31374037
129	0xbd471f40	-0.048613787
130	0xbea72787	-0.32647344
131	0x3d5fe9a7	0.054666188
132	0xbe6e2971	-0.23257996
133	0x3e9e6155	0.30933633
134	0xbee43abc	-0.4457606
135	0x3e3da970	0.18521667
136	0xbd5f7e97	-0.054564085
137	0x3e323160	0.17401648
138	0x3dc10767	0.0942524
139	0x3ee1ab20	0.4407587
140	0xbe6e46fc	-0.23269266
141	0xbe89a87e	-0.26886362
142	0x3e425bff	0.18980406
143	0x3c1d2cff	0.009593247
144	0xbe8af8fb	-0.27143082
145	0xbdb26fcf	-0.08712732
146	0xbcb939d6	-0.022610586
147	0xbe02fb09	-0.12791075
148	0xbe1716de	-0.14754817
149	0xbc51f706	-0.012815243
150	0xbcbaa40a	-0.022783298
151	0xbcf29337	-0.029611213
152	0x3e6543d0	0.2238915
153	0xbe2799e6	-0.16367301
154	0xbe8455aa	-0.25846606
155	0xbe307ff4	-0.1723631
156	0x3e1a3f6b	0.15063255
157	0x3e1e9d2e	0.15489647
158	0xbecbed10	-0.39829302
159	0xbe746032	-0.2386482
160	0xbe2d901f	-0.16949509
161	0xbe2ace8e	-0.16680357
162	0xbe83961d	-0.25700465
163	0xbe62debe	-0.22155282
164	0x3e1f6c13	0.15568571
165	0xbf237f48	-0.6386609
166	0xbd2a0a01	-0.041513447
167	0xbebc3ee3	-0.3676673
168	0x3c8b3bf7	0.016996367
169	0xbd4fd070	-0.05073589
170	0xbd6c3f96	-0.057677828
171	0x3c98a356	0.018632572
172	0x3e4af29c	0.1981911
173	0x3dcd19d4	0.10014692
174	0xbd8c8657	-0.06861561
175	0x3f008afb	0.5021207
176	0x3ea93eae	0.33055633
177	0xbe9dfb89	-0.3085597
178	0xbefb163d	-0.49040404
179	0xbe9fe184	-0.31226742
180	0x3e862d3c	0.26206386
181	0xbd9b10d6	-0.075715706
182	0xbebafe50	-0.3652215
183	0xbd13326c	-0.035936758
184	0xbe85da02	-0.2614289
185	0x3ddc86eb	0.10767921
186	0x3ec11533	0.37711486
187	0xbde639c1	-0.112414844
188	0xbd7b6853	-0.06137879
189	0x3eb8764a	0.36027747
190	0xbe56297b	-0.20914261
191	0xbdb6f045	-0.089325465
192	0xbe97b958	-0.29633594
193	0xbeacaa92	-0.33723885
194	0x3e7c58fc	0.2464332
195	0x3e74207a	0.23840514
196	0xbe83416d	-0.25635853
197	0xbeb9b940	-0.36274147
198	0xbd54f108	-0.051987678
199	0xbdd81837	-0.105514936
200	0x3de014ac	0.10941443
201	0x3beb969b	0.0071895844
202	0xbe0b116b	-0.13580863
203	0xbf162124	-0.5864432
204	0xbe3f905f	-0.18707417
205	0xbe58d8c8	-0.21176445
206	0x3b951c01	0.0045504575
207	0x3e26e092	0.16296604
208	0x3dd70a6b	0.10500034
209	0xbea77495	-0.32706133
210	0xbce95fae	-0.028488006
211	0x3f38c5f6	0.72177064
212	0xbe786ff2	-0.24261454
213	0xbe83cd6d	-0.25742665
214	0x3de2ae30	0.1106838
215	0xbe013160	-0.12616491
216	0xbe8521fb	-0.26002488
217	0xbefc4037	-0.49267742
218	0x3df665ac	0.12031111
219	0xbe98a9cd	-0.29817048
220	0xbe8f23a1	-0.2795687
221	0x3eb60e8d	0.35557976
222	0xbe76bce9	-0.24095501
223	0x3de7a9a2	0.11311652
224	0xbd964dcd	-0.07339058
225	0x3dd8a436	0.10578196
226	0xbe1e0965	-0.15433271
227	0xbe26d5f2	-0.16292551
228	0xbe1aaf61	-0.15105964
229	0xbe23b2d8	-0.15986192
230	0xbd904dd0	-0.070460916
231	0x3de51da2	0.11187293
232	0xbe9a9c27	-0.3019726
233	0xbe126938	-0.1429795
234	0x3dc0fbf7	0.094230585
235	0xbe640e80	-0.22271156
236	0xbe1abdf8	-0.1511153
237	0xbe59d667	-0.21273194
238	0xbebb2aff	-0.3655624
239	0x3dbc04ec	0.09180626
240	0xbe97aa41	-0.2962208
241	0xbe249a8c	-0.1607458
242	0x3f1545c0	0.58309555
243	0xbeb03664	-0.34416497
244	0x3dd5d8c5	0.10441736
245	0x3df9c844	0.12196401
246	0x3d48c56e	0.04901641
247	0x3e7d2ea4	0.24724823
248	0xbeec4d03	-0.46152505
249	0x3dd20a5e	0.10255884
250	0xbea937b3	-0.33050308
251	0xbe60b020	-0.21942186
252	0xbf0b7018	-0.54467916
253	0x3ec34355	0.38137308
254	0xbebfbfb8	-0.37450957
255	0x3ebcbe69	0.3686402

weight f4 [128, 256]
0	0xbd5938fa	-0.053032853
1	0x3b88a238	0.0041697286
2	0x3e25c8d9	0.16189899
3	0xbd3175fe	-0.043325417
4	0x3e42e3d5	0.19032224
5	0x3eb9fe99	0.36327055
6	0x3e1299dd	0.14316507
7	0xbe2631d1	-0.16229941
8	0xbe48a186	-0.19592866
9	0xbed7bc5b	-0.4213589
10	0x3d915c9c	0.07097742
11	0xbdb0e7cb	-0.08637961
12	0x3aa9e7e2	0.0012962783
13	0x3db94190	0.09045708
14	0x3d8a4503	0.06751444
15	0xbdc9c236	-0.09851496
16	0xbe6f1fcd	-0.23351975
17	0xbe69940b	-0.2281038
18	0x3ccda05a	0.025100876
19	0x3c831d20	0.016005099
20	0xbe5e1be0	-0.21690321
21	0x3e09f190	0.13471055
22	0x3c9e9b2c	0.019361101
23	0xbe5a0e36	-0.21294484
24	0x3d4b9198	0.049699396
25	0xbe25fe85	-0.16210373
26	0xbced4034	-0.028961278
27	0x3dad4dbb	0.084620915
28	0x3d03b432	0.03215427
29	0xbd869dfc	-0.06573102
30	0xbe901551	-0.28141263
31	0xbdcb0bbd	-0.09914348
32	0x3e825ac4	0.25459874
33	0xbebfa751	-0.3743234
34	0xbdc7833e	-0.09741829
35	0xbd0481ae	-0.032350235
36	0xbddfe69b	-0.109326564
37	0xbe14bffe	-0.14526364
38	0xbdf30dac	-0.11867842
39	0x3d47eadc	0.048807964
40	0x3dc440dc	0.095826834
41	0xbeb20c0c	-0.34774816
42	0xbe2d4a23	-0.16922812
43	0xbc405efb	-0.011741395
44	0x3c30cba7	0.010790742
45	0xbd1e13c0	-0.038593054
46	0xbe31ca49	-0.17362322
47	0x3e60849f	0.21925591
48	0xbe081d1f	-0.13292359
49	0xbdc314b3	-0.095254324
50	0xbda46cf6	-0.08028595
51	0xbcdb7964	-0.026791282
52	0xbea7ee32	-0.32798916
53	0xbc85cc52	-0.01633278
54	0xbe00d7d7	-0.12582336
55	0x3cb0da15	0.021588365
56	0x3daff1ad	0.08591018
57	0xbd92b5e4	-0.07163599
58	0xbda2396d	-0.07921109
59	0xbe6e7b5a	-0.23289242
60	0x3db7c879	0.08973784
61	0xbe26ac59	-0.16276683
62	0xbdae62fd	-0.08514974
63	0xbc04003c	-0.0080566965
64	0x3d70552a	0.05867497
65	0xbe43402b	-0.19067447
66	0xbd218b4a	-0.039439477
67	0xbe11cb88	-0.14237797
68	0xbd337c2b	-0.043819588
69	0x3d97a0cf	0.07403719
70	0xbe0bcb1f	-0.13651703
71	0xbdc2a60c	-0.09504327
72	0x3d3d461f	0.04620945
73	0xbe31baf5	-0.17356475
74	0xbe5cd9d9	-0.21567477
75	0xbdbe5828	-0.09294158
76	0xbd655ee1	-0.055998687
77	0x3d7f93e0	0.062396884
78	0x3d8e3899	0.06944389
79	0xbdac4fc1	-0.08413649
80	0x3d89f3e1	0.06735969
81	0xbea14c5e	-0.31503576
82	0x3e28b172	0.1647394
83	0xbe1f1f03	-0.15539174
84	0xbd9ecf94	-0.07754436
85	0xbe2a294c	-0.16617316
86	0xbf1820f6	-0.59425294
87	0x3e840fa1	0.25793174
88	0x3d8ee274	0.06976786
89	0xbe204d4b	-0.15654485
90	0xbd491941	-0.04909635
91	0xbe0b659b	-0.13612978
92	0x3abf2e8b	0.0014586014
93	0x3d11a192	0.035554476
94	0xbccafac8	-0.024777785
95	0x3d524a0d	0.05134015
96	0xbe1e4c4e	-0.15458795
97	0x3f025d04	0.5092318
98	0xbe14791b	-0.14499323
99	0x3de7f865	0.11326674
100	0xbe1b41d9	-0.15161838
101	0x3df547ea	0.11976607
102	0xbe9e81d6	-0.30958432
103	0xbeefb3d6	-0.4681689
104	0x3dfc0a58	0.123066604
105	0x3e0128b3	0.12613182
106	0xbe8cfc4c	-0.27536237
107	0x3e707126	0.23480663
108	0xbd8cc6e0	-0.0687387
109	0x3e2c2c87	0.16813861
110	0x3e168d65	0.14702375
111	0x3b7e2b23	0.0038783036
112	0x3d8ff47a	0.07029052
113	0x3d1de790	0.038550913
114	0xbccad079	-0.02475761
115	0x3da0bcce	0.07848512
116	0xbe9c1f29	-0.30492523
117	0x3ebc41d7	0.36768982
118	0xbde0395d	-0.10948441
119	0x3d54521b	0.051836114
120	0x3d668b49	0.056285176
121	0x3d8f26b5	0.06989805
122	0xbcbbfd42	-0.022947911
123	0x3e4938e3	0.19650607
124	0x3cf39d7c	0.02973818
125	0x3dcf4e3d	0.10122345
126	0x3dc9d57a	0.098551705
127	0x3e9085dd	0.2822713
128	0xbd8ab7d9	-0.067733474
129	0x3b9bd9ea	0.004756202
130	0x3dc76c51	0.097374566
131	0xbd647b8e	-0.055781893
132	0x3ead2a83	0.33821496
133	0xbde0310f	-0.10946857
134	0xbdb62b8d	-0.088950254
135	0x3d7e5b4c	0.062098786
136	0x3c7076ff	0.014676808
137	0x3db7e42a	0.08979066
138	0x3d289abd	0.041163195
139	0xbdbce553	-0.092234276
140	0x3e5f160b	0.21785752
141	0xbc15d3ef	-0.009144767
142	0xbe224bc4	-0.15849215
143	0xbb518e13	-0.0031975552
144	0xbdb8d241	-0.09024478
145	0x3f3683d1	0.71294886
146	0x3e01cfe4	0.1267696
147	0x3d89bf04	0.067258865
148	0x3de84414	0.1134111
149	0xbdc886cf	-0.09791338
150	0x3e26ff4e	0.16308329
151	0xbe10fd01	-0.14159013
152	0x3e0af6e7	0.13570748
153	0x3e3b0583	0.18263821
154	0x3b851437	0.0040612477
155	0x3d80ee2f	0.0629543
156	0x3d29dff7	0.041473355
157	0xbdcf9df2	-0.101375476
158	0x3dea1a00	0.1143074
159	0x3ee3f34c	0.44521558
160	0x3d778e75	0.060438592
161	0x3d3cbe19	0.04607973
162	0xbd7ac661	-0.061224345
163	0xbe4762a5	-0.19471224
164	0x3a502866	0.000794059
165	0x3def6c34	0.1169056
166	0xbe8a01ba	-0.26954442
167	0x3d0484be	0.032353155
168	0x3df3ccad	0.11904273
169	0xbdba015f	-0.09082293
170	0xbdbf04b8	-0.09327072
171	0x3ba70e19	0.005098116
172	0xbe1dcdae	-0.15410492
173	0x3e133c2b	0.14378421
174	0x3d91e2c1	0.07123328
175	0xbe9d5995	-0.30732408
176	0xbe8adbfb	-0.27120957
177	0xbdf5bed0	-0.11999285
178	0x3e1be619	0.15224494
179	0xbd8039ff	-0.06261062
180	0xbdc2f306	-0.09519009
181	0x3c23be71	0.009994135
182	0xbba1f595	-0.0049426057
183	0xbd8166da	-0.063184455
184	0x3e723619	0.23653449
185	0xbbd21077	-0.006410654
186	0xbe57cf80	-0.21075249
187	0x3dfa1d1e	0.12212585
188	0xbe5f4195	-0.21802361
189	0xbd335de6	-0.04379072
190	0xbd87f7a8	-0.066390336
191	0x3ede4a52	0.43416077
192	0x3d057629	0.03258339
193	0x3d582b0e	0.052775435
194	0xbe189812	-0.1490176
195	0x3c22a962	0.009928079
196	0xbd4be7ee	-0.049781732
197	0x3d046cbc	0.03233026
198	0xbdf42b06	-0.119222686
199	0xbd5d438e	-0.054019503
200	0x3e2360ef	0.15954946
201	0xbdbda4e8	-0.09259969
202	0xbd881323	-0.06644275
203	0xbe1bd4c8	-0.15217888
204	0xbb02bab9	-0.001994772
205	0xbe896b3b	-0.26839623
206	0xbd0c5367	-0.034259226
207	0x3d8f5b1e	0.06999801
208	0x3d3594bc	0.044331297
209	0xbba95823	-0.0051679774
210	0xbe3327b5	-0.17495616
211	0xbe56b5ca	-0.20967785
212	0x3e4597d1	0.19296195
213	0xbd130835	-0.0358965
214	0x3d8b97be	0.06816052
215	0xbd6b0fce	-0.05738812
216	0x3de24738	0.1104874
217	0x3db2dcc0	0.08733511
218	0xbdfeaafd	-0.12434957
219	0x3d7eecf0	0.06223768
220	0x3d5bc4b7	0.0536544
221	0xbe0a56d2	-0.13509682
222	0xbced668c	-0.028979562
223	0xbd5e30b7	-0.054245677
224	0xbd51fcf8	-0.05126664
225	0x3ddf14c2	0.10892631
226	0x3d8e5fd9	0.06951875
227	0xbd7e0d61	-0.062024478
228	0xbd1f80b7	-0.03894111
229	0x3d84eaba	0.06490083
230	0xbd62497d	-0.055245865
231	0x3cacaec9	0.021079438
232	0x3dbb2c78	0.09139341
233	0xbdc458f3	-0.09587278
234	0xbd73feba	-0.059569098
235	0x3b018937	0.0019765624
236	0xbb0ef2d7	-0.0021812224
237	0xbeb95de5	-0.36204448
238	0x3ecc1436	0.3985917
239	0x3d754e89	0.05988935
240	0xbcf52e0c	-0.029929183
241	0x3d9c1d08	0.07622725
242	0xbe646062	-0.22302392
243	0x3dca7255	0.09885088
244	0x3e0f21fc	0.13977808
245	0x3e1c9a7d	0.15293308
246	0xbe6bc1da	-0.23023167
247	0xbea9b48b	-0.33145556
248	0x3e5100f0	0.20410514
249	0xbd2907fc	-0.04126738
250	0x3e8c89c8	0.2744887
251	0xbd40e893	-0.0470968
252	0xbd5957ef	-0.053062376
253	0xbe596586	-0.21230134
254	0x3c6b3130	0.014354989
255	0xbd833fb9	-0.064086385

bias f4 [128]
0	0xbe1a4910	-0.15066934
1	0xbdf1fb65	-0.11815528
2	0xbe1daad0	-0.15397191
3	0xbcb4586d	-0.022014821
4	0xbc9a1cc8	-0.018812552
5	0xbc3d2edd	-0.011546818
6	0xbe143e3a	-0.14476863
7	0xbc655c6a	-0.013999084
8	0x3c22549e	0.00990787
9	0xbe0cbe05	-0.13744362
10	0xbdd2ee06	-0.102993056
11	0xbdff4a0c	-0.12465295
12	0xbdc0631a	-0.09393902
13	0x3d436208	0.04770091
14	0xbde77f7d	-0.11303613
15	0xbc9d7dc5	-0.01922501
16	0xbdb241f6	-0.08703987
17	0xbd1ec2c1	-0.03875995
18	0xbe292844	-0.16519266
19	0x3b8abd82	0.004234017
20	0x3b48299e	0.0030542384
21	0xbf1e80e0	-0.619154
22	0xbd0c2c02	-0.034221657
23	0xbe2f0fe0	-0.170959
24	0xbdd712c3	-0.105016254
25	0xbe40c3fd	-0.18824764
26	0xbe64cd0f	-0.22343849
27	0xbde7d8b2	-0.11320628
28	0xbdfe9a99	-0.12431831
29	0xbdf3a34d	-0.118963815
30	0xbdface39	-0.12246365
31	0xbd7f3a46	-0.062311433
32	0xbe6ab0f5	-0.22919066
33	0xbd75723b	-0.05992339
34	0xbca2f6bd	-0.019893045
35	0x3b6c063d	0.003601446
36	0xbd855a46	-0.06511359
37	0xbe1d90ec	-0.15387315
38	0xbcb4fa69	-0.022092061
39	0xbe0ece73	-0.13945942
40	0xbd21a00c	-0.039459273
41	0xbd813819	-0.06309528
42	0xbe2bed23	-0.16789679
43	0xbd8a3db2	-0.06750049
44	0xbe97fdbf	-0.2968578
45	0xbce88618	-0.028384253
46	0xbd6811c8	-0.056657583
47	0xbd89086b	-0.06691059
48	0xbe194b73	-0.14970188
49	0x3c1e553e	0.009663878
50	0xbc274bd7	-0.010210953
51	0xbe69e891	-0.22842623
52	0xbd9b58a1	-0.07585264
53	0xbe20707b	-0.15667908
54	0xbe052871	-0.13003708
55	0x3dc8b04b	0.0979925
56	0xbd42a1b5	-0.047517497
57	0x3df3fb70	0.11913192
58	0xbdf9a829	-0.12190277
59	0xbd577767	-0.052604105
60	0xbe5faf4d	-0.21844216
61	0xbe357e39	-0.17723931
62	0x3c484fd9	0.012226068
63	0xbe2258e8	-0.15854228
64	0xbe336bb8	-0.1752156
65	0xbc713130	-0.0147212
66	0xbda9f3d2	-0.08298458
67	0xbb3c2ff0	-0.0028715096
68	0xbe4c6aa9	-0.19962563
69	0x3d589f3b	0.05288623
70	0xbd846aaa	-0.06465657
71	0xbdc6880c	-0.09693918
72	0x3dba87d9	0.09107942
73	0xbdf37355	-0.11887232
74	0xbd9f3a35	-0.07774774
75	0xbf04e73e	-0.5191535
76	0xbe05a91b	-0.1305279
77	0x3cf47751	0.02984205
78	0x3d977c59	0.07396764
79	0xbe0c74cb	-0.13716428
80	0xbd75d8df	-0.060021278
81	0xbe2ff375	-0.17182715
82	0xbe864a68	-0.26228642
83	0xbdb2c400	-0.0872879
84	0x3df75b69	0.12077982
85	0x3ca259f2	0.01981828
86	0xbd203e08	-0.039121658
87	0xbdb2ffbd	-0.087401845
88	0xbe20fecc	-0.15722197
89	0xbd646b91	-0.055766646
90	0xbd551454	-0.05202134
91	0xbe3de847	-0.18545638
92	0x3e0a4ed6	0.13506636
93	0xbe18900d	-0.14898701
94	0xbdefd960	-0.11711383
95	0xbd8d2aa0	-0.06892896
96	0xbe146a0c	-0.14493579
97	0x3cf1190b	0.029430887
98	0xbd050522	-0.0324756
99	0xbe9b2994	-0.3030516
100	0xbe079abd	-0.13242622
101	0xbd43455d	-0.04767357
102	0xbe074551	-0.13210036
103	0xbd6a16e4	-0.057150736
104	0xbe7b42b4	-0.24537164
105	0xbde6dfbf	-0.11273145
106	0xbd8d56cb	-0.0690132
107	0xbc8d2687	-0.017230285
108	0xbdef3f65	-0.116820134
109	0xbe29e768	-0.1659218
110	0xbd8f9a2d	-0.070118286
111	0x3c6b5938	0.014364533
112	0xbab6720c	-0.0013919487
113	0xbda03ad0	-0.078237176
114	0xbdbb45ec	-0.09144196
115	0xbe3e56a2	-0.18587735
116	0xbda42696	-0.08015172
117	0xbd4e8062	-0.050415404
118	0xbe05e786	-0.130766
119	0xbdfe288f	-0.1241008
120	0xbe100ab8	-0.14066589
121	0xbe1f74fb	-0.15571968
122	0xbd77d1fa	-0.060502984
123	0xbe01e6f1	-0.12685753
124	0xbcbc58a4	-0.022991486
125	0xbe1fd912	-0.1561015
126	0xbdb59d46	-0.08867888
127	0xbd7d7354	-0.061877564

weight f4 [94, 128]
0	0xbb403b0c	-0.002933207
1	0x3d410451	0.047123257
2	0xbd7308d1	-0.05933458
3	0x3ca1649e	0.019701298
4	0x3d33c6bc	0.0438907
5	0x3c0a787c	0.008451577
6	0x3d9883bf	0.074470036
7	0xbb0c8948	-0.002144413
8	0x3d379633	0.044820976
9	0x3d74da29	0.059778366
10	0xbdf31277	-0.11868756
11	0x3bcfc84f	0.0063410173
12	0xb9e42530	-0.00043515256
13	0x3d34e4bb	0.044163447
14	0x3c94ee81	0.018180134
15	0xbd3c43d2	-0.045963116
16	0x3c1bbd70	0.009505615
17	0x3d6301a1	0.055421475
18	0xb82077c6	-3.825852e-05
19	0x3d38e84a	0.045143403
20	0xbd1d74b6	-0.038441382
21	0x3ce11c90	0.02747944
22	0xb8ca2696	-9.639298e-05
23	0xbd31ebfd	-0.043437947
24	0x3b8bc830	0.0042658076
25	0x3d7ca5b1	0.061681453
26	0x3db5015a	0.088381484
27	0x3ceccf22	0.028907362
28	0x3dad13b7	0.08451026
29	0xbd2765c4	-0.040868536
30	0x3c85150c	0.016245387
31	0xbd3584b5	-0.044316012
32	0xbd8f848c	-0.07007703
33	0xbcfb1fd2	-0.030654822
34	0xbce214ec	-0.027597867
35	0x3da516aa	0.080609635
36	0x3d10b83e	0.035331957
37	0xbcdfd0c9	-0.027321236
38	0x3cc2d2e0	0.023782194
39	0x3d78d82e	0.06075304
40	0xbb59d4d7	-0.0033238435
41	0xbc944f75	-0.018104294
42	0x3d8b092b	0.06788858
43	0x3b12bda0	0.0022390857
44	0xbd55322c	-0.0520498
45	0xbcc623d8	-0.024187014
46	0xbcf8bccd	-0.030363465
47	0x3d081dad	0.033231426
48	0xbd3c6f97	-0.046004858
49	0x3ba356de	0.0049847206
50	0xbd066bbd	-0.03281759
51	0xbc9b746c	-0.018976413
52	0xbd70d497	-0.05879649
53	0x3c51121f	0.012760668
54	0x3d258298	0.040407747
55	0xbd864dd5	-0.06557814
56	0xbd56f75e	-0.052482
57	0x3d89bd3d	0.067255475
58	0xbbd943d0	-0.0066303983
59	0xbd7d8677	-0.061895814
60	0x3da52b43	0.08064892
61	0x3cb3f6ab	0.021968206
62	0x3caa9fdc	0.02082818
63	0xbc313f79	-0.010818356
64	0x3c406df1	0.011744962
65	0x3c88f565	0.016718576
66	0xbdf05393	-0.117346905
67	0x3d4b1efe	0.049590103
68	0xbce5f1e5	-0.028069446
69	0xbd389e22	-0.045072682
70	0xbd28c37e	-0.04120206
71	0x3d0b1088	0.033951312
72	0xbbf10f04	-0.0073565263
73	0xbcef9c76	-0.029249411
74	0xbb325d7d	-0.0027216368
75	0x3da8ca9e	0.08241771
76	0xba9f5561	-0.0012156182
77	0x3c815f24	0.015792437
78	0x3d6581f0	0.05603212
79	0xbd5f6c6d	-0.054546762
80	0xbd81072d	-0.06300197
81	0xbda10366	-0.07861976
82	0xbc989472	-0.018625472
83	0xbbdb1900	-0.00668633
84	0x3d9d5200	0.07681656
85	0x3c1aadde	0.009440867
86	0x3d7408ea	0.059578814
87	0xbd8207d1	-0.06349147
88	0x3b41bbbb	0.002956136
89	0x3d85f971	0.06541718
90	0x3d122be1	0.035686377
91	0xbd0c2c7a	-0.034222104
92	0x3ddceae4	0.10786989
93	0x3d51e010	0.051239073
94	0x3c7cedcf	0.015437557
95	0xbcb18540	-0.021669984
96	0xbac3bb1d	-0.0014933083
97	0xbd8eea1c	-0.069782466
98	0x3cfa366d	0.03054353
99	0x3d2a419e	0.041566484
100	0x3d1f60d5	0.038910706
101	0xbd66581b	-0.056236368
102	0xbb35e858	-0.0027756896
103	0xbc48e4b5	-0.012261559
104	0xbdecf041	-0.11569262
105	0x3d280c60	0.041027427
106	0xbc78556b	-0.015157084
107	0x3d96e085	0.073670425
108	0x3d02f41d	0.031971086
109	0x3c317172	0.01083027
110	0xbc0393f9	-0.008030885
111	0xbd383aa5	-0.044977803
112	0xbc06f8fc	-0.008238073
113	0x3c191930	0.009344384
114	0xbd03a6a7	-0.032141354
115	0xbe343f4b	-0.1760227
116	0xbc8dab4e	-0.017293599
117	0x3bd5b475	0.0065217563
118	0xbbc7f03b	-0.0061016358
119	0xbcd191f7	-0.025582297
120	0x3d76e47d	0.060276497
121	0x3d34d302	0.044146545
122	0xbcaecde4	-0.02133841
123	0x3c075a67	0.0082613
124	0xbd355267	-0.044268038
125	0x3c231e58	0.009955965
126	0x3d2760bf	0.04086375
127	0x3d444032	0.047912784
128	0x3b6aa6b1	0.0035804922
129	0x3c23e850	0.010004118
130	0xbd09dfe4	-0.033660784
131	0x3c2a12d5	0.0103804665
132	0x3d008c81	0.031383995
133	0xbc14fc76	-0.0090933945
134	0xbc92badb	-0.017911365
135	0xbcab7018	-0.020927474
136	0x3de075fe	0.10960005
137	0x3c79c1a3	0.0152439205
138	0x3d8eda39	0.069752164
139	0x3c247aff	0.01003909
140	0x3bc7e20d	0.0060999454
141	0xbd192171	-0.037385408
142	0xbbac2fa2	-0.0052547017
143	0xbc626c46	-0.01381976
144	0xbbb358e1	-0.0054732417
145	0x39f4f23d	0.00046719788
146	0xbceaeef5	-0.028678397
147	0x3c93ef7c	0.018058531
148	0x39ac6e98	0.00032888795
149	0xbc85cad8	-0.016332075
150	0xbc429d81	-0.011878372
151	0x3be0dd38	0.006862309
152	0x3aff3796	0.0019471522
153	0x3c43c4e1	0.011948795
154	0xbd35b310	-0.04436022
155	0x3cc6cd56	0.024267834
156	0xbb3c59c1	-0.002874002
157	0xbdd57859	-0.10423345
158	0x3cc7523d	0.024331206
159	0xbba9fbcd	-0.0051874877
160	0x3d2febd8	0.042949528
161	0xbc9503cb	-0.018190285
162	0x3bca9bd2	0.006183126
163	0xba96a777	-0.0011494
164	0xbc2b1af7	-0.010443441
165	0x3b5be9c2	0.0033556079
166	0xbba03eb1	-0.004890286
167	0xbc62f56b	-0.0138524575
168	0xbd2467cf	-0.040138062
169	0xbc728384	-0.014801864
170	0xbcd22348	-0.025651589
171	0x3c288ed5	0.01028796
172	0xbc70b6e5	-0.014692043
173	0x3cf4f2aa	0.029900867
174	0xbb3b5ad7	-0.002858808
175	0x3c947812	0.01812366
176	0xbc64c686	-0.013963347
177	0x3b81e917	0.003964554
178	0x3c6665f8	0.014062397
179	0x3c1df19f	0.0096401265
180	0xbca7af56	-0.020469349
181	0xbc412b23	-0.01179007
182	0x3c1fa604	0.009744171
183	0x3ba7f3ea	0.0051255124
184	0x3d299c66	0.04140892
185	0xbd210a02	-0.039316185
186	0x3c6b2747	0.014352626
187	0x3bb2a007	0.0054512057
188	0x3c728982	0.014803292
189	0xbd235c2f	-0.039882835
190	0xbc0325e0	-0.008004636
191	0xbb9f74cb	-0.0048662177
192	0x3c8e1c4c	0.017347477
193	0xba5c297e	-0.0008398517
194	0xbcaf6206	-0.021409046
195	0xbbc7c198	-0.006096076
196	0x3cc8e7e0	0.02452463
197	0xbbad61b6	-0.005291189
198	0x3b379d52	0.0028017354
199	0xbd03d4b9	-0.03218529
200	0xbc2ca79d	-0.010538009
201	0x3c2e9899	0.010656499
202	0xbc94ef56	-0.01818053
203	0x3c9d52c2	0.019204501
204	0x38ce81bc	9.8470104e-05
205	0xbc3b12f4	-0.011418093
206	0xbc951566	-0.01819868
207	0xbc99383d	-0.018703574
208	0x3d01b367	0.031665232
209	0xbc0cd5a8	-0.0085958615
210	0x3cebcfa8	0.028785542
211	0xbc67d295	-0.014149328
212	0x3aad9041	0.0013241844
213	0xbb96991d	-0.0045958892
214	0xbb3c4d84	-0.0028732726
215	0x3c7ab42d	0.015301746
216	0x3ce27a83	0.027646309
217	0xbcf8aa23	-0.030354565
218	0xbc3db488	-0.011578687
219	0xbcf47aac	-0.02984365
220	0xbdbd5e3e	-0.09246491
221	0x3b4c8ea8	0.003121296
222	0x3b817795	0.003951023
223	0x3b1fef60	0.0024404153
224	0x3ca879af	0.020565836
225	0xbbec22a5	-0.0072062784
226	0xbc649ea4	-0.0139538385
227	0xba8b5bd9	-0.0010632231
228	0xbca5f274	-0.020257212
229	0x3c53ac20	0.012919456
230	0xbba44c90	-0.00501401
231	0xb956be7f	-0.00020479596
232	0x3db61e3e	0.08892487
233	0xbc7e5dd9	-0.015525305
234	0x3ccf1474	0.025278307
235	0x3c8d1aaa	0.017224628
236	0x3ba7d742	0.0051220963
237	0x3ae2aee9	0.0017294559
238	0x3c10cabb	0.008837397
239	0xbacafc9e	-0.0015486663
240	0x3c7a7fc7	0.015289254
241	0xbb4fd2b9	-0.0031711294
242	0x3cc9b85a	0.024624038
243	0x3c9db735	0.019252399
244	0x3cf14839	0.029453384
245	0x3b00d878	0.0019660275
246	0x3c88b357	0.016687078
247	0xbbe272d1	-0.00691066
248	0xbc9b9c0e	-0.018995311
249	0xba3d76ed	-0.0007227499
250	0xbb2962f9	-0.0025846346
251	0xbc964a56	-0.018345993
252	0xbc6ca0e5	-0.014442657
253	0xbbf96aa5	-0.00761159
254	0xbc7e5dd4	-0.0155253
255	0xbbf12511	-0.007359155

bias f4 [94]
0	0xbbc86075	-0.006115014
1	0xbceb33cd	-0.028711224
2	0x3d2e13b9	0.042499278
3	0xbca9a3b5	-0.020707944
4	0x3b4406c8	0.0029911269
5	0x3d4b2625	0.049596924
6	0xbd090eb6	-0.033461295
7	0x3c9d6597	0.01921348
8	0x3c565adf	0.013083189
9	0x3e01076b	0.12600486
10	0xbd81c141	-0.063356884
11	0xbe053503	-0.13008504
12	0x3d9b75bd	0.07590816
13	0x3d4138f5	0.04717346
14	0x3d4f0663	0.0505432
15	0x3d600ed2	0.054701634
16	0xbd32496c	-0.04352705
17	0x3ce09e0b	0.02741911
18	0x3d660cdf	0.05616462
19	0x3c5c82bd	0.013458905
20	0x3d8cd32a	0.06876214
21	0xbdbac025	-0.0911868
22	0x3de3096a	0.1108578
23	0xbcc2cf36	-0.023780446
24	0x3d53e567	0.051732447
25	0xbe060ebe	-0.13091561
26	0xbcffe02f	-0.031234829
27	0x39d5b7db	0.0004076351
28	0x3cbfe5e3	0.023425048
29	0xbd0d7b6f	-0.034541544
30	0xbc94c65f	-0.018160997
31	0x3dc17cbc	0.09447619
32	0xbd828298	-0.06372565
33	0x3bdcc641	0.006737501
34	0xbc1b64c2	-0.009484472
35	0xbba999a6	-0.005175787
36	0x3db5104d	0.08841
37	0x3c44e8b1	0.012018369
38	0x3da27c7e	0.07933901
39	0xbd9c73f4	-0.07639304
40	0x3d46d855	0.048546154
41	0xbd4569b6	-0.048196517
42	0x3cd900a1	0.026489558
43	0x3da48e22	0.08034922
44	0xbbca4cfc	-0.006173728
45	0x3c84d110	0.01621297
46	0xbd6f5988	-0.058434993
47	0x3bcf4b41	0.0063261096
48	0xbe02c78c	-0.12771434
49	0x3c679747	0.014135188
50	0xbd33f5df	-0.043935653
51	0x3d45d3d6	0.048297726
52	0x3d5fcd9e	0.05463945
53	0x3e0a0730	0.13479304
54	0x3d57d744	0.052695528
55	0x3d80bf7d	0.062865235
56	0x3d79364e	0.060842805
57	0xbd84ea28	-0.06489974
58	0x3de5b6c7	0.11216503
59	0x3dda3ade	0.10655759
60	0xbd9df0d5	-0.07711951
61	0x3d2eaad5	0.042643387
62	0xbc86b497	-0.016443534
63	0x3be7d349	0.0070747477
64	0xbd851b7e	-0.06499384
65	0xbd6e968a	-0.058249034
66	0xbd237a1c	-0.039911374
67	0xbc866cb4	-0.016409256
68	0xbddea0a9	-0.10870487
69	0x3da2fee9	0.079587765
70	0xbddda35b	-0.10822173
71	0xbbfe75a0	-0.007765487
72	0xbd449841	-0.047996763
73	0x3d9ca6c0	0.076489925
74	0xbd233849	-0.0398486
75	0xbdb0e580	-0.08637524
76	0x3c88f2ac	0.016717277
77	0x3d0790e9	0.03309718
78	0x3e2e5714	0.17025405
79	0x3dc4b3ff	0.09604644
80	0x3e17cc6a	0.14824072
81	0x3da905c0	0.0825305
82	0x3bd7f045	0.0065899217
83	0x3d36cb47	0.044627454
84	0x3b83f0f2	0.0040265257
85	0x3e2d849f	0.16945122
86	0xbd3094ac	-0.043110535
87	0x3cec8ce8	0.028875783
88	0x3cd7c420	0.026338637
89	0x3ca1351f	0.01967865
90	0xbb535917	-0.0032249147
91	0xbde58e12	-0.112087384
92	0x3ce799bf	0.028271554
93	0x3d61dc03	0.05514146
