models/Sep28_17-01-19_gs_policy.pt (torch, 961912 bytes, 8 tensors)

weight f4 [512, 139]
-0.2983287 0.16265264 -0.053798452 -0.36270306 0.26941976 0.1214266 -0.27341634 -0.16632542
0.21972527 0.07112313 0.48148865 -0.17190495 -0.17267877 -0.30360156 -0.037584145 -0.23230168
0.16338651 -0.16566825 -0.30697596 -0.0549383 -0.10788599 -0.20040579 -0.36644927 0.1825089
0.017179513 -0.158417 -0.10092238 -0.24401754 0.09571519 0.09924132 0.009626672 -0.3692341
-0.1909412 -0.013218464 0.011939858 -0.04766802 -0.009786245 0.05973216 0.016769793 -0.062117662
-0.059739426 -0.019586854 0.023001349 0.016141642 0.01727455 0.18565638 -0.0014888489 0.04536875
0.015228642 -0.027027352 0.069807045 0.051493607 -0.08050224 -0.17299394 -0.07575378 0.0075187925
0.044383872 -0.1555838 0.048691735 0.089318916 0.06563276 -0.007955525 -0.058177013 0.04887042
-0.09491295 -0.044577975 0.03602174 0.03652509 -0.108608 -0.027574671 -0.046801273 -0.10073197
-0.0062624565 -0.007355604 0.034990482 0.0064505283 0.033734046 0.010582683 0.051952932 0.021199701
-0.07587215 -0.0016046382 -0.01955427 -0.008301656 0.009025206 0.04691624 -0.0419227 -0.00051909755
-0.042811617 -0.02340117 0.0014800312 -0.06585228 0.016256146 -0.012458393 0.007024198 -0.049225643
0.014531478 -0.01318653 -0.061923742 -0.09912905 -0.055114377 -0.06363216 -0.038507503 -0.08590159
0.06795154 -0.06748057 0.069532685 -0.0021311194 0.15766972 0.044150066 -0.0050032283 0.027957037
0.0659783 -0.041722145 0.058145333 -0.034531955 -0.09537972 0.06274783 -0.008267524 -0.056777526
-0.044122223 -0.036905125 0.06600821 0.064784974 -0.15745607 0.10227033 -0.04910015 -0.059195567
-0.16696876 -0.018746514 0.006747927 -0.027156966 0.13051808 0.10216238 0.008166955 -0.016217664
0.16189773 0.012035266 -0.11163815 -0.2508095 -0.038384464 0.057673234 0.3424548 -0.19824341
0.029656062 -0.14995603 0.5808169 -0.43648815 -0.1379354 -0.295638 -0.055631068 0.081633866
-0.04091013 0.33671534 0.42773545 0.35666394 0.22808558 -0.16176729 0.13464524 0.0049128216
-0.15912734 -0.10958585 -0.25245482 -0.3237626 0.36994472 -0.039518528 -0.6842814 0.6836633
0.06738425 0.07235385 0.21318044 -0.1555225 -0.03212547 -0.019019581 0.022398336 0.058912307
-0.017524404 0.08472313 0.03626121 0.010237209 0.005783166 0.0003850197 0.02255951 -0.052593656
-0.086337715 0.09667976 0.05516817 0.003734819 0.035134733 0.05254961 0.0060401624 0.0839703
0.0055257482 -0.039397113 0.036129836 0.011290259 0.12637846 -0.04299027 0.03377574 0.007298011
-0.040539593 0.009868966 0.08570905 -0.010207949 -0.031074042 -0.0063062194 0.07630694 -0.17376211
-0.0007385279 -0.087864414 0.015584627 -0.060691107 -0.031870943 -0.019404694 0.087767914 -0.033717293
-0.014142548 -0.09009693 -0.011682094 -0.09329544 -0.104660556 0.016853508 0.046521343 0.019802839
-0.15607968 -0.094930746 -0.045387384 0.013157349 0.07448243 -0.035864737 -0.07701637 0.06715748
-0.23358747 -0.07599185 -0.021565618 0.058498435 0.029252091 -0.099222995 -0.02117456 -0.0944648
-0.066627875 0.07042072 -0.015105501 0.16136119 0.036544494 0.027126307 0.077461876 -0.00830975
-0.022803789 -0.06698624 0.15855408 0.06837534 0.0026413663 0.04376463 0.019885667 -0.06480288
00000000: 8abe 98be 6a8e 263e c45b 5cbd 37b4 b9be
00000010: 63f1 893e 82ae f83d 3afd 8bbe 3651 2abe
00000020: a9ff 603e 01a9 913d ae85 f63e da07 30be
00000030: b4d2 30be aa71 9bbe d5f1 19bd 7ee0 6dbe
00000040: cb4e 273e f0a4 29be f42b 9dbe fc06 61bd
00000050: 54f3 dcbd 2d37 4dbe 3d9f bbbe 9de3 3a3e
00000060: 0dbc 8c3c 1138 22be 65b0 cebd bcdf 79be
00000070: 5306 c43d 083f cb3d 30b9 1d3c 410c bdbe
00000080: 1786 43be 4292 58bc 659f 433c 8b3f 43bd
00000090: 7d56 20bc b6a9 743d ce60 893c 176f 7ebd
000000a0: 54b1 74bd 9c74 a0bc 536d bc3c 7a3b 843c
000000b0: 5b83 8d3c b51c 3e3e 7b25 c3ba 95d4 393d
000000c0: 8e81 793c 7768 ddbc fff6 8e3d f6ea 523d
000000d0: 5cde a4bd 5325 31be cc24 9bbd 3460 f63b
000000e0: ddcb 353d 5c51 1fbe fc70 473d d6ec b63d
000000f0: 786a 863d e457 02bc 054b 6ebd 592c 483d
00000100: b961 c2bd 6597 36bd 888b 133d 559b 153d
00000110: df6d debd 47e4 e1bc b1b2 3fbd 904c cebd
00000120: 4b35 cdbb 4707 f1bb 2e52 0f3d f45e d33b
00000130: b62c 0a3d fd62 2d3c 99cc 543d ffaa ad3c
00000140: dc62 9bbd b952 d2ba 4730 a0bc ab03 08bc
00000150: 75de 133c 3e2b 403d 23b7 2bbd 0c14 08ba
00000160: 3c5b 2fbd cfb3 bfbc 9bfd c13a 8fdd 86bd
00000170: 9c2b 853c 4a1e 4cbc 3e2b e63b d4a0 49bd
00000180: 7015 6e3c 510c 58bc c0a3 7dbd 2c04 cbbd
00000190: 9dbf 61bd 9451 82bd 0bba 1dbd 2ced afbd
000001a0: 2d2a 8b3d 4133 8abd 2767 8e3d 40aa 0bbb
000001b0: 2c74 213e b3d6 343d 1ff2 a3bb 2806 e53c
000001c0: a21f 873d d7e4 2abd cd29 6e3d 6171 0dbd
000001d0: 7156 c3bd ef81 803d 8274 07bc 8d8f 68bd
000001e0: 81b9 34bd d429 17bd 502f 873d fcad 843d
000001f0: 2a3c 21be 1b73 d13d 3d1d 49bd 0d77 72bd
00000200: dcf9 2abe 4a92 99bc b71d dd3b 4978 debc
00000210: 88a6 053e 833a d13d b1ce 053c e8da 84bc
00000220: 85c8 253e 902f 453c 8ba2 e4bd 1a6a 80be
00000230: 0739 1dbd c53a 6c3d 3c56 af3e 5200 4bbe
00000240: 45f1 f23c 138e 19be 6bb0 143f 607b dfbe
00000250: f03e 0dbe dd5d 97be 67dd 63bd a82f a73d
00000260: 6191 27bd f465 ac3e 2400 db3e a89c b63e
00000270: 448f 693e 53a6 25be 71e0 093e bcfb a03b
00000280: 47f2 22be 8c6e e0bd c241 81be 36c4 a5be
00000290: 6569 bd3e 2ede 21bd 112d 2fbf 8f04 2f3f
000002a0: c100 8a3d 412e 943d f94b 5a3e 4a41 1fbe
000002b0: ff95 03bd f4ce 9bbc b77c b73c 084e 713d
000002c0: 578f 8fbc 5283 ad3d a286 143d f7b9 273c
000002d0: b680 bd3b 78dc c939 b9ce b83c 726c 57bd
000002e0: d4d1 b0bd 0a00 c63d 05f8 613d ddc3 743b
000002f0: 70e9 0f3d 433e 573d 8eec c53b 9ff8 ab3d
00000300: 5611 b53b de5e 21bd e1fc 133d c7fa 383c
00000310: 5b69 013e 9116 30bd 6e58 0a3d 2724 ef3b
00000320: d80c 26bd 72b1 213c 3a88 af3d 3e3f 27bc
00000330: fd8e febc 67a4 cebb d046 9c3d b2ee 31be
00000340: c599 41ba 42f2 b3bd aa56 7f3c 3d97 78bd
00000350: 1b8b 02bd 98f6 9ebc aabf b33d 251b 0abd
00000360: 25b6 67bc bd84 b8bd 4166 3fbc ae11 bfbd
00000370: 4658 d6bd 5e10 8a3c 2a8d 3e3d 9039 a23c
00000380: 5ad3 1fbe 0d6b c2bd 1fe8 39bd ec91 573c
00000390: 3f8a 983d e7e6 12bd c2ba 9dbd dc89 893d
000003a0: 8e31 6fbe 9da1 9bbd 61aa b0bc 0e9c 6f3d
000003b0: 15a2 ef3c 6d35 cbbd 4576 adbc c376 c1bd
000003c0: 3274 88bd bd38 903d 107d 77bc de3b 253e
000003d0: aeaf 153d fd37 de3c 55a4 9e3d 9e25 08bc
000003e0: 03cf babc 1530 89bd 005c 223e 5f08 8c3d
000003f0: c61a 2d3b 8a42 333d 44e7 a23c 5fb7 84bd

bias f4 [512]
-0.10291677 0.0509036 -0.20271459 0.07112213 -0.1777392 -0.011157684 -0.109295495 -0.14261834
-0.09009518 -0.0843636 0.05666694 -0.10459656 0.0043352633 -0.16980305 -0.09175461 -0.004747277
0.04846131 0.0879613 0.05432202 0.06257476 0.15413532 0.09202923 0.11962753 0.03063382
-0.015228559 -0.12942418 0.008481832 0.028782 0.022310486 0.1242279 -0.029820232 -0.086368434
-0.18079205 -0.10938682 0.14940123 -0.013215058 -0.10226106 0.075607345 -0.044079427 -0.07182792
-0.035109535 0.035498723 -0.15992609 -0.07279311 -0.015647024 -0.092494205 -0.12618288 -0.07349511
-0.0024188175 0.02072214 -0.12829426 0.06192662 -0.12995036 -0.15810454 -0.07341622 -0.07946882
-0.007039526 -0.0058723814 -0.20022112 -0.21304451 -0.07244048 -0.07794119 -0.07300785 -0.024758033
-0.09553715 -0.018076574 0.11110555 0.059452858 -0.17453763 -0.016228063 0.07378247 0.022643689
-0.14063017 -0.12930757 -0.09657784 0.07071727 0.045599196 0.1174837 -0.11189899 0.008781511
-0.0034359863 0.11517432 -0.069832005 -0.1372015 -0.10347784 -0.102347046 -0.11237747 0.014256055
-0.02760716 -0.19600852 0.13708276 0.031883698 -0.08247065 -0.2063337 -0.1358476 -0.10541562
-0.03780877 0.03542061 -0.1164639 -0.19847009 -0.14211136 -0.13234961 -0.12639149 0.01644764
-0.19272663 -0.10214555 -0.045364343 -0.18108323 -0.038136855 0.06874218 -0.23713918 -0.07013681
0.0030552337 0.13540216 0.012589547 0.012790945 0.094935074 -0.09949229 0.07256946 0.111961246
-0.15791222 -0.022863746 -0.051399596 -0.10331275 0.021506315 -0.10148595 -0.045090187 -0.18342963
-0.05970917 -0.06268466 0.08956141 -0.076135814 -0.10388952 -0.095471606 -0.010619522 0.04960002
0.023966875 -0.15586573 -0.11929227 -0.15726264 -0.022311276 0.026939422 0.030229004 0.099298865
-0.02846362 0.030305903 0.027626745 0.010976868 -0.11149275 -0.009688265 -0.07341118 -0.04699814
0.071594626 -0.05627361 -0.029746415 -0.053991664 -0.10119634 -0.05765179 -0.20349765 -0.098405436
0.057491522 -0.16553637 0.009800192 -0.15157266 -0.21175762 0.055088785 0.049842753 0.032431886
-0.060123503 -0.022592504 -0.10579082 -0.05625957 -0.18891717 -0.1652351 -0.18052904 0.041011706
-0.077429876 -0.12105898 0.073616475 -0.14074701 -0.13050431 0.007143707 0.007428155 0.0030158833
0.10509181 -0.058118984 0.05506817 -0.09810191 -0.12361853 0.106764175 0.019402074 -0.19351639
0.007511104 0.190147 -0.055101216 0.04432854 -0.048973683 -0.035532087 -0.1279399 0.04010788
-0.12057151 0.012603673 0.048720285 0.056655638 -0.13710229 -0.020277739 -0.062453754 -0.015044384
-0.14582905 -0.02390773 -0.022863515 -0.06950489 0.09013537 -0.0846663 -0.042674195 0.07136018
-0.06814129 -0.034498636 0.017215598 -0.09144772 -0.15798071 -0.09248626 -0.05597738 0.051448725
-0.047581237 0.05087014 -0.08750321 0.049093712 0.016862474 -0.12099984 0.08941868 -0.063824035
-0.029059235 0.0339063 0.10205546 -0.07595138 0.06868096 0.036880206 -0.13624744 -0.041236065
-0.03136616 0.05414564 -0.019143244 -0.11195189 -0.010404379 -0.15692294 -0.03348369 -0.043066386
-0.04704248 -0.047810193 -0.013640562 -0.21178408 -0.02139362 0.12046783 -0.07148763 -0.06919311
00000000: 07c6 d2bd 4b80 503d 6a94 4fbe 7ba8 913d
00000010: 4401 36be b8ce 36bc 51d6 dfbd 8b0a 12be
00000020: d283 b8bd d3c6 acbd 981b 683d b936 d6bd
00000030: d30e 8e3b dae0 2dbe d7e9 bbbd 0c8f 9bbb
00000040: 5e7f 463d 0e25 b43d c480 5e3d 3227 803d
00000050: a6d5 1d3e d279 bc3d 47ff f43d c7f3 fa3c
00000060: 3581 79bc c687 04be 62f7 0a3c 3bc8 eb3c
00000070: 7bc4 b63c 326b fe3d 8f49 f4bc efe1 b0bd
00000080: 8d21 39be 3206 e0bd a3fc 183e f883 58bc
00000090: 3f6e d1bd 06d8 9a3d a18c 34bd 841a 93bd
000000a0: 04cf 0fbd 1c67 113d aac3 23be 8e14 95bd
000000b0: 302e 80bc 9a6d bdbd 1636 01be 9b84 96bd
000000c0: 0685 1ebb 7ac1 a93c 925f 03be c4a6 7d3d
000000d0: b511 05be 28e6 21be 3e5b 96bd 8cc0 a2bd
000000e0: d3ab e6bb 1b6d c0bb c406 4dbe 5728 5abe
000000f0: ad5b 94bd a19f 9fbd 2485 95bd 5cd1 cabc
00000100: fba8 c3bd 5315 94bc 4e8b e33d d784 733d
00000110: feb9 32be b7f0 84bc 431b 973d 427f b93c
00000120: 5b01 10be 3469 04be 9aca c5bd 37d4 903d
00000130: 39c6 3a3d 4b9b f03d 4c2b e5bd 54e0 0f3c
00000140: 492e 61bb 84e0 eb3d 1504 8fbd 8d7e 0cbe
00000150: 31ec d3bd 549b d1bd 2926 e6bd 3a92 693c
00000160: 6928 e2bc 75b6 48be 6c5f 0c3e 7b98 023d
00000170: 5fe6 a8bd 2449 53be a21b 0bbe 25e4 d7bd
00000180: 5edd 1abd 3415 113d a084 eebd be3b 4bbe
00000190: a485 11be a886 07be c56c 01be 33bd 863c
000001a0: 215a 45be b031 d1bd f6cf 39bd e26d 39be
000001b0: 6435 1cbd b3c8 8c3d 9dd4 72be e3a3 8fbd
000001c0: 513a 483b dda6 0a3e 6344 4e3c 1d91 513c
000001d0: 526d c23d 9dc2 cbbd 4c9f 943d f04b e53d
000001e0: beb3 21be c04c bbbc 6288 52bd a395 d3bd
000001f0: 032e b03c ded7 cfbd 7db0 38bd fad4 3bbe
00000200: 9a91 74bd d160 80bd f96b b73d 18ed 9bbd
00000210: 07c4 d4bd 9e86 c3bd 81fd 2dbc 6429 4b3d
00000220: 2e56 c43c 449b 1fbe 814f f4bd 7509 21be
00000230: 23c6 b6bc 10b0 dc3c d1a2 f73c 345d cb3d
00000240: 8a2c e9bc 1644 f83c 7c51 e23c 52d8 333c
00000250: 5056 e4bd 87bb 1ebc 9a58 96bd 1f81 40bd
00000260: 34a0 923d 287f 66bd c1ae f3bc 5d26 5dbd
00000270: 0740 cfbd 4924 6cbd b061 50be ca88 c9bd
00000280: 3b7c 6b3d 5e82 29be fc90 203c dd35 1bbe
00000290: fdd6 58be c7a4 613d ea27 4c3d 4cd7 043d
000002a0: 1044 76bd ea13 b9bc dca8 d8bd 6f70 66bd
000002b0: 8173 41be 6433 29be 9bdc 38be e4fb 273d
000002c0: 8e93 9ebd c5ed f7bd 3cc4 963d fc1f 10be
000002d0: eca2 05be c215 ea3b e167 f33b 20a6 453b
000002e0: 603a d73d 2c0e 6ebd 298f 613d a7e9 c8bd
000002f0: b62b fdbd 2da7 da3d 19f1 9e3c 2929 46be
00000300: b51f f63b e5b5 423e d0b1 61bd d891 353d
00000310: a198 48bd 188a 11bd ad02 03be 2948 243d
00000320: 32ee f6bd a37f 4e3c ec8e 473d be0f 683d
00000330: 8b64 0cbe 801d a6bc 82cf 7fbd b87c 76bc
00000340: 3654 15be 25da c3bc 444c bbbc 9458 8ebd
00000350: e598 b83d 8665 adbd 23cb 2ebd 4925 923d
00000360: a98d 8bbd 714e 0dbd ba07 8d3c f148 bbbd
00000370: b2c5 21be 7069 bdbd 8a48 65bd e6bb 523d
00000380: 8be4 42bd 355d 503d e234 b3bd 7d16 493d
00000390: 2c23 8a3c c4ce f7bd 2421 b73d 2db6 82bd
000003a0: a20d eebc 55e1 0a3d 7402 d13d 668c 9bbd
000003b0: 9aa8 8c3d b30f 173d 7384 0bbe 26e7 28bd
000003c0: cd79 00bd d2c7 5d3d 4bd2 9cbc 0847 e5bd
000003d0: 2177 2abc 68b0 20be 3226 09bd 6166 30bd
000003e0: 9eaf 40bd 9fd4 43bd aa7c 5fbc eddd 58be
000003f0: ac41 afbc d6b7 f63d 1b68 92bd 1eb5 8dbd

weight f4 [256, 512]
0.10957794 -0.0671751 0.212183 -0.06631425 -0.015745183 0.09999187 -0.006093358 -0.00079561863
-0.14342874 -0.09944479 -0.091064356 0.02133088 -0.18367372 0.10895119 -0.03636457 -0.024164356
-0.008466918 0.026304768 0.071131974 -0.029524608 -0.029104633 -0.023848021 0.021355113 -0.01315205
-0.020011492 -0.052170057 -0.05695286 -0.16935012 0.06521416 -0.020442583 0.03641049 -0.04445184
0.05837888 -0.015529399 -0.060345672 0.070161365 0.055213656 -0.1539638 -0.05502595 0.15042028
-0.013325188 0.080230445 -0.014367716 0.02427843 0.053337034 -0.08851353 0.06951158 0.049808893
0.046435017 -0.052998852 0.057083163 -0.04240952 -0.23743866 0.058933813 -0.03170131 0.042175356
0.03217205 -0.01565528 0.17080648 -0.08817212 -0.12838395 0.06162781 -0.078305334 -0.017143441
-0.15159895 0.0043917303 -0.0040232213 -0.01133048 -0.111825585 0.05400358 0.04548182 -0.039828267
0.071169175 0.14832883 -0.022623539 -0.035582233 -0.03903134 -0.010324535 0.03295512 -0.0023575542
0.077062026 -0.04146327 -0.23001063 0.084486745 0.09058578 0.11348297 -0.12121346 -0.1196142
-0.013206123 -0.027447004 -0.021167653 0.06212227 0.023946732 -0.06905517 -0.04677624 -0.07000584
-0.0031551917 -0.046548214 -0.030244516 0.07016995 -0.17960554 -0.0038409657 -0.05411168 -0.097257435
-0.036846396 -0.05407332 0.028968357 -0.017030478 0.113191955 -0.006680713 -0.043719232 0.0018414464
-0.031774588 -0.023905998 -0.09444007 -0.047875162 0.063190706 -0.06526665 0.05304425 -0.05130657
0.035165757 -0.056370422 0.03528111 -0.019792963 0.014121372 0.043388635 0.025332546 -0.001479158
0.14589162 0.0791699 0.022414533 0.10517858 -0.06323895 -0.011858649 0.15801768 0.058403607
0.04161795 0.029274134 -0.14332427 -0.060601 -0.07785652 -0.03175244 0.06451159 -0.0076927044
0.0225969 0.050709393 0.042496834 -0.010695251 0.086561024 -0.1271597 0.06622254 0.09043653
-0.06101826 0.060621258 0.010384469 -0.017406898 0.030193679 0.022726545 0.08317418 0.06546753
-0.049184926 -0.021066952 0.03398046 0.16234279 -0.0007183896 0.082751445 0.0726609 0.13624549
-0.008900378 0.028981237 0.036665443 -0.0154003985 -0.05771166 0.059088305 0.10743549 -0.037876677
0.09329346 0.0053829583 0.020571863 -0.057225857 0.08055981 0.05920092 -0.092070535 -0.018998537
0.038119495 -0.0014769089 -0.1800246 0.00038553923 0.059036374 -0.06565475 -0.052470364 0.06351934
0.13749664 -0.05199127 0.0077671413 -0.15813248 -0.008255004 0.020100998 0.016903324 0.056318
-0.053072177 0.07292251 0.098290995 -0.0022038408 0.0013271712 -0.033407863 -0.010709169 0.0046927594
0.028233279 -0.061665624 -0.1432515 0.0029495368 0.03599475 0.0019313502 -0.07068746 0.010835942
-0.052635044 -0.013379032 -0.014332783 -0.11019047 0.1080753 -0.110292576 -0.2116754 0.045066003
-0.17941521 -0.027878169 -0.03361534 -0.078345016 0.05574728 0.039228555 -0.04770265 -0.0055665285
0.032351673 -0.06541643 -0.15190537 -0.032388687 -0.09621774 0.06910991 -0.013032067 0.1643003
-0.04998958 0.037989892 -0.050260007 0.048765928 -0.18047324 -0.066042624 0.007597158 -0.15565912
0.08966526 0.0007274752 0.24919179 0.10036015 0.21322392 -0.08172455 0.11218206 0.027117712
00000000: 666a e03d 1993 89bd 8046 593e c4cf 87bd
00000010: 0bfc 80bc 8ac8 cc3d cbaa c7bb 1091 50ba
00000020: fcde 12be b6a9 cbbd f37f babd 19be ae3c
00000030: f714 3cbe cd21 df3d 04f3 14bd 54f4 c5bc
00000040: d4b8 0abc 197d d73c a4ad 913d 97dd f1bc
00000050: d76c eebc ed5c c3bc ebf0 ae3c b27b 57bc
00000060: 24ef a3bc 45b0 55bd 6747 69bd 1e6a 2dbe
00000070: 008f 853d 3477 a7bc 2a23 153d 2213 36bd
00000080: b11e 6f3d 056f 7ebc 062d 77bd c3b0 8f3d
00000090: b727 623d b0a8 1dbe e462 61bd c607 1a3e
000000a0: e451 5abc dc4f a43d 9266 6bbc 8fe3 c63c
000000b0: ef77 5a3d 9546 b5bd 165c 8e3d 6904 4c3d
000000c0: a532 3e3d 5315 59bd 09d0 693d 9bb5 2dbd
000000d0: 1f23 73be 9564 713d 3cd9 01bd 11c0 2c3d
000000e0: d7c6 033d 803f 80bc e5e7 2e3e 9693 b4bd
000000f0: 1577 03be 716d 7c3d 8c5e a0bd 6770 8cbc
00000100: c13c 1bbe 81e8 8f3b 3ad5 83bb 7aa3 39bc
00000110: d004 e5bd dc32 5d3d 254b 3a3d f722 23bd
00000120: 25c1 913d 83e3 173e 0055 b9bc adbe 11bd
00000130: 54df 1fbd 3d28 29bc f3fb 063d 3281 1abb
00000140: b2d2 9d3d 64d5 29bd e887 6bbe 6307 ad3d
00000150: 0a85 b93d c269 e83d c33e f8bd 4af8 f4bd
00000160: 7f5e 58bc 8ad8 e0bc c967 adbc ec73 7e3d
00000170: f02b c43c cc6c 8dbd 7198 3fbd 395f 8fbd
00000180: 55c7 4ebb 57a9 3ebd 59c3 f7bc 43b5 8f3d
00000190: 84ea 37be b6b8 7bbb 35a4 5dbd e82e c7bd
000001a0: 3fec 16bd fc7b 5dbd 0c4f ed3c 8083 8bbc
000001b0: 2fd1 e73d e2e9 dabb f012 33bd b05c f13a
000001c0: 1226 02bd 83d6 c3bc cc69 c1bd bf18 44bd
000001d0: 216a 813d 85aa 85bd ed44 593d d726 52bd
000001e0: f809 103d ace4 66bd ed82 103d da24 a2bc
000001f0: 545d 673c 48b8 313d 3386 cf3c 4ee0 c1ba
00000200: 9d64 153e d423 a23d af9e b73c de67 d73d
00000210: 6c83 81bd c74a 42bc 63cf 213e 9f38 6f3d
00000220: 9577 2a3d 4fd0 ef3c 99c3 12be c138 78bd
00000230: 3d73 9fbd d90e 02bd a71e 843d 1513 fcbb
00000240: 221d b93c a7b4 4f3d 2911 2e3d 223b 2fbc
00000250: e846 b13d 2736 02be af9f 873d ca36 b93d
00000260: 48ee 79bd ff4d 783d 9f23 2a3c e998 8ebc
00000270: bc58 f73c 052d ba3c 3957 aa3d d713 863d
00000280: 2276 49bd 9a94 acbc 182f 0b3d 303d 263e
00000290: 4f52 3cba 9779 a93d 3dcf 943d f083 0b3e
000002a0: e4d2 11bc 0f6a ed3c 812e 163d f451 7cbc
000002b0: 1063 6cbd 9406 723d 2307 dc3d 9324 1bbd
000002c0: a410 bf3d 8763 b03b 5386 a83c a965 6abd
000002d0: 8bfc a43d aa7c 723d 7a8f bcbd d2a2 9bbc
000002e0: 3023 1c3d d794 c1ba 5e58 38be 3322 ca39
000002f0: 20d0 713d ff75 86bd 2aeb 56bd 6d16 823d
00000300: ebcb 0c3e ccf4 54bd 8183 fe3b 7bed 21be
00000310: ff3f 07bc d9aa a43c d778 8a3c b4ad 663d
00000320: 3662 59bd 6658 953d ca4c c93d 506e 10bb
00000330: 7af4 ad3a afd6 08bd 8375 2fbc b8c5 993b
00000340: 7a49 e73c 1895 7cbd 85b0 12be 044d 413b
00000350: 3b6f 133d 5c25 fd3a 96c4 90bd 3c89 313c
00000360: d897 57bd ba33 5bbc 0dd4 6abc 8bab e1bd
00000370: 9556 dd3d 13e1 e1bd 70c1 58be 2197 383d
00000380: 9fb8 37be c260 e4bc 3db0 09bd 5a73 a0bd
00000390: 4357 643d 1fae 203d db63 43bd 6d67 b6bb
000003a0: 3083 043d 0df9 85bd 158d 1bbe 00aa 04bd
000003b0: ce0d c5bd 7f89 8d3d 7384 55bc 563e 283e
000003c0: e0c1 4cbd 4a9b 1b3d 70dd 4dbd c8be 473d
000003d0: facd 38be 5b41 87bd 95f1 f83b 1b65 1fbe
000003e0: 6ba2 b73d 09b4 3e3a 222c 7f3e 9f89 cd3d
000003f0: 5f57 5a3e 335f a7bd b5bf e53d f725 de3c

bias f4 [256]
-0.07144112 -0.062345833 0.1054371 -0.090057224 -0.17942227 -0.009018709 -0.19455907 -0.024472762
-0.041534234 -0.13368194 -0.0482835 -0.0853195 -0.07290988 -0.029561518 -0.10375145 -0.09169375
0.009403879 -0.050256684 -0.031217895 -0.037044767 -0.111654855 -0.09869004 -0.11770459 -0.1959662
0.00875622 -0.056515064 -0.06288578 -0.0067858733 -0.10431699 0.041589685 -0.08829137 -0.18324275
-0.16273712 -0.07463285 -0.0701904 -0.1285307 -0.11497785 -0.086510904 -0.09866641 -0.083674304
-0.07440416 -0.050076935 -0.11012947 -0.12846519 -0.12139207 -0.10633107 -0.10237058 -0.014083859
-0.04982705 -0.13338757 -0.06899534 -0.017584197 -0.05196155 -0.053997803 -0.044027556 -0.09730979
-0.102551475 -0.14750844 -0.06176328 -0.051664785 -0.028887078 -0.099792115 -0.09145934 -0.19083177
-0.035073876 -0.15266563 -0.04493703 0.027536541 -0.054683257 -0.17878957 -0.05087688 -0.107666716
0.008384812 -0.06691418 -0.109627746 -0.07465509 -0.17779796 -0.158718 -0.10398951 -0.053166598
-0.086542405 -0.024700774 0.01959902 -0.1317556 -0.012109663 -0.0134441005 0.0004151956 -0.050366253
-0.047446862 -0.09414919 -0.11572479 -0.19068351 -0.20569544 -0.12788472 -0.14266293 -0.15937173
-0.090893775 0.003535745 -0.11382204 -0.11727601 -0.10941847 -0.15411545 -0.0940546 -0.051217567
-0.057079002 -0.06463228 -0.0754594 -0.041434105 -0.050784245 -0.0799616 -0.05445956 -0.07021184
-0.06331898 -0.21673726 -0.08264605 -0.13360761 -0.089040734 -0.07565298 -0.04205136 -0.071712695
-0.11610081 -0.060374666 0.08245921 -0.056172084 -0.12926768 -0.12083965 -0.034491155 0.059010964
-0.12904774 -0.055705894 -0.104312174 -0.016823655 -0.14518948 -0.058403276 -0.03557424 0.031497505
-0.036246028 -0.12801208 -0.09192462 -0.14410195 -0.0069735106 -0.089115575 -0.37141567 -0.03686348
-0.17365916 -0.067527264 -0.05600189 -0.11468811 -0.101321496 -0.15533541 -0.06753367 -0.1030477
-0.0030859243 -0.012558723 -0.03483323 -0.16216932 -0.04879776 -0.1489695 -0.188415 -0.007283161
-0.15838435 -0.12180885 -0.04636251 -0.0836778 -0.028064633 -0.075751476 0.01872905 -0.08583439
-0.044652663 -0.03583588 -0.09412616 -0.13960743 0.0068174116 -0.113271035 -0.10873566 -0.07990871
-0.028259896 -0.12591125 -0.12039021 -0.11973528 -0.13877417 -0.12931448 -0.03199015 -0.12993887
-0.051568206 0.04263568 -0.10238794 -0.11817681 -0.042633202 -0.10444786 -0.08994285 -0.034468807
-0.14135842 -0.08757942 -0.1024945 -0.099195614 -0.028617263 -0.032625668 -0.08804822 -0.053109508
-0.020700477 -0.113205716 -0.057402637 -0.24525887 -0.15229113 0.0131392 -0.075324014 -0.12742813
-0.048387192 -0.15397076 -0.07318258 -0.08123269 -0.048063308 -0.12950388 -0.14103295 -0.040833034
-0.028892001 0.02462687 0.05011277 -0.011264231 0.02136141 -0.018746175 0.002724945 -0.028586458
-0.22276114 -0.11977059 -0.09481178 -0.20386602 -0.16016231 -0.16047221 -0.13345006 -0.13242273
-0.11920576 -0.101992935 -0.08629657 -0.022755716 -0.114219695 -0.19940181 -0.061934013 -0.12616384
-0.14210288 -0.06643597 -0.05725587 -0.20798196 -0.07268398 0.011689435 -0.12405441 -0.07158541
-0.010325823 -0.094963275 -0.016527647 -0.13398077 0.01929397 -0.120483585 -0.117711455 -0.06295293
00000000: b94f 92bd 585e 7fbd 68ef d73d ec6f b8bd
00000010: 79ba 37be 35c3 13bc 7e3a 47be 1a7b c8bc
00000020: cd1f 2abd ebe3 08be ebc4 45bd fdbb aebd
00000030: c651 95bd ff2a f2bc a47b d4bd efc9 bbbd
00000040: ba12 1a3c f4d9 4dbd acbc ffbc 41bc 17bd
00000050: 4dab e4bd 011e cabd 1b0f f1bd 5dab 48be
00000060: 4076 0f3c 577c 67bd 43ca 80bd 085c debb
00000070: 25a4 d5bd f259 2a3d 1bd2 b4bd fda3 3bbe
00000080: 8fa4 26be 1cd9 98bd fcbf 8fbd 8d9d 03be
00000090: 8279 ebbd a12c b1bd 9d11 cabd 6f5d abbd
000000a0: 3561 98bd 791d 4dbd 8f8b e1bd 618c 03be
000000b0: 689c f8bd 1bc4 d9bd aba7 d1bd fcbf 66bc
000000c0: 7317 4cbd c096 08be 6e4d 8dbd bc0c 90bc
000000d0: a2d5 54bd cd2c 5dbd 3d56 34bd 5b4a c7bd
000000e0: 8206 d2bd 740c 17be 7efb 7cbd 749e 53bd
000000f0: 98a4 ecbc cf5f ccbd 094f bbbd 6769 43be
00000100: a0a9 0fbd 6154 1cbe e40f 38bd 5094 e13c
00000110: 8dfb 5fbd 9d14 37be 4664 50bd 5e80 dcbd
00000120: 7360 093c 4d0a 89bd 8384 e0bd c5e4 98bd
00000130: ab10 36be f986 22be 74f8 d4bd 38c5 59bd
00000140: 253d b1bd 4759 cabc 208e a03c f1ea 06be
00000150: 9c67 46bc a544 5cbc 9cae d939 d84c 4ebd
00000160: a457 42bd 4ad1 c0bd 1e01 edbd 8a42 43be
00000170: d3a1 52be 36f4 02be 3b16 12be 5832 23be
00000180: 8426 babd f5b7 673b 881b e9bd 682e f0bd
00000190: ca16 e0bd 71d0 1dbe b39f c0bd 83c9 51bd
000001a0: accb 69bd ee5d 84bd 758a 9abd cfb6 29bd
000001b0: 2403 50bd e8c2 a3bd fd10 5fbd 3acb 8fbd
000001c0: 62ad 81bd 5ff0 5dbe 5542 a9bd 6fd0 08be
000001d0: fd5a b6bd f3ef 9abd 0c3e 2cbd 1bde 92bd
000001e0: 43c6 edbd 6d4b 77bd 60e0 a83d b314 66bd
000001f0: bf5e 04be c77a f7bd 9946 0dbd 7bb5 713d
00000200: 1725 04be dd2b 64bd 9fa1 d5bd c3d1 89bc
00000210: 8dac 14be 4638 6fbd 4bb6 11bd 8703 013d
00000220: b776 14bd 9915 03be fa42 bcbd 768f 13be
00000230: 0c82 e4bb 3a82 b6bd 322a bebe 29fe 16bd
00000240: b5d3 31be bc4b 8abd 3d62 65bd 9ae1 eabd
00000250: a581 cfbd 3f10 1fbe 184f 8abd ac0a d3bd
00000260: 383d 4abb 1ac3 4dbc 4aad 0ebd b70f 26be
00000270: 29e0 47bd 768b 18be ddef 40be 95a7 eebb
00000280: 822f 22be eb76 f9bd 9ee6 3dbd 445f abbd
00000290: cde7 e5bc 9723 9bbd aa6d 993c f1c9 afbd
000002a0: b6e5 36bd a5c8 12bd 37c5 c0bd 40f5 0ebe
000002b0: 9864 df3b a5fa e7bd cdb0 debd 2ea7 a3bd
000002c0: 4c81 e7bc e1ee 00be 248f f6bd c537 f5bd
000002d0: d11a 0ebe 046b 04be 1b08 03bd b20e 05be
000002e0: 2f39 53bd c0a2 2e3d c5b0 d1bd af06 f2bd
000002f0: 27a0 2ebd c2e8 d5bd f533 b8bd 2a2f 0dbd
00000300: 43c0 10be d75c b3bd a3e8 d1bd 1227 cbbd
00000310: c06e eabc 7ea2 05bd a052 b4bd 5b89 59bd
00000320: 0c94 a9bc 66d8 e7bd 071f 6bbd 2425 7bbe
00000330: 35f2 1bbe cd45 573c 7a43 9abd 857c 02be
00000340: a631 46bd 83aa 1dbe c0e0 95bd 535d a6bd
00000350: 08de 44bd aa9c 04be f16a 10be 8a40 27bd
00000360: ebae ecbc 4abe c93c 0c43 4d3d 9c8d 38bc
00000370: 20fe ae3c 9491 99bc fe94 323b 262e eabc
00000380: 7f1b 64be 484a f5bd ae2c c2bd 41c2 50be
00000390: 9701 24be d452 24be 22a7 08be d399 07be
000003a0: 2622 f4bd ace1 d0bd 42bc b0bd 326a babc
000003b0: 04ec e9bd fd2f 4cbe 85ae 7dbd 1831 01be
000003c0: 6b83 11be 950f 88bd 2285 6abd 39f9 54be
000003d0: 57db 94bd 0b85 3f3c 3d10 febd 5f9b 92bd
000003e0: a42d 29bc 1b7c c2bd fd64 87bc 4132 09be
000003f0: 630e 9e3c 19c0 f6bd b412 f1bd 77ed 80bd

weight f4 [128, 256]
0.021221267 -0.06443465 0.014209919 0.06492624 -0.019167503 -0.13043639 -0.027664723 0.007966065
0.01750794 0.0027778076 0.06362469 0.11626876 -0.028283263 0.20187889 -0.07714438 0.0015646566
-0.054696426 0.008145834 0.090056516 0.05453548 0.0264527 -0.07320419 0.061547063 -0.03238568
-0.00049452507 0.080238715 0.025344977 -0.028699042 -0.008508731 -0.013977006 -0.002357416 0.087514274
0.041013587 -0.019321531 -0.0815153 0.06937985 0.13660076 0.045196455 -0.026938647 0.02763784
-0.036510024 0.12243456 -0.11055091 0.07757504 -0.05771639 -0.01072369 -0.0001952715 -0.06816747
0.001988875 -0.070917964 -0.13240358 -0.11697776 -0.00928004 -0.097310476 0.049311776 -0.02448517
0.0024782761 0.030278923 0.043412328 -0.0155781135 0.059490573 0.04245239 -0.07326056 -0.02250412
-0.0061882567 0.03892528 -0.023058157 0.007636889 -0.14229055 0.056014176 -0.07972075 -0.092781
-0.03840684 0.0062042666 -0.0018228524 -0.020027982 -0.019344369 -0.029306399 -0.053203057 -0.056157503
0.05990302 -0.032296523 -0.02029584 0.037867058 0.022404768 -0.07961644 0.005648128 0.050274745
0.022723747 -0.054883767 0.0011176142 -0.04718143 0.08183048 0.035018843 0.010463866 0.040835787
-0.09045975 0.040537562 -0.04487531 0.017149633 -0.06811042 0.046908382 0.09554771 -0.05703442
-0.054069836 0.09942396 0.0405444 -0.2017616 0.007069912 -0.04736848 -0.062482897 0.025040232
0.0041103414 -0.088956796 -0.1300163 -5.6527722e-05 -0.10001483 -0.06672466 -0.042454064 -0.026456935
0.09571899 0.07543068 0.109475665 0.0024562876 0.040013928 -0.039129507 -0.08645053 -0.04218399
0.050216284 -0.08077266 0.018195264 0.017355729 -0.03591157 0.009580315 0.011947375 -0.12132745
0.031834304 -0.012402418 -0.11795444 -0.051653177 -0.12584157 0.023283033 0.061453223 -0.122562245
-0.02091933 -0.0129853645 0.020699224 0.07834486 -0.037344955 0.02063486 0.024440235 -0.018679898
0.071215495 -0.151855 0.022644877 -0.020899942 -0.03351412 0.0137600675 0.025488809 -0.026231868
0.09855119 -0.09530093 0.08586699 -0.024067553 -0.02360817 0.0060655777 3.4965444e-05 0.008981161
0.03225143 -0.009516038 0.041716535 -0.16296692 -0.14761554 -0.017796807 -0.069330096 0.03062816
-0.0011587465 0.13742784 -0.011324683 0.03467161 0.14964572 0.07664666 -0.08947829 -0.065199144
0.03266608 -0.0343442 0.020935 0.05156478 -0.0993566 -0.07760471 -0.03483586 -0.008565678
0.054942653 0.08112226 -0.03150436 0.021611597 -0.021672394 -0.014019097 -0.093059964 -0.009788169
0.020293204 0.11054491 -0.053282008 -0.019448925 -0.06551947 -0.16314982 0.047621172 0.079937726
0.03524509 0.1259256 -0.09963821 -0.059910152 0.0022947623 -0.042281106 -0.005003809 -0.03667209
0.0028212715 -0.0698314 0.0016467563 -0.10090388 -0.033273265 0.037840474 -0.017871434 0.06606587
-0.12335266 0.027687598 -0.07770054 0.040382404 -0.022617549 0.07812833 -0.0013569391 0.0627258
-0.124067515 -0.04773084 0.0006113222 0.01979364 0.03509637 -0.0039255093 0.04381255 0.038436443
-0.02460212 -0.0045072394 -0.051004473 0.07811883 -0.029810166 -0.05666425 -0.010684347 0.0650821
-0.010310194 -0.090050414 -0.026873982 0.017774887 -0.018897694 -0.020814333 -0.0058660335 0.03507544
00000000: 39d8 ad3c 50f6 83bd b8d0 683c 0cf8 843d
00000010: 2b05 9dbc 1e91 05be 21a1 e2bc 1984 023c
00000020: d06c 8f3c e10b 363b a94d 823d 511e ee3d
00000030: 4db2 e7bc 57b9 4e3e dffd 9dbd 2a15 cd3a
00000040: 5c09 60bd 1b76 053c 8d6f b83d 9860 5f3d
00000050: 55b3 d83c 14ec 95bd c618 7c3d d9a6 04bd
00000060: 04a3 01ba 3254 a43d 45a0 cf3c 411a ebbc
00000070: 3468 0bbc d0ff 64bc e17e 1abb af3a b33d
00000080: ddfd 273d 3048 9ebc 7ef1 a6bd 0617 8e3d
00000090: 12e1 0b3e eb1f 393d 70ae dcbc c068 e23c
000000a0: 898b 15bd f8be fa3d 8468 e2bd aadf 9e3d
000000b0: 0568 6cbd 6ab2 2fbc cbc1 4cb9 639b 8bbd
000000c0: c957 023b 703d 91bd ce94 07be 0992 efbd
000000d0: 4f0b 18bc b74a c7bd 25fb 493d 2095 c8bc
000000e0: 936a 223b 810b f83c 20d1 313d 583b 7fbc
000000f0: 63ac 733d 8fe2 2d3d a209 96bd 8f5a b8bc
00000100: dcc6 cabb 1d70 1f3d 76e4 bcbc de3e fa3b
00000110: 9db4 11be 1f6f 653d a244 a3bd f703 bebd
00000120: 7e50 1dbd 294d cb3b c7ec eeba b911 a4bc
00000130: 1578 9ebc f913 f0bc 73eb 59bd 6905 66bd
00000140: de5c 753d 5c49 04bd 7643 a6bc 7d1a 1b3d
00000150: 348a b73c f20d a3bd ef13 b93b e4ec 4d3d
00000160: 2727 ba3c cdcd 60bd e97c 923a 5141 41bd
00000170: bd96 a73d eb6f 0f3d a370 2b3c 6d43 273d
00000180: f642 b9bd b70a 263d 2ccf 37bd 637d 8c3c
00000190: 7a7d 8bbd 0123 403d 85ae c33d ed9c 69bd
000001a0: 5578 5dbd ca9e cb3d e311 263d 989a 4ebe
000001b0: b8aa e73b 7405 42bd 11ee 7fbd 2c21 cd3c
000001c0: 0bb0 863b fb2e b6bd fe22 05be 2e18 6db8
000001d0: 93d4 ccbd f0a6 88bd 50e4 2dbd 37bc d8bc
000001e0: 5108 c43d 667b 9a3d c734 e03d abf9 203b
000001f0: a5e5 233d 4346 20bd fa0c b1bd 1fc9 2cbd
00000200: 97af 4d3d 236c a5bd 3c0e 953c 9a2d 8e3c
00000210: 0318 13bd c1f6 1c3c ecbe 433c 877a f8bd
00000220: b064 023d 8333 4bbc 1992 f1bd 4892 53bd
00000230: 9ddc 00be 0fbc be3c 60b6 7b3d ea01 fbbd
00000240: 045f abbc 91c0 54bc 6b91 a93c 4573 a03d
00000250: 06f7 18bd 700a a93c e336 c83c 9606 99bc
00000260: 6ed9 913d e17f 1bbe c081 b93c 5b36 abbc
00000270: 1a46 09bd e871 613c e8cd d03c 37e4 d6bc
00000280: 35d5 c93d 222d c3bd 08db af3d 5129 c5bc
00000290: ec65 c1bc c1c1 c63b dca7 1238 b825 133c
000002a0: 131a 043d 28e9 1bbc f5de 2a3d cde0 26be
000002b0: 8728 17be 9cca 91bc f0fc 8dbd e8e7 fa3c
000002c0: 15e1 97ba e2b9 0c3e 2a8b 39bc d103 0e3d
000002d0: ba3c 193e edf8 9c3d 6540 b7bd 2187 85bd
000002e0: decc 053d 81ac 0cbd e17f ab3c 9735 533d
000002f0: 797b cbbd 38ef 9ebd 0cb0 0ebd 0f57 0cbc
00000300: 8c0b 613d 6d23 a63d b70a 01bd ce0a b13c
00000310: 4e8a b1bc 5bb0 65bc 3996 bebd 8e5e 20bc
00000320: ef3d a63c 5f65 e23d 3c3e 5abd 5a53 9fbc
00000330: 122f 86bd bf10 27be 6b0e 433d 64b6 a33d
00000340: 285d 103d a4f2 003e 1e0f ccbd 5964 75bd
00000350: b963 163b f42e 2dbd fef6 a3bb 7935 16bd
00000360: 15e5 383b c403 8fbd f9d7 d73a b2a6 cebd
00000370: 8c49 08bd 9dfe 1a3d 1d67 92bc 8b4d 873d
00000380: 52a0 fcbd 1ad1 e23c 7621 9fbd 0568 253d
00000390: 7048 b9bc bf01 a03d 52db b1ba 6276 803d
000003a0: 1c17 febd 6a81 43bd 2341 203a 4626 a23c
000003b0: 36c1 0f3d 8fa1 80bb ca74 333d 886f 1d3d
000003c0: 638a c9bc 77b1 93bb 11ea 50bd c4fc 9f3d
000003d0: 7334 f4bc c618 68bd 660d 2fbc c449 853d
000003e0: 17ec 28bc 5a6c b8bd d326 dcbc a49c 913c
000003f0: 56cf 9abc d282 aabc db37 c0bb 44ab 0f3d

bias f4 [128]
-0.055572283 -0.11670254 -0.07965182 -0.048284587 -0.052183494 0.003568799 -0.09571806 -0.012419274
-0.08829043 -0.050234545 -0.06700767 -0.013875416 -0.10184632 -0.023534784 -0.19019312 -0.075109705
-0.057418663 0.034131866 -0.12990822 -0.105106436 0.09450132 -0.0693846 -0.056642085 0.06674948
-0.05783351 -0.0672962 -0.108220495 -0.07927624 -0.13504441 -0.18894045 -0.025375156 -0.0690074
-0.039372373 -0.07264163 -0.039095387 -0.15409836 -0.13104658 -0.11986312 -0.011893706 0.10117788
-0.25006226 -0.093106605 0.011641256 -0.03241406 -0.05116225 -0.023353059 -0.13018051 -0.013121836
-0.0012578693 0.069907956 -0.23795842 -0.021546844 -0.14495842 -0.03252282 -0.012060598 -0.09427983
-0.024631705 -0.09194374 -0.05460384 -0.06417143 -0.06750583 -0.1044085 -0.036382146 0.029849973
-0.150167 -0.13092534 0.010478328 -0.063370876 -0.030297367 -0.09156012 -0.09210825 -0.097978175
-0.056010727 -0.07686311 -0.047333002 -0.021271307 -0.18461217 -0.013536808 -0.037003424 -0.026914809
-0.057561953 0.03340837 -0.028919889 -0.06190384 -0.093197964 -0.08963722 -0.08024934 -0.061054584
-0.011519314 -0.12451507 0.011924532 -0.10812969 -0.07481897 -0.15063958 -0.03557097 -0.022103509
-0.08880007 -0.011123307 -0.043374833 -0.072295465 -0.15022336 -0.18063186 0.12002357 -0.196611
-0.048361193 -0.18485405 -0.035416104 -0.034700554 -0.14229222 0.040086612 -0.035697393 -0.20669106
-0.047066826 -0.06070002 -0.15114312 -0.059348952 -0.100691 -0.084818125 0.006685579 -0.055432413
-0.029978184 -0.07968949 -0.12731823 -0.040250737 -0.03706869 -0.10385825 -0.02350242 -0.06771646
00000000: c39f 63bd be01 efbd 7e20 a3bd 0fc6 45bd
00000010: 5cbe 55bd 83e2 693b d507 c4bd 367a 4bbc
00000020: 9dd1 b4bd bdc2 4dbd 513b 89bd b655 63bc
00000030: ce94 d0bd 05cc c0bc fcc1 42be 1ed3 99bd
00000040: d52f 6bbd dbcd 0b3d a906 05be 0b42 d7bd
00000050: e889 c13d 8319 8ebd 8801 68bd f4b3 883d
00000060: d5e2 6cbd 97d2 89bd b5a2 ddbd 955b a2bd
00000070: 1549 0abe 9b79 41be 8fdf cfbc c053 8dbd
00000080: ed44 21bd 23c5 94bd 7c22 20bd f6cb 1dbe
00000090: 1331 06be cc7a f5bd d2dd 42bc 5936 cf3d
000000a0: 2908 80be adae bebd f7ba 3e3c 9bc4 04bd
000000b0: 828f 51bd ea4e bfbc 0a4e 05be f8fc 56bc
000000c0: 17df a4ba e72b 8f3d 5fab 73be 0283 b0bc
000000d0: fb6f 14be a636 05bd d099 45bc c915 c1bd
000000e0: 6ec8 c9bc 004d bcbd 47a8 5fbd 506c 83bd
000000f0: 7f40 8abd 20d4 d5bd 7205 15bd ee87 f43c
00000100: 61c5 19be 4b11 06be 4bad 2b3c 97c8 81bd
00000110: 2f32 f8bc df83 bbbd 40a3 bcbd c8a8 c8bd
00000120: 816b 65bd 686a 9dbd 40e0 41bd 2a41 aebc
00000130: f90a 3dbe 7dc9 5dbc e790 17bd 727c dcbc
00000140: 15c6 6bbd 37d7 083d 67e9 ecbc e28e 7dbd
00000150: 93de bebd b893 b7bd c459 a4bd 5f14 7abd
00000160: 81bb 3cbc c201 ffbd 1d5f 433c 1973 ddbd
00000170: b03a 99bd 4341 1abe deb2 11bd 6b12 b5bc
00000180: d0dc b5bd 883e 36bc cfa9 31bd a50f 94bd
00000190: 27d4 19be 8ff7 38be ebce f53d 6554 49be
000001a0: 6316 46bd 614a 3dbe 7a10 11bd 2b22 0ebd
000001b0: 0db5 11be dc31 243d 6e37 12bd d2a6 53be
000001c0: 25c9 40bd 96a0 78bd 43c5 1abe e317 73bd
000001d0: 1537 cebd 20b5 adbd b412 db3b 190d 63bd
000001e0: cf94 f5bc 3e34 a3bd b65f 02be f5dd 24bd
000001f0: 57d5 17bd a2b3 d4bd 2688 c0bc edae 8abd

weight f4 [12, 128]
-0.037091874 -0.0048897774 -0.0039857584 -0.032788035 0.05574901 0.04216743 -0.009673737 -0.05900274
0.048715882 -0.04304485 -0.02001423 -0.017565941 0.043662634 -0.022095883 0.07420852 -0.04245337
0.006244816 0.04498031 -0.018716311 -0.01919966 -0.032068547 0.06668586 0.024539215 0.035715673
0.013656887 0.039823715 -0.0896664 0.0035180813 -0.028398177 -0.015536038 -0.009153755 0.08333537
-0.05773983 0.022572732 -0.0055661732 -0.037209418 0.004648073 0.016313039 0.0011732555 0.075613484
0.016430164 -0.08269066 -0.0071048983 -0.030851245 -0.013307301 0.0020928169 0.031047367 -0.035497803
0.04575708 -0.054257408 -0.014515937 -0.007240294 0.038088232 -0.00878247 0.03205528 0.045967557
-0.044852976 0.026760938 0.03293334 -0.090470344 -0.013691907 -0.048485406 0.052766837 0.021222081
0.0435272 -0.018703714 -0.001620138 0.004122006 -0.012993057 0.017675085 -0.010794689 -0.027497407
0.08510369 0.01714803 0.028027745 -0.063072756 -0.03045452 -0.018303363 -0.05009222 0.046127576
-0.06819008 -0.02199354 0.026147056 -0.012877163 -0.042883966 0.029915456 -0.043864705 0.0052521657
-0.030880293 0.016584404 0.030584298 -0.015741687 -0.03835529 0.013582721 -0.032359686 0.007798224
0.0045891823 -0.035563245 -0.037244726 0.03178367 -0.01794396 0.026850697 -0.016222129 0.03225839
0.0030466067 -0.015085596 0.00945194 0.017766887 0.043025754 0.013021539 0.023622552 -0.032985546
0.0014124138 -0.04014442 -0.023916092 0.0056249644 -0.07059693 -0.01862435 0.049718946 -0.04584158
0.044419985 0.027358573 0.006991017 0.023395713 0.081426956 -0.028843533 0.039478514 0.036015864
-0.0059003364 -0.062517345 0.01250738 -0.0397241 -0.022760743 -0.054733623 0.047225248 -0.035645455
-0.0685479 -0.021139305 -0.033918347 -0.089549646 0.014945223 0.02289032 0.034738168 0.05726631
-0.06664804 0.0024521584 -0.05315546 0.09759994 -0.04474248 -0.023324462 0.010879604 0.027738523
0.048553914 0.06588066 0.10486847 0.037283275 0.0467273 -0.058447864 0.022378251 0.049474288
0.07473598 0.014616976 0.018269094 -0.046210155 0.03874307 -0.011451016 -0.024879355 -0.055779397
-0.030624343 -0.05925589 0.009117975 -0.10473329 0.03857003 -0.04669051 -0.04459548 0.043705992
0.095767975 0.06206993 -0.03466882 -0.060900286 0.0055519664 -0.036512986 -0.013980803 0.08471998
-0.015392102 -0.063969955 -0.053984355 -0.0014319831 0.039035063 0.03194549 -0.030868901 0.013368526
-0.121856734 -0.054654315 0.01099394 0.024131944 0.12060412 -0.04747854 0.020995913 0.031005789
-0.048900317 0.076146 0.007701248 0.053017445 0.024389075 -0.042819932 0.032097444 -0.025389977
-0.005457745 0.013681905 0.07225277 -0.0179168 -0.023044772 0.010106888 -0.023432128 -0.020528719
0.00044186108 -0.04776205 0.0077406364 0.020583853 -0.035869703 0.011695186 -0.051965605 0.03377146
0.04327501 0.011396773 0.0162304 -0.08893994 -0.008068798 -0.045674395 -0.029587097 0.044269007
0.07408254 0.019216659 0.056909498 0.0022635371 -0.013505765 -0.028638016 -0.071897924 -0.10971169
0.026977153 0.025029844 0.013575698 0.0292052 -0.018393718 -0.048332967 0.060849696 -0.061598826
-0.00862482 0.08850304 0.10417802 0.075522035 0.021353887 0.0158984 0.041232776 0.0094646625
00000000: a6ed 17bd 6d3a a0bb f79a 82bb bf4c 06bd
00000010: 1359 643d c1b7 2c3d 987e 1ebc dbac 71bd
00000020: 4e8a 473d cc4f 30bd e2f4 a3bc 73e6 8fbc
00000030: 97d7 323d 6d02 b5bc a3fa 973d 96e3 2dbd
00000040: 50a1 cc3b 463d 383d f352 99bc 9b48 9dbc
00000050: 4f5a 03bd 9992 883d 7706 c93c 994a 123d
00000060: 23c1 5f3c 311e 233d 04a3 b7bd 9c8f 663b
00000070: 4ba3 e8bc de8a 7ebc a2f9 15bc bcab aa3d
00000080: 9a80 6cbd 73ea b83c 7264 b6bb e768 18bd
00000090: dd4e 983b eca2 853c ecc7 993a 3edb 9a3d
000000a0: 8d98 863c b959 a9bd 35d0 e8bb c0bb fcbc
000000b0: de06 5abc a427 093b 0c57 fe3c 2566 11bd
000000c0: c76b 3b3d 043d 5ebd 41d4 6dbc fd3f edbb
000000d0: 6802 1c3d 59e4 0fbc 664c 033d 7a48 3c3d
000000e0: c1b7 37bd c139 db3c 1ce5 063d 8448 b9bd
000000f0: 0554 60bc a298 46bd 0a22 583d eed9 ad3c
00000100: 9449 323d 8838 99bc cf5a d4ba e411 873b
00000110: d5e0 54bc 57cb 903c 35dc 30bc 3e42 e1bc
00000120: d84a ae3d 077a 8c3c 719a e53c 4a2c 81bd
00000130: c27b f9bc eff0 95bc 802d 4dbd 45f0 3c3d
00000140: 3ea7 8bbd cc2b b4bc 5a32 d63c bcfa 52bc
00000150: 19a7 2fbd 4211 f53c 7aab 33bd 5c1a ac3b
00000160: abf8 fcbc 04dc 873c ec8b fa3c b6f4 80bc
00000170: 701a 1dbd 108a 5e3c 978b 04bd 3f88 ff3b
00000180: da60 963b c4aa 11bd ed8d 18bd 982f 023d
00000190: 36ff 92bc fef5 db3c 45e4 84bc 6021 043d
000001a0: 94a9 473b 9329 77bc 4fdc 1a3c dd8b 913c
000001b0: c63b 303d 4b58 553c 1584 c13c da1b 07bd
000001c0: be20 b93a 7a6e 24bd aeeb c3bc 9f51 b83b
000001d0: 2095 90bd 1892 98bc 18a6 4b3d 61c4 3bbd
000001e0: bbf1 353d 161f e03c e714 e53b 5ea8 bf3c
000001f0: 2dc3 a63d 4649 ecbc 39b4 213d 5f85 133d
00000200: 9c57 c1bb 1809 80bd c1eb 4c3c bdb5 22bd
00000210: bd74 babc 5d30 60bd 436f 413d f800 12bd
00000220: d762 8cbd 562c adbc f7ed 0abd ce65 b7bd
00000230: cfdc 743c 7b84 bb3c 9c49 0e3d 1490 6a3d
00000240: c57e 88bd 64b4 203b 8ab9 59bd 7ae2 c73d
00000250: e443 37bd f112 bfbc 5e40 323c e63b e33c
00000260: 78e0 463d 71ec 863d 48c5 d63d 59b6 183d
00000270: 2065 3f3d 0767 6fbd 9852 b73c 8da5 4a3d
00000280: 2d0f 993d 0a7c 6f3c 11a9 953c dc46 3dbd
00000290: 0eb1 1e3d 0b9d 3bbc cacf cbbc f078 64bd
000002a0: e7df fabc 4eb6 72bd 8f63 153c 687e d6bd
000002b0: 9cfb 1d3d 8c3e 3fbd c0a9 36bd 0e05 333d
000002c0: 0022 c43d 0a3d 7e3d e500 0ebd 9472 79bd
000002d0: 45ed b53b a48e 15bd bd0f 65bc ab81 ad3d
000002e0: 282f 7cbc ae02 83bd b31e 5dbd 61b1 bbba
000002f0: 3be3 1f3d 46d9 023d c7e0 fcbc a907 5b3c
00000300: 0690 f9bd 34dd 5fbd ed1f 343c 5bb0 c53c
00000310: 4bff f63d dc78 42bd 9fff ab3c daff fd3c
00000320: b34b 48bd 6ff2 9b3d c05a fc3b d228 593d
00000330: 99cb c73c f463 2fbd 9c78 033d a4fe cfbc
00000340: e2d6 b2bb 122a 603c 43f9 933d 41c6 92bc
00000350: 64c8 bcbc 5c97 253c bcf4 bfbc d82b a8bc
00000360: 97a9 e739 24a2 43bd 2aa5 fd3b 789f a83c
00000370: 1cec 12bd 2a9d 3f3c e3d9 54bd f153 0a3d
00000380: 2341 313d 88b9 3a3c 9ef5 843c 2526 b6bd
00000390: fe32 04bc 1315 3bbd a460 f2bc 6b53 353d
000003a0: 96b8 973d 416c 9d3c ef19 693d da57 143b
000003b0: 4947 5dbc 469a eabc 383f 93bd 86b0 e0bd
000003c0: 31ff dc3c 630b cd3c 9b6c 5e3c be3f ef3c
000003d0: 6cae 96bc caf8 45bd 883d 793d 0d4f 7cbd
000003e0: 1e4f 0dbc 1541 b53d 495b d53d 4cab 9a3d
000003f0: 59ee ae3c 5d3d 823c b3e3 283d ac11 1b3c

bias f4 [12]
0.054960787 -0.010298936 -0.043951634 -0.08177874 0.027146738 -0.1481341 0.0023560931 0.25946963
0.18642262 -0.018230123 0.29051718 0.2024248
00000000: 901e 613d debc 28bc a106 34bd 9d7b a7bd
00000010: d662 de3c 77b0 17be af68 1a3b 34d9 843e
00000020: 92e5 3e3e 5757 95bc abbe 943e 7248 4f3e
