models/ts_policy.pt (torch, 968137 bytes, 8 tensors)

weight f4 [512, 142]
00000000: 32f7 dabe d938 5b3e c20f 4f3f 983f acbd
00000010: ecc5 4dbf 95aa 883d 6930 523d 04f4 3abd
00000020: 6fd9 e6be 1fe5 073e 4433 c6bd 44a4 e33b
00000030: 1414 adbe f66d 90be 9013 cfbd 065f 203e
00000040: 3ec4 8b3e fc8e 183c 5b60 48bd 0644 7abe
00000050: 8627 9dbe 4f90 e0bd f221 f93d bd31 143e
00000060: b121 bc3c 70c5 9bbe 767b 943b b66e 373f
00000070: f1d4 b9be 9b52 5cbd c4c3 123f dc0a e43b
00000080: f389 c9bc 3c98 6a3b 67c7 e7bc 6756 1b3c
00000090: a1c2 013d e523 a03c dc28 bb3d aa73 b7bd
000000a0: a1c8 9e3d 7b50 36bd 0037 85bd e185 d43b
000000b0: 7453 1c3a b983 ab3d 4b69 d0b9 feb4 393c
000000c0: 481c 0bbc 61a0 a73b 2179 ecbc 982b 07bd
000000d0: 7a1a 52bd 23fb b1bc 4932 09bc 6ec7 b03c
000000e0: 9a2d be3d e1d5 0cbd 8cb5 d8bc 0b14 b23c
000000f0: de7a cebb 9acb d13d 3165 1d3d 66fb 2e3d
00000100: 2d66 97bd 2ac8 a8bc bcfb 023d a752 263d
00000110: b1d9 973d f615 70bc cc18 80bd f3d9 4fbd
00000120: 517a 06bc 792e eebc bc5d 00bd 4b7c 53bd
00000130: 8ca4 533d 7ec8 e43c 3bed bfbc 7335 b7bd
00000140: a17d b83d 2c16 0fbd 7804 533d 5a2e c83c
00000150: bd3f 0f3d 24cb 5d3d 3124 ee3d 90f2 d0bc
00000160: 48b7 b4bd 1e13 f33d c092 ab3d 8f7a 0abd
00000170: addd 10bd 9d89 853a c2e6 53bd 88de 9cbd
00000180: 90ec 95bc 23b5 40bc e4f9 b73c e5be f4bd
00000190: 3b83 4f3c 002a b4bd ae7c fd3c 5e82 cabc
000001a0: 7ec8 dfbd 25a6 9fbd aae6 e83d 05e9 f3bb
000001b0: dc98 6fbd 15b4 a23c b1f4 babd 16c9 303c
000001c0: 4058 9cbd 0d07 09be 5cf1 8fbd 014a a03c
000001d0: 3b78 453d c975 903c ed14 0e3d 3346 743d
000001e0: d11e 1bbd c313 29bd 707a 803c c605 073e
000001f0: a955 393d b966 0e3d 1d9a 663d 4364 7a3d
00000200: bb01 a1bd 7e7e adbb 1de7 2a3d 9316 b3bd
00000210: 5ea2 a93b 4354 19bd 7005 c83d 0094 acbb
00000220: 8cc3 ac3d e880 d5ba 4390 ecbb e1f2 cebc
00000230: f4c7 68bc ea20 7cbd c003 623e 80b8 87be
00000240: 53e0 b8be 76e6 ccbc 5fbe b8bd ef15 85bd
00000250: a4ce 063e 94c3 ae3e 262f 6e3e 0cf9 ccbe
00000260: 41f7 11bd e113 a53d 8834 833d 805b a33e
00000270: dd6d 0e3f 5573 753e f9d6 8b3e 1ba3 46be
00000280: bacc 26be bf11 263d 0046 733e c6e1 94bd
00000290: 5634 32bd 7c29 78be d88e 07be c331 743e
000002a0: 256a 49be d958 57bc f472 1f3d 306b 8f3c
000002b0: d508 c23e 3498 853e 0ce2 a93e a94f a73b
000002c0: 5c2e c13d ff89 053e de33 a53d 7720 6b3d
000002d0: 32f4 af3d 7c34 06bb 6cc9 9f3d b750 8fbd
000002e0: 97f6 bb3d 753f f9bb cd73 6ebd a102 0bbe
000002f0: 3489 c33d 8e05 0f3d f049 0e3e 60b0 10bd
00000300: a634 793a e430 9a3d b896 74bd 6aec 033d
00000310: 7752 b3bd dd94 e93b db34 f73b a17b 27bc
00000320: cb4e f4bd fc23 b0bd 4590 df3d 45ed 11bd
00000330: c897 6fbc c6a2 e63a 5708 a93c 5b03 d7bc
00000340: 13c7 f5bc 7760 47be 0d48 25bd 0f4f 8abe
00000350: cef3 613d 962c 3f3a 6aee de3d f0f8 ffbb
00000360: 8e7d 013c cc07 cabd 16f6 51be 4610 3cbc
00000370: 7c6f 9abc 9d65 1a3e a7d1 74bd 922a cfbc
00000380: bafc e4bd ea53 f6bc c146 0abe 86f3 343a
00000390: ce40 dbbc 1fa3 debc d61f aebd 078f 783d
000003a0: ae7f 47bd 3278 d93d 6197 f13c 6afb 00be
000003b0: 3e7e 46bc 05e0 cdbc 1e71 9ebd 7ed3 3c3c
000003c0: dcb0 06bd 6a13 d03b d38c c3bc 592e f03c
000003d0: 3d91 c03d 7f93 49bc 6c24 093d e6b7 8bbd
000003e0: 1044 edbd 49b1 a5bd bc23 413d 392c 623d
000003f0: ecdb 223d 6234 163a e861 9c3d ad01 00be
-0.4276672 0.21408404 0.8088342 -0.08410567 -0.8038013 0.06673161 0.0513157 -0.045642868
-0.45087764 0.13270997 -0.09677747 0.006947072 -0.3380438 -0.28208894 -0.10111153 0.15661249
0.27298158 0.009311434 -0.048920017 -0.24440011 -0.30694216 -0.10965025 0.12164678 0.14472099
0.022965284 -0.3042407 0.0045313193 0.71653306 -0.36295274 -0.053789716 0.57329965 0.0069593024
-0.024601912 0.0035796305 -0.028293325 0.009481049 0.031679753 0.019548366 0.09138653 -0.08957608
0.07753111 -0.044510346 -0.06504631 0.006485686 0.0005963363 0.083747335 -0.000397513 0.011334656
-0.0084906295 0.005115554 -0.028866353 -0.03300056 -0.05129478 -0.021726197 -0.008373805 0.02157947
0.092860416 -0.03438366 -0.026453756 0.021738073 -0.006301268 0.10243912 0.03842658 0.04272022
-0.07392535 -0.020603258 0.031978354 0.040606167 0.07414568 -0.014653673 -0.0625473 -0.050744962
-0.008207873 -0.029074894 -0.031339392 -0.051632207 0.051670596 0.027927633 -0.02342855 -0.089457415
0.09008337 -0.034933254 0.051517934 0.024436165 0.034972895 0.054148808 0.11627997 -0.025506288
-0.088240206 0.11868881 0.083776 -0.033808287 -0.035367656 0.0010188107 -0.05173374 -0.07659632
-0.018301278 -0.011761936 0.022458024 -0.11950473 0.012665565 -0.08797073 0.030943241 -0.024720367
-0.10926913 -0.077953614 0.11372121 -0.0074435496 -0.058495387 0.01986126 -0.091287024 0.01079013
-0.0763402 -0.13381596 -0.070284575 0.019566538 0.048210364 0.01763429 0.034687925 0.05963726
-0.037871186 -0.041278612 0.015683383 0.13185796 0.045247708 0.034765933 0.056299318 0.061130773
-0.07861658 -0.00529462 0.041724313 -0.0874454 0.0051768264 -0.037433874 0.09766662 -0.0052666664
0.08435735 -0.0016289027 -0.007219346 -0.025262298 -0.014207829 -0.061554827 0.22071743 -0.2650795
-0.36108646 -0.025012236 -0.090206854 -0.06498324 0.13164765 0.3413359 0.23260173 -0.40033758
-0.03563619 0.08060432 0.06406504 0.31905746 0.5563639 0.23969777 0.2731245 -0.19398157
-0.16289034 0.040544268 0.23757172 -0.07269625 -0.043506943 -0.24234575 -0.13238084 0.23847108
-0.19669397 -0.0131437415 0.038927987 0.017507166 0.37897363 0.26092684 0.33180273 0.005105932
0.094326705 0.13040923 0.080665335 0.057404008 0.085914984 -0.002047806 0.0780209 -0.06997817
0.09177893 -0.0076064416 -0.058215905 -0.13575222 0.09547654 0.034917407 0.13895392 -0.035324454
0.00095064414 0.075288564 -0.05971405 0.032207884 -0.08755963 0.0071283416 0.0075441427 -0.0102223465
-0.11929091 -0.086006135 0.10916189 -0.03562667 -0.01462359 0.0017596118 0.02063386 -0.026246717
-0.030002153 -0.19470392 -0.040351916 -0.27013442 0.05516415 0.00072927156 0.108853176 -0.007811658
0.00790347 -0.098647684 -0.2050403 -0.011478489 -0.018851988 0.15077825 -0.059770253 -0.025288854
-0.11181016 -0.03006931 -0.13503553 0.0006902743 -0.0267643 -0.027177392 -0.08502166 0.060683277
-0.04870575 0.106186286 0.029491128 -0.12595907 -0.012115059 -0.025131235 -0.07736419 0.011525033
-0.03288351 0.0063499706 -0.023870861 0.029318975 0.09402702 -0.012303232 0.033482 -0.06822185
-0.115852475 -0.08090455 0.04715322 0.055217955 0.039760515 0.00057298515 0.07635862 -0.1250064

bias f4 [512]
00000000: 9ee1 80bd d57d 253d 8db2 8abd 76b1 d73d
00000010: 5288 77bc 821b c93b a99a dabd fb45 92be
00000020: 23e4 74bd 65de 74bd 5b61 05bd 5b98 b9bd
00000030: f59a 8fbd 4f7d 97bd 8612 9a3d 7393 933d
00000040: 93f6 2cbc f923 df3d 7c51 f83d cd07 a33c
00000050: b7ab f93c c8b5 13bd e2fb 37bc 1662 03be
00000060: 9314 2e3d 78ba 24be 77af ecbc 28dc 0b3d
00000070: 9fa3 543d 6c9c 063d b6ea 68bc 3bec 0abe
00000080: 7e74 d4bd a93f 12be 31b8 ff39 2ad6 b73b
00000090: eea3 33be 54eb 263e 55c2 813d a690 1bbe
000000a0: 4009 efbc 6b54 433c d6a5 8abe 9c83 cabd
000000b0: 95b9 123d 0909 303b 124d 5abe 16fd 8bbd
000000c0: 5fc3 e0bd 2fa1 823d 5ef4 bdbd b846 c4bd
000000d0: 9359 cd3b 24e1 cabd db13 1fbd 1995 97bd
000000e0: 8a48 26be 629a c8bd 74d2 43bd d5e3 e6bd
000000f0: 0f55 09bd 9996 96bd 1e0f 31be 667a a3bd
00000100: 5e5a 35bd 69c4 debd 2713 b33d 4cfe c93d
00000110: da46 1bbe 1e2a 10bd d3c0 293d efa3 193e
00000120: c80e 5ebe 1889 76be 9138 e03d cef0 5d3d
00000130: 78b7 553e d484 8d3a 1b7e e8bd 1719 cfbd
00000140: 6ca7 0bbe e263 653d fb6a 883d b7fb dabc
00000150: 3ce9 5fbd cdbc 56be b273 e0bd 44bb 9ebc
00000160: 11d3 873b 2b61 afbd 5280 5abb 23c6 efbd
00000170: 8442 0e3d 69f7 17be 7e14 4fbe c9f9 31be
00000180: 6dce 543d b8cf 43be 4564 d93c 50b6 393d
00000190: 596b 1cbe 15a1 c0bd 46db b4bc bfd3 5abe
000001a0: c7bb 8fbe ab33 40bd 27db 96bd ef65 37be
000001b0: b00f 75bd e810 293d f3df a9bd e800 1bbe
000001c0: 7d41 883c ef15 c53d 1e71 613d a832 2bbd
000001d0: 854a 30bc 1c8d a33d a638 173e e1b4 ea3d
000001e0: a5d6 d5bd 7f69 3b3d a140 05bd 4bbd 8bbd
000001f0: 469b 693d e0ba df3c f27e 8fba 1e68 57be
00000200: 7a47 183d 3e4d 29be 8450 f13c 7b13 3dbe
00000210: 692e b5bd 8402 37bd 3f53 efbd c9ca 0f3d
00000220: 91bb debc 31a4 84bc 43d3 68bd 0bca 4dbe
00000230: 82cb 30bc d828 c73c 04f5 92bc da8e 843c
00000240: 8d41 033d 5770 083c 4586 8d3c f28e c93d
00000250: 9e01 8ebd b9ea 0a3c 01e9 423d 910f 9c3c
00000260: 0c0a f6bd 4aff bebd 788d 15be c295 02be
00000270: 9b63 e0bd a107 03be dde9 55be 546e 9ebd
00000280: e386 863c 92ce 993b 95c0 233c 5f30 93bc
00000290: cf71 32be 7e66 7abc a3a8 943d a954 7abd
000002a0: e038 90bd c612 723d dd24 05bd 9b40 a3bd
000002b0: 7a9d 64be e714 b53c cc41 7f3c dd1b 433e
000002c0: 3334 87bd aef0 7cbe 49a6 9f3c 9b89 e6bd
000002d0: 1fae ddbd 8cfa 78bd 5fb3 373b f430 6a3d
000002e0: 4dab 8e3d 4d3b a93d d1ce d73c f6f7 47be
000002f0: 5d2a 483c 12d7 d2bc ee40 9ebd 68b7 013d
00000300: 4b29 c93c 2a8c fa3c 8ea8 293d 963d 9c3d
00000310: 7b0d 6abd 206c 02bd b54d 7abd cf8c 7ebd
00000320: bee5 0dbe cff2 00be d25c f13d d1cd bbbc
00000330: 1de8 b9bc bdb7 c0bd c488 633d 7055 2dbd
00000340: c107 2bbe a925 babd 6a4a babd c23d cebd
00000350: 51eb d43b 144d 80bc b6dc 963c b900 f7bc
00000360: 0e0c 2bbe fd41 17be 3489 03bd 80f0 05be
00000370: ea8f 42bd 441c 4abd 6aea 94bd 37df e63c
00000380: abd1 dd3b bc16 25be 3967 71bd 204c 0a3e
00000390: efd1 bf3c f72c f2bd f94d 2a3e 493f b33d
000003a0: 8279 e3bc 867a a4bd 4545 f43c 6a3e 7abd
000003b0: 68e1 cb3d 3e53 bfbd 94cf d8bd 754a ebbd
000003c0: bd53 cb3b ae8e 27bc 9a9e 25be aa47 1fbe
000003d0: d2a3 96bd 749f cfbd 8949 1bbe 1a68 d9bc
000003e0: 54e4 813d 1385 043d 900a a7bd b9fd 9cbd
000003f0: 3919 3c3b e4d9 0f3b f3a9 ad3c 879a 54bc
-0.06293033 0.040403206 -0.06772337 0.10531895 -0.015108185 0.0061373124 -0.1067403 -0.28569016
-0.05978788 -0.059782404 -0.03256355 -0.090622626 -0.070119776 -0.073969476 0.07523064 0.07205858
-0.010556835 0.10895533 0.12124917 0.01990118 0.030477388 -0.036062032 -0.011229487 -0.12830386
0.04250009 -0.16086757 -0.028892262 0.034145504 0.051913854 0.03286402 -0.014216116 -0.13566677
-0.103737816 -0.14282097 0.00048774623 0.005610247 -0.17543003 0.16300708 0.06335894 -0.15191898
-0.029179215 0.011921982 -0.27079648 -0.09888384 0.035821516 0.0026860854 -0.21318462 -0.06835382
-0.10974764 0.063783996 -0.09275125 -0.09583801 0.0062667816 -0.099062234 -0.038837295 -0.07401485
-0.16238609 -0.09795071 -0.047808126 -0.11273924 -0.033528384 -0.07352943 -0.17290923 -0.0798233
-0.044275634 -0.10877306 0.087438874 0.098629564 -0.15163746 -0.035196416 0.041443657 0.15003942
-0.21685326 -0.24075735 0.10948289 0.054184727 0.20870769 0.0010797032 -0.11352178 -0.101122074
-0.13638085 0.05600346 0.0666103 -0.026731355 -0.05466579 -0.2097046 -0.10959567 -0.019376405
0.004145034 -0.08563455 -0.0033340645 -0.117077135 0.034731403 -0.14840473 -0.20222661 -0.17380442
0.051954675 -0.19122207 0.02653707 0.045339882 -0.15275325 -0.09405724 -0.022077214 -0.21369837
-0.2807295 -0.046924274 -0.07366019 -0.17909978 -0.059829414 0.04127589 -0.08294668 -0.15137064
0.01663279 0.09623324 0.055039518 -0.041796356 -0.010759954 0.07985899 0.14767703 0.11460281
-0.10441331 0.045754906 -0.032532338 -0.06823214 0.057032846 0.027310789 -0.0010947867 -0.21035811
0.03717754 -0.16533372 0.029457338 -0.18464462 -0.08846743 -0.044680133 -0.116858 0.0351055
-0.027189048 -0.016191574 -0.0568421 -0.20096605 -0.010790708 0.024311468 -0.017939098 0.016181398
0.032044936 0.008327565 0.017275939 0.09841718 -0.06933902 0.008478814 0.04758549 0.019050391
-0.12013635 -0.09326036 -0.14604747 -0.1275244 -0.10956498 -0.12795879 -0.20889993 -0.07735887
0.01642174 0.0046938146 0.009994646 -0.017967401 -0.17426227 -0.015283225 0.072587274 -0.061115894
-0.07042098 0.059099935 -0.03250586 -0.07971307 -0.22325698 0.022104694 0.015579652 0.19053598
-0.06601753 -0.24701187 0.01948847 -0.11256715 -0.108242266 -0.060785815 0.0028030497 0.05717559
0.06966267 0.08263264 0.026343735 -0.19528183 0.012217131 -0.02573732 -0.07727228 0.03166905
0.024555823 0.030584414 0.041420512 0.07628934 -0.057141762 -0.031841397 -0.061109263 -0.062146004
-0.13857171 -0.12592624 0.11785282 -0.02292529 -0.022693688 -0.09410045 0.05555035 -0.042317808
-0.16702177 -0.09089214 -0.090962246 -0.10070373 0.0064977785 -0.015661754 0.01841579 -0.030151712
-0.16703817 -0.14771266 -0.03211327 -0.13080025 -0.04750053 -0.049343362 -0.072712734 0.028182609
0.006769379 -0.16121954 -0.05893633 0.13505602 0.023415534 -0.118249826 0.16631307 0.08752305
-0.0277679 -0.08031182 0.029818187 -0.06109468 0.09955102 -0.09342049 -0.105864674 -0.11488811
0.0062050507 -0.010226889 -0.16173783 -0.15554681 -0.07355465 -0.10137835 -0.1516477 -0.026538897
0.06342378 0.032353472 -0.081563115 -0.07665581 0.0028701557 0.0021949941 0.021199202 -0.012976295

weight f4 [256, 512]
00000000: d8aa babd 0e61 653a ecf3 f93d e80e b8bd
00000010: 31f0 673d 5338 1b3e 8a08 d13d c727 d93d
00000020: 0a41 06be 77a6 de3d 7984 aa3d ccb8 fcbd
00000030: cc3b 8dbc 3eb0 c23d a780 963c 9ca5 003e
00000040: 1aa5 34bd b43f 41be cf47 a63d c489 803d
00000050: b82f 59bd 208d a73d 8b6c 673c a6a0 2bbd
00000060: c559 d7bc 7f9b 03bd 01f0 46bd 7221 28bd
00000070: 1384 48bd 3a89 6e3c 5463 653d b7e7 21be
00000080: f0d2 9dbd 7724 89bd a3cc 683d 4399 d23c
00000090: 2a81 8d3d 2a38 0bbe b0fa b0bd 118d d83d
000000a0: 5874 bf3d 5276 9b3a c3b6 2abd 45a7 73bc
000000b0: 7c95 93bd f3e9 02be 5190 be3d 2eda 033e
000000c0: 20c2 593d 9396 2dbc a522 96bd 4ce8 e8bd
000000d0: d1a8 823d 1f1e 7a3e 09f0 953d 665d 15be
000000e0: 1315 283e 3e08 d43d ee3f bebc d619 a0bc
000000f0: 0da5 433c 9d83 0b3d 22ce 7d3d a1ac c33d
00000100: ad7b 0f3d 5229 e33d 10e6 083e 497f 463d
00000110: 26d9 b4bc d8ac 913c b416 86bb 8086 8b3d
00000120: 2fb5 893a a8ce 9f3d 127d d5bc b1e5 183d
00000130: 105f 34bd 59f4 173d ec6b 16bd bcaa 72bd
00000140: b81c 0d3e d011 733d 2bf0 b33c 3d21 ae3d
00000150: 4a2f 783b bd93 9f3d 0383 35be 906a e63c
00000160: 63ec a6bd c787 b43e c606 09be fce2 99bd
00000170: 4100 943d 7a1e 35bc 86d8 213d c6d3 1a3d
00000180: 5cff d23d 7b29 b23d 24ac 113e c574 6cbd
00000190: 3b1a 80bc 46fc 043e c664 d5bb 175b 753b
000001a0: e75b be3d 29e5 e0bc 6a45 e43d f74c e03d
000001b0: b55d 503d ed39 ca3c 38ac f43d 958a 393d
000001c0: a31b c93d 2407 1cbd b088 54bd 87db 1bbe
000001d0: 0072 15bd 93b6 d93b ac60 afbd 834e 3cbd
000001e0: f9ef 0e3e 0f62 183d 1acc 78bd 7967 0fbe
000001f0: a6fa 6d3c f1f1 2ebc 4455 9f3d 0527 173e
00000200: c85c 4bbc 0cc6 263d 742a bc3d 3939 dd3d
00000210: 912c e3bd 9f6e 363d dda9 d0bd 532e 5a3d
00000220: 4108 2c3c e278 d2bd 2bea 003d 230d 843d
00000230: 965c 293e 539a 36be 2492 b63c 000c d43c
00000240: 6345 3f3b e10c 2cbe 8042 613d ab1b 073d
00000250: 1e1c 7d3d 8488 5d3e 7561 19bd 9295 f93d
00000260: 868c 22be 1a7e 643d eedc f0bc e4ce 493e
00000270: 8f80 783c 4490 8abd 61d3 a3bd 2077 a23b
00000280: f839 863c 45a4 353e 626b a3bd b853 803e
00000290: 1bcc 983c 7abd 5a3d 947f 95bc df78 3cbd
000002a0: 892d 5b3e 6d32 fb3d 74c4 323e 9d7c 0f3d
000002b0: ce2d 6c3d 4be0 3c3e 6e91 b63c ee9d e2bd
000002c0: 0c8a 05bd 0ad6 363e 8de3 e23d cca7 583d
000002d0: e6de 4139 8eee 4f3d 0fa8 0ebe c0b5 f73d
000002e0: 026f e3bd ed76 7a3c d00e 17bb 9b28 bb3c
000002f0: 7ffc eebd ea38 12bd 7194 af3c df35 80bc
00000300: e3ed 093c d99a c9bd 84c0 cd3d 4b14 d5ba
00000310: 15be 903c 028c 72bd 8fe3 9dbd f914 b03d
00000320: c679 b1bd a763 64bd 9e41 16ba 82d3 293c
00000330: e2d2 2d3c 2273 173d 2b35 77bd aac8 3dbd
00000340: adfa ad3d 2751 403e 0350 b23d ed0b b839
00000350: dd1c 8abd 1b5b 1a3c 5c67 edbb c193 143e
00000360: 8427 c6bc fa2f 343d 4499 c6bd 91b3 c7bd
00000370: cc88 2c3c 5bc4 013c 1ba1 d63d 2296 803b
00000380: a331 18bd 4fd8 273d 73e8 fabd 838f 49bd
00000390: d62e 06be 90bd 653c 2552 5a3d 8081 3a3d
000003a0: 1581 f53c 9b08 4bbe 1cdf 32bd 1e03 1a3d
000003b0: aa61 8c3b 3930 81bd 70ec 163d 36a5 f6bc
000003c0: 1fa5 193d e607 113d 027b fc3d dd2c 1c3e
000003d0: 44ed c9bd e548 c63d c515 183d b634 debb
000003e0: 78ee a43d 621d 3abe fb74 abbb 62e7 9d3d
000003f0: b61c 6a39 6eea 92bd ed64 dd3d da41 0b3e
-0.09114617 0.0008750119 0.122047275 -0.08987218 0.05662555 0.15158205 0.10206707 0.1060329
-0.13110748 0.108715944 0.083260484 -0.12339935 -0.017240427 0.09506272 0.018371893 0.12563175
-0.044102766 -0.18871957 0.08119165 0.06276277 -0.053024024 0.08181214 0.014125 -0.041901253
-0.026287923 -0.032130715 -0.04856873 -0.04104752 -0.04895408 0.014559085 0.05600293 -0.15811048
-0.07706249 -0.06696408 0.05683578 0.025707847 0.06909402 -0.13595644 -0.08641565 0.10573781
0.09348363 0.0011860824 -0.0416782 -0.014871423 -0.07206246 -0.12784557 0.0930487 0.12876198
0.053163648 -0.010594982 -0.07330827 -0.11372432 0.063798554 0.24425553 0.07321174 -0.1458641
0.16414289 0.103531346 -0.023223843 -0.01954357 0.011941207 0.034061063 0.06196416 0.09554411
0.035030056 0.110918656 0.13369012 0.048461232 -0.0220762 0.017782614 -0.004092062 0.06812763
0.0010506267 0.078030884 -0.026060615 0.037328426 -0.04403597 0.037098262 -0.036724016 -0.059244856
0.13780487 0.05934316 0.021965107 0.085024334 0.0037869983 0.07791851 -0.17725758 0.028126985
-0.08150556 0.3525984 -0.1338149 -0.07513997 0.07226611 -0.011054629 0.039513133 0.03779962
0.10302612 0.08699318 0.14225823 -0.057728548 -0.015637508 0.1298686 -0.0065122573 0.0037438327
0.09294873 -0.027453022 0.11146052 0.1095218 0.050870616 0.024685824 0.119469106 0.045298178
0.098197244 -0.038092747 -0.051888168 -0.15220462 -0.036485672 0.006644079 -0.085633606 -0.045973312
0.1395873 0.03720289 -0.06074152 -0.14004315 0.014525091 -0.0106778005 0.07779935 0.14760979
-0.0124122575 0.040716216 0.09187785 0.1080193 -0.11092485 0.04453909 -0.10188649 0.053266834
0.010500015 -0.10276963 0.03147332 0.06447818 0.16539225 -0.17832308 0.022286482 0.025884628
0.0029185645 -0.16801788 0.05499506 0.03298537 0.061794393 0.21634108 -0.037446458 0.121867314
-0.15873918 0.055784322 -0.029402222 0.19707829 0.0151673695 -0.06765798 -0.07999302 0.0049580485
0.016385064 0.17738445 -0.07979466 0.25063872 0.018652013 0.053403355 -0.01824931 -0.04601371
0.21404089 0.12265477 0.17457753 0.03503095 0.05766087 0.18444936 0.022286143 -0.11065279
-0.032602355 0.17855087 0.11078558 0.0528944 0.0001848895 0.050764613 -0.13931297 0.12095213
-0.111051574 0.015287143 -0.00230496 0.02284651 -0.116692536 -0.03569881 0.021433087 -0.015650688
0.008418533 -0.09843988 0.10046485 -0.0016256658 0.017668763 -0.059215553 -0.07709419 0.0859775
-0.086658046 -0.0557591 -0.00057318236 0.010365369 0.01060936 0.036975034 -0.06035344 -0.046333946
0.08495078 0.18780957 0.08706667 0.000351041 -0.067437865 0.009421135 -0.0072449874 0.14509489
-0.024188764 0.043991067 -0.09697202 -0.097510464 0.010530662 0.00792035 0.10479947 0.003924147
-0.037156712 0.040977772 -0.122513674 -0.04920913 -0.13103804 0.014022246 0.053300995 0.045533657
0.029968778 -0.19827501 -0.043669805 0.03760063 0.0042841034 -0.06308026 0.036846578 -0.030108076
0.037510987 0.035407923 0.123281494 0.15251489 -0.09859708 0.09681872 0.037130136 -0.006781186
0.08053297 -0.18175271 -0.005232451 0.077101484 0.00022326675 -0.0717362 0.10810266 0.13599339

bias f4 [256]
00000000: 28bd b6bd b686 5dbc 1d04 e3bd 5004 3d3b
00000010: 720f 0bbe e851 a1bd 232b 08be 9270 3f3b
00000020: e75d 2cbd d2c7 a8bd e7bb a0bd 7cbc 86bd
00000030: 541d 01bd 7be4 14be 60bc 07be 6564 acbd
00000040: 77e5 e8bc fd60 debd 7fc7 033d b2f6 d7bd
00000050: 1c44 09be f4bd abbd f429 45be c304 25be
00000060: 5d83 16bd a728 d1bd ea07 d0bb 82a2 c0bd
00000070: d167 8bbd 371d 18bd 7d86 febd cfb6 d7bd
00000080: b5e7 10be a570 0cbe 3f60 1ebe 1544 24be
00000090: c730 a6bc 1505 97bd c7b8 06be 5c42 f2bd
000000a0: 40fe 2ebe c1db 73bd 1601 78be 6f44 b4bd
000000b0: a451 b5bc 746b 03be a645 bdbd bcb5 2dbe
000000c0: a14b 03be 6a93 f6bd 452c 45be 739f 3dbe
000000d0: b606 e2bd 7b37 09be 37ad 2fbc 6da2 d4bd
000000e0: fc05 88bd 5143 d1bd 3bf7 11be b72a 18be
000000f0: e58a 92bd e414 17be 87bf 4bbe 0f06 2cbd
00000100: f6fd fcbd 205d 28be 603e 49be a8b7 0fbd
00000110: 6f79 03be 8f2c 34be ba56 06be dd40 94bd
00000120: 324e 15bd ee64 67be 9968 07be 308b e9bd
00000130: 1814 4ebe eae4 2dbe fd40 bcbc 49ca f1bd
00000140: f765 b6bd b344 1bbd 9ba4 97bd f752 dbbd
00000150: 761a 22be 2455 0cbc e253 82bd 5f34 7fbd
00000160: f521 85bb ecff 2cbe 7b98 0cbe 156f 70bd
00000170: f562 c7bd 8ca8 22bd 394c 0dbe 5eb9 3bbe
00000180: 1d07 a7bd 4650 573d b660 8fbd 5796 0dbe
00000190: 1e69 e6bd 876b 36be d47c d0bd 7bb6 b1bc
000001a0: e2f3 d5bd e18b 4cbe 5d52 26bd 61d3 cabd
000001b0: 4b60 14bd 6bf3 f8bb 4bcd e1bd 9cef e2bd
000001c0: 21d0 d8bd c78e e4bd 3045 c7bd 457f 01be
000001d0: a22d d9bd 814a 5bbe 4436 94bd 708c d4bc
000001e0: 75c2 09be e58f e8bd 685e 90bd 19a4 50be
000001f0: 8b2a b5bd 563f 37be 637a dcbd 3086 a3bd
00000200: b226 4cbd 05ad 87be a135 05be bb0c 47bd
00000210: 1a0d 67be f185 34be e459 bcbd c859 003c
00000220: c20a b03c 6493 dbbd db1b 10be b93f efbd
00000230: 02fe 02be 7d93 60bd 64b7 70bc 425f adbd
00000240: 43a4 5cbe fd1d 2dbe 37eb a5bd 7159 50bd
00000250: f5d1 9dbd f3b1 c1bd 5b5c 09be e5c4 82bd
00000260: 95ee 66bd e378 213c 6541 07be bcdb 25be
00000270: bd3f debd ca82 213b 18f6 36be 04b1 81be
00000280: bc80 24be ccb9 e4bd bfff 443c 855c 02bd
00000290: 64a6 b1bd 888f b7bc 4917 03be a039 05bd
000002a0: 5a1f 7fbb c2b0 d03d b55c 35be 956b 92bd
000002b0: f0bc 57be 7e3a a0bd d36f e2bd 291a f1bd
000002c0: 08fb 01be f2e9 0bbe 846d f9bd fcea 14bd
000002d0: a575 00be 27a4 6fbd c961 b0bd 1333 61bd
000002e0: 2e8e 19be 947d 80bd 1ebd 03be c036 89bd
000002f0: a912 95bc 2d0a 28be 6bb8 0fbe 7d5b 8fbd
00000300: 373a e8bd 285b a0bd 787b aebb 3ec0 dbbd
00000310: bc53 00bc d0ec 59bd e71c 6bbd ca66 05be
00000320: 3829 873c 65d6 02bd 9092 efbd 1fb2 c0bd
00000330: efed f2bd 966a 89bd 3e40 10be 15b3 c4bd
00000340: 1220 6abe 63a1 1cbd 6167 0ebd 8a26 c4bd
00000350: e568 2bbd 080e e6bd 4112 acbd 7769 73bd
00000360: f97c 40bd 75f3 61bb c6df f6bd fd6d 66bd
00000370: cfc7 00be 9cc8 80bd 6c3e aabc 55dd d4bd
00000380: 9f62 38bd 271c ecbc 3819 9cbd 1444 3dbe
00000390: bd9d 3ebe 661d 29be 8282 4dbd ae35 fdbb
000003a0: 76e3 98bd 859f 423d 23d0 43be 45ed 98bd
000003b0: 0068 06be 98c6 8fbd 493f 84bd dde0 1ebe
000003c0: 9aec 2fbe 23f5 62bd 0a15 01be 5070 6fbd
000003d0: 61ce 8cbd ab1c 52be 1157 80bd 4bec 77be
000003e0: 1091 0bbe 9747 cabd f8e1 c3bd 8e16 dbbd
000003f0: 6cad 5cbd f52f 0abe c00f 58be 1826 edbd
-0.089227974 -0.013520887 -0.11084769 0.0028841682 -0.1358011 -0.078769505 -0.13297705 0.0029211384
-0.04208174 -0.08241238 -0.078483395 -0.06578919 -0.03152211 -0.14540283 -0.13255453 -0.08417586
-0.02842973 -0.10858343 0.032172676 -0.105451 -0.13404888 -0.0838584 -0.19254285 -0.16115098
-0.03674637 -0.10212832 -0.0063485997 -0.09405996 -0.06806911 -0.037137236 -0.12427995 -0.10532915
-0.14150889 -0.13714845 -0.15466402 -0.16041596 -0.02028693 -0.07374016 -0.13156424 -0.11829063
-0.17089176 -0.059535746 -0.24219164 -0.08802115 -0.022133656 -0.12833959 -0.092418 -0.16963857
-0.12821819 -0.12039836 -0.19255169 -0.18517856 -0.11036436 -0.1340007 -0.01072245 -0.10382543
-0.066417664 -0.10217918 -0.14254467 -0.14860044 -0.07155398 -0.14754063 -0.1989728 -0.041997965
-0.12353127 -0.16441774 -0.196527 -0.035087258 -0.12839292 -0.17595123 -0.13119021 -0.07238934
-0.036451526 -0.22597095 -0.13223495 -0.11403501 -0.20124853 -0.16981855 -0.022980208 -0.11806161
-0.08906167 -0.037907314 -0.07404443 -0.10709184 -0.15830407 -0.008565221 -0.063636556 -0.062305804
-0.004062886 -0.16894501 -0.13730042 -0.058699686 -0.097356714 -0.03971152 -0.13798608 -0.1833243
-0.081556536 0.05256679 -0.07000868 -0.13826881 -0.11250518 -0.17814456 -0.10180059 -0.021693459
-0.104469076 -0.19975235 -0.04060589 -0.099035986 -0.036224645 -0.007597377 -0.11025485 -0.11080858
-0.105865724 -0.11160045 -0.09729993 -0.12646206 -0.10604407 -0.2141514 -0.07236913 -0.025945872
-0.13453086 -0.11355571 -0.070492566 -0.20375098 -0.08846005 -0.17895254 -0.10765531 -0.079845786
-0.04984159 -0.2649919 -0.13008739 -0.048596125 -0.22563592 -0.1762922 -0.09196833 0.0078339055
0.021489505 -0.10721472 -0.14073126 -0.11682076 -0.12792209 -0.054828156 -0.014692161 -0.084654346
-0.21547036 -0.16905971 -0.08101504 -0.050866548 -0.07706062 -0.09457769 -0.13414137 -0.06385211
-0.056379873 0.009855482 -0.1320854 -0.16197103 -0.10852001 0.0024644607 -0.17867315 -0.25330365
-0.16064733 -0.111682504 0.012023865 -0.031826515 -0.086743146 -0.022407308 -0.12801851 -0.03252566
-0.00389286 0.10189964 -0.17711146 -0.07149426 -0.21068168 -0.078236565 -0.11056485 -0.11772568
-0.12693417 -0.13663462 -0.121790916 -0.03635691 -0.12544878 -0.058506157 -0.08612401 -0.05498035
-0.14995643 -0.06273952 -0.12865111 -0.06699896 -0.018197374 -0.16410132 -0.14035194 -0.06999872
-0.113392286 -0.07829887 -0.005324777 -0.10730027 -0.007832464 -0.053204358 -0.05740061 -0.13027492
0.016499147 -0.031942744 -0.116978765 -0.09408974 -0.118617885 -0.06709783 -0.14087006 -0.0960447
-0.22863796 -0.038239848 -0.03476656 -0.09577663 -0.041848082 -0.11233145 -0.08401919 -0.05942675
-0.046994183 -0.0034477387 -0.120544 -0.056257237 -0.12576221 -0.06288263 -0.020781718 -0.10393778
-0.045015927 -0.028822018 -0.076219976 -0.18483001 -0.1861486 -0.16515121 -0.05017329 -0.0077273464
-0.0746526 0.04751541 -0.19122367 -0.074671306 -0.1312561 -0.070203006 -0.06457383 -0.15515466
-0.171801 -0.05540956 -0.12605682 -0.05845672 -0.06875301 -0.20518748 -0.062666066 -0.24211232
-0.13629556 -0.09876936 -0.095645845 -0.10697661 -0.053876325 -0.13494857 -0.21099758 -0.115795314

weight f4 [128, 256]
00000000: bb3a 9f3d 12df 85bd dbd7 453e af1e 1d3d
00000010: 4b01 c9ba b6c7 1cbd 6f80 83bd 1889 c83d
00000020: 3d2f 3b3d 13ad d6bc b1a0 56bd c0eb 30be
00000030: 85f3 943d 6055 4cbd e08a 27bd 5d14 f0bd
00000040: 824c 57bd 8175 a2bc 8662 163d e6f1 143d
00000050: e658 583d 86f8 5fbc 5c57 27bd 769b 96bd
00000060: e4fa 0ebe 170a 193d cd01 1fbd 65e5 463b
00000070: 3e4f 2a3d 239e 1cbd 8bc3 703c 1a86 4fbd
00000080: e67b 5b3c 584a 273e f9a7 633d b29a 4c3d
00000090: 21b1 a4bc 442b a5bc e4f6 023d 81f6 0b3d
000000a0: 3543 0fbd ca44 103d 2d50 d53c a785 dabd
000000b0: cae1 163d ac77 19bd 8386 133d 1f86 bc3d
000000c0: 78cb 5f3d f60c 18bd 6f8c 6fbd 91f2 4c3d
000000d0: b482 11bc 1c23 98bc 3c58 79be 8284 99bc
000000e0: bc7a 09be 1645 09bd 8f26 65bd 7bf7 3c3b
000000f0: c1c9 193c f9ac bfbc 4b40 1dbd 2dd8 113d
00000100: 18c5 203d 1929 c7bc 7870 3abd 928e 573c
00000110: 4a47 f73d 2ba9 fb3b c8a3 373d 0406 ff3c
00000120: 53e0 6dbd e166 6bbc 1f49 4cbe 6035 e23d
00000130: cdd8 b6bd bbbe ee3d 6b6c 473b e5f1 ec3c
00000140: 744e f4bc d09b ccbd acf8 a0bb 43dc 733c
00000150: 62dd 673d 26e5 5d3d 4421 24bd 37fb 34bd
00000160: 2544 913d f3fa ae3c 72d9 4fbd 5e54 ef3d
00000170: d83e ee3d 1e03 603c d4b9 efbb 8f0c 023e
00000180: 0840 7dbd 9917 ccbc d859 07bc 6ba0 98bc
00000190: c244 003b 7167 e7bb 3b76 c23c ac3c 893c
000001a0: 7a0a 213d 3643 5a3b 0c73 883d 7f47 1abc
000001b0: 4a93 603d a185 84bd d619 93bc 90c5 0cbd
000001c0: d25a 3dbc 3890 1c3d b681 8e3c 076a 493d
000001d0: 7790 8fbc ce09 2a3d 7520 0fbe 5031 0dbd
000001e0: c68d 0ebd 0121 953d bb53 763b 8b76 7d3d
000001f0: 9ce8 553d 3cef f93b 42ed c3bd 37de eebd
00000200: eb19 10be 6d42 243d 52da 3fbd 95f1 0fbe
00000210: 9f31 10bc 31e7 2b3d 95a8 913d 58e4 19be
00000220: bd4e 853d 1e8a 6cbd 2a68 b6bd c127 80bd
00000230: 7f94 0abe 1407 4e3a 9eae bd3d 4eab d0bd
00000240: 301c 91bc 9d26 a7bc 5e5b d5bc fce2 c2bd
00000250: 553f ad3c db65 1ebd 24ff 383b 1552 5f3d
00000260: a2fd 843d f272 04bc 24df 54bd 6a4c 21bd
00000270: c9cb 89bb 31cd 2f3d 7787 fa3d 24e3 d3bd
00000280: 0eff 803d eb88 0c3c b4e1 45bd 8af0 1abc
00000290: 0933 8cbd d87b 073d dc3a 8a3c afc5 b1bc
000002a0: 309f 2e3c a422 9bbc b5a5 b33d 3f82 ab3d
000002b0: 12bc af3d 3946 133d f18c b9bb 1b4e a03d
000002c0: 0977 cf3c 341c f2bd bab5 843d e011 22be
000002d0: 111e 7b3c 37ec 42bd 5fa4 45bd d477 8abc
000002e0: b0e3 453c 7eb6 bd3d 2c67 513c a157 55bd
000002f0: 4553 54bd 1649 68bd a8bc cd3d 533b 1e3d
00000300: 9157 3dbd 2ddc a2bc a839 a2bc 0564 5c3d
00000310: b559 0f3d bc78 38be 8e13 d43d c4bd fcbc
00000320: 1d0f 2f3d 58e4 f7bc df20 c43c f2a5 24be
00000330: db13 fabc 1947 d8bd 4984 d8bb 3e2e d2bc
00000340: da55 01bd 9d82 25bd b897 19bc e364 533d
00000350: f919 6a3b 9a56 bf3d c8fb ad3d 282e f63c
00000360: b1ae e9bc f24b 17be 88c2 0cbe 3d25 7cbd
00000370: 227b 02bd 1214 f9bc 5919 07be fee8 87bd
00000380: 25aa 4dbd 6f77 d63c 322e bbbc 5665 9fbd
00000390: 6063 db3c fdaf 9f3d b8a5 613b 38f8 9c3d
000003a0: 40f8 053c b471 15bd 8d59 11bc 0def ba3d
000003b0: 127b 563d 02d0 1b3d acd9 f6bc 3dae ff3d
000003c0: 1ea5 b93d 90a6 783d 6c3d f5bd 25ed c23d
000003d0: 1ca9 d23b 76d9 cebd 6372 363d 7046 93bb
000003e0: c86c f93c b476 0cbd 0307 cb3c 5ce3 9fbc
000003f0: 2929 8d3c 80af ab3d 67cd 6a3d 655c 0f3c
0.07774874 -0.06536688 0.19320624 0.03835934 -0.0015335468 -0.038276397 -0.06420981 0.097917736
0.045699347 -0.026205575 -0.05239934 -0.17277431 0.0727301 -0.049886107 -0.040903926 -0.11722634
-0.052563198 -0.01983142 0.036715053 0.036363505 0.052819155 -0.013670092 -0.040854797 -0.073538706
-0.13962895 0.037363138 -0.038820077 0.0030349132 0.041579477 -0.03823675 0.014695059 -0.050665
0.013396239 0.16336954 0.055580113 0.049952216 -0.020103993 -0.020162232 0.031973734 0.03417063
-0.034976203 0.035221852 0.026039207 -0.106700234 0.036836423 -0.037467644 0.036016952 0.09205269
0.054637402 -0.037121736 -0.058483537 0.050036017 -0.00888126 -0.018571429 -0.24350065 -0.018739942
-0.13425726 -0.03351315 -0.055944975 0.0028834033 0.009386481 -0.02339791 -0.038391393 0.035606552
0.039250463 -0.02431159 -0.045517415 0.01315655 0.12074144 0.0076800785 0.04483393 0.031130798
-0.05807526 -0.01436779 -0.19949768 0.11045337 -0.0892807 0.11657473 0.0030429612 0.028923938
-0.029822566 -0.099906564 -0.0049124565 0.014884057 0.05660761 0.05417361 -0.040070787 -0.04418489
0.07093076 0.021359896 -0.05074448 0.11686014 0.1163308 0.013672618 -0.0073158536 0.12700103
-0.061828643 -0.024913596 -0.0082611665 -0.01863118 0.0019572233 -0.0070618917 0.023738017 0.016752563
0.03931663 0.003330422 0.066625684 -0.00941646 0.054827966 -0.064708 -0.017956655 -0.034368098
-0.011557298 0.038223475 0.017395835 0.04917338 -0.01752494 0.041513257 -0.13977225 -0.034470856
-0.034803174 0.072816856 0.0037586528 0.06188063 0.052223787 0.007627396 -0.09566738 -0.11663478
-0.14072387 0.04010241 -0.046839066 -0.14057 -0.008800893 0.04196853 0.071122326 -0.15028512
0.06509159 -0.057748906 -0.089065865 -0.062575825 -0.1353321 0.0007859331 0.09261821 -0.10188924
-0.017713636 -0.020404154 -0.026044544 -0.0951595 0.021148363 -0.038671356 0.0028228248 0.05452164
0.06493689 -0.008084046 -0.051970616 -0.039379515 -0.0042052013 0.042920295 0.12232869 -0.10346058
0.06298648 0.008577566 -0.04831095 -0.009456763 -0.06845672 0.03307709 0.01687377 -0.021700708
0.01065807 -0.018937416 0.087718405 0.08374452 0.085807934 0.03595564 -0.0056625535 0.078273974
0.025325315 -0.118217856 0.06479974 -0.15827131 0.015326993 -0.047588553 -0.04825246 -0.016902842
0.012078211 0.09263323 0.012780946 -0.052085523 -0.051837225 -0.056710325 0.10045749 0.038630795
-0.046226088 -0.019880379 -0.019802883 0.053806324 0.03499766 -0.18014807 0.10355292 -0.030852206
0.042739023 -0.03026025 0.023941455 -0.16078928 -0.030527046 -0.10560436 -0.0066075665 -0.025656816
-0.031576015 -0.040407766 -0.0093745515 0.051609885 0.0035721047 0.0934269 0.08495289 0.030051306
-0.028525682 -0.14775065 -0.13746083 -0.06155895 -0.03185571 -0.030405078 -0.13193263 -0.066362366
-0.05021109 0.026179997 -0.022849176 -0.07783 0.026780784 0.07797239 0.0034431051 0.076645315
0.008176863 -0.03648539 -0.008871448 0.091276266 0.052363463 0.03804017 -0.03013309 0.12484405
0.09064697 0.06070572 -0.11974606 0.09517888 0.006428851 -0.10100071 0.04454268 -0.004494481
0.030447379 -0.03429289 0.024783617 -0.019517593 0.01723154 0.08383083 0.057324793 0.008750056

bias f4 [128]
00000000: 73a7 a4bd 9f59 60bd 1760 99bc e13f d9bd
00000010: a7fe d1bd fe05 c6bb 8b3b f0bd e676 e1bd
00000020: c115 ecbd b74a 58bc 21b1 09be b0b2 0bbe
00000030: d9cd 66bd 143b 00bd 0ea3 6ebd 0bd3 88bd
00000040: a9d4 c9bd eb4b 28bd 3a5d abbd 9972 28bd
00000050: 9e8a 1abd e1e4 22be 32fd bcbc 334b 8dbc
00000060: e053 78bc a09a 8cbd 811c cdbd 135e cabd
00000070: 29fc 4fbe c1d2 28be fb16 8dbd d9bf c9bc
00000080: f558 193d b7ba d5bd bcf9 00be 524f 73be
00000090: 8f75 d8bd 86dd 403d c211 4bbd 9739 93bd
000000a0: 80c5 a7bd 38b0 063d 7680 a23c f3cc 45bd
000000b0: 05b2 b0bd fd15 dcbd 1464 f4bd 4ea3 4ebd
000000c0: e48b 62bd ed33 4ebe 5d02 bfbd 22b6 15be
000000d0: 47c8 35be b633 7ebd a36c 7fbd 89cf bdbd
000000e0: 6831 24bd 2d65 92bd bbc0 9cbd ba61 96bd
000000f0: 9e9a 20bd a76d e4bd fa6c 92bc fcf0 5c3c
00000100: 0ac5 3cbe efd7 ccbd 685f 7dbd 4527 49bd
00000110: 2a7b 42bd 9d5a 80bc 4f77 efbd 1c78 85bd
00000120: f083 35bd 3b27 33bd eb55 09bd 5599 3fbd
00000130: 48ed 43be 967a c1bd 8284 c1bd d0cb 0fbd
00000140: 9005 2abc a2a3 85bc 424c 5ebd 4a39 86bd
00000150: 0b2e 35be d7d7 4ebd ffe2 61be 5ceb a1bd
00000160: 0ee9 6fbd 7ecb d9bd ea1a c4bd 29c5 dbbd
00000170: 046c bebd cb99 78bd 2227 8f3b 05f7 3ebd
00000180: f0e6 82bd c025 e5bd 7178 81bd be26 35be
00000190: 7d3c 1bbe 7f2d 1fbe 63ca d3bc f42d febd
000001a0: 16c1 2cbd 2944 12be 5307 c3bd eb0d b1bd
000001b0: 93b6 1dbe f6df 5fbd 8fa1 72bd ffc2 5dbd
000001c0: 8ed6 d9bc fc7e d2bd f6d2 71bd 7fdd 88bd
000001d0: 73da 92bc ab39 52bd b34c 9abc 92e6 b6bd
000001e0: 405f 12bd b306 04be 3268 e3bd dbcb 01bd
000001f0: 6739 ecbd e7c9 4cbd 8052 a4bd a89b eebd
-0.08039751 -0.05477297 -0.018722577 -0.10607887 -0.10253649 -0.006043195 -0.11730107 -0.11009006
-0.11527587 -0.013201407 -0.13446476 -0.13642383 -0.056348655 -0.03130634 -0.05826097 -0.06680878
-0.09855015 -0.041088026 -0.08367391 -0.041124914 -0.037729852 -0.15907623 -0.023069952 -0.017247772
-0.015156716 -0.0686543 -0.10015202 -0.098812245 -0.20311035 -0.16486646 -0.06889149 -0.024627613
0.03743835 -0.10436004 -0.12595266 -0.23760727 -0.105692975 0.04708626 -0.049577482 -0.07188719
-0.08191967 0.0328829 0.019836646 -0.048291158 -0.086277045 -0.107463814 -0.11933151 -0.05044871
-0.05530919 -0.20136996 -0.09326623 -0.1462026 -0.17752181 -0.062061034 -0.062359463 -0.092681
-0.04008618 -0.07148204 -0.07653948 -0.073428586 -0.039209954 -0.11153727 -0.01787423 0.0134851895
-0.1843454 -0.100021236 -0.061858565 -0.049109716 -0.04748074 -0.015668208 -0.11692678 -0.0651705
-0.04431528 -0.043738585 -0.033529203 -0.04677709 -0.19133484 -0.094472095 -0.09449102 -0.03510648
-0.010377303 -0.016313378 -0.054271944 -0.06553896 -0.17693345 -0.05049881 -0.22059248 -0.07906219
-0.058571868 -0.10634516 -0.09575446 -0.10730965 -0.09297946 -0.060693543 0.0043686787 -0.046622295
-0.06391704 -0.11188841 -0.063218005 -0.1769056 -0.15159793 -0.15544699 -0.025853341 -0.124111086
-0.04217633 -0.14283814 -0.09522881 -0.08645233 -0.15401678 -0.054656945 -0.059236106 -0.05414104
-0.026591565 -0.102781266 -0.05903908 -0.06682872 -0.01792643 -0.051324528 -0.018835401 -0.089306965
-0.03573537 -0.1289318 -0.11103858 -0.031688552 -0.11534386 -0.049997237 -0.08023548 -0.11650783

weight f4 [12, 128]
00000000: 1a16 673d 3d88 163c 2381 95bc 9778 fb3c
00000010: 266f 3dbd b6c0 813c 8e6b 0cbd 5828 18bd
00000020: 3112 84bc a454 ad3c 0326 b2bc 753c 3dbc
00000030: 6727 46bb f254 16bc 8b0b a93b 1bab 03bb
00000040: 903e f33b 5f6e b03d c226 c13c 08d5 b6bc
00000050: 43d5 9c3d 0c40 41bd 78f7 26bd 66fe d43d
00000060: 99a1 f13b 4b51 f7bc 7747 7cbb 544f 0bbc
00000070: b118 32bd 4f51 22bd 2a9b 8a3d 3ddd a5bc
00000080: 6a4f 02bd 0820 34bc 0279 f53c 9162 123d
00000090: 34ab dbbc 2e5a bcbc f9d2 07bd 856b b33d
000000a0: 8081 39bd 6f9c c13c 6d38 383b bb46 f8bd
000000b0: 5348 383d 6b98 e0bc 78ae 693d 5fb8 6a3d
000000c0: 0b6a c6bc d9cb d4bc 5397 02bd a603 b63c
000000d0: 340c a1bd f79d 93bd ec3d eebc 11f5 1ebd
000000e0: 1819 ef3c b456 113d e677 7fbc fed0 92bc
000000f0: aa5c 123c 71cf a3bc 5b17 2d3d a041 6a3c
00000100: 5a95 8d3d 2176 e0bc be3d 23bd 98c7 eabb
00000110: 70cf a83c 3716 003d 17b1 6e3c ecc2 9f3c
00000120: a2fd de3c 4f24 1a3c 857a c8bb 7b2e 043d
00000130: 62c6 3cbb 9378 2f3d 7ac6 51bc cb58 2f3d
00000140: a206 0b3d 86c3 833d e536 8c3b aa6f 773d
00000150: bbe5 65bd 982c 65bc 31dc b5bd 6329 7c3c
00000160: 5da2 053b fe52 fb3b 189e b4bc def1 633d
00000170: fcb5 ca3c 334b 94bc 50e0 34bd dbcc 0eb9
00000180: d042 51bc d39b 7d3c 998f 773c 53e6 1ebd
00000190: 8a73 3a3c f157 53bc 7903 f43a 97e2 ce3c
000001a0: 74a4 343d 56c3 173d fce6 9c3c a709 0b3d
000001b0: cffa 95bc 78e3 f6bc 68e6 37bd 82cb 2cbd
000001c0: f457 74bd 79ae 5f3c 5466 c1bc dee6 133d
000001d0: cd6e 433d bce0 173d 877d a6bb d008 983b
000001e0: 3d00 1cbd e4d6 553c 2cac 3abc 1cf5 793c
000001f0: 7411 b8bc 1f95 8dbc 3116 443c 946c 26bd
00000200: cf11 843d 9f1a 7c3d 8e32 893d 00e9 d0bc
00000210: e366 573c 7140 56bc d66f 29bd f403 603d
00000220: c342 1b3c 225f d8bc 4f81 dfbc b5ac eabc
00000230: 43b5 34bc e4eb febc b8cf 133c b5a4 39bd
00000240: 0118 013d 587d 523d 0a4e b63c eb9e 06bd
00000250: a7e6 02be d7dd 3a3d dd2b 273d ac2c 303d
00000260: ae72 77bc ec76 8dbc a965 843d fbea cb3c
00000270: dfee 20ba 4b19 96bc d97a a63c a570 5f3d
00000280: 0c96 713b 1e78 073c 3cbe a33d eb1a c6bd
00000290: eae8 2d3d afce eaba 118e 88bd ed85 aa3a
000002a0: 2dd4 8b3c 8ac9 853c c981 df3d bc92 8b3c
000002b0: 6531 35bd beb4 23ba fbe2 b4bc 2a14 cf3c
000002c0: 64d3 153d cc22 b2bc 4aac 91bd e77e 403c
000002d0: 4fcd e7bd d38f 6b3b 6ede 03bd 05b7 3dbd
000002e0: f839 a4bc f953 343d 71f6 c5bc a89c 8b3d
000002f0: b841 e33c 8c01 8839 24fe 74bc 6616 ae3d
00000300: cc29 e43c 62ac 923c 4e28 393d 76c7 82bc
00000310: fb99 9bbc 7481 023d 717a 763c 9ac8 fcbc
00000320: f353 5fbb 147c 1e3c 6b16 393d 737c a0b9
00000330: 9b39 2abd 5ab6 9f3d 48d0 eb3c cf0c bbbd
00000340: bdc2 83bc 0c7c 843a c6c2 903d 5f09 7d3d
00000350: 8a02 33bb 35e3 e13c 739f 033c ba77 92bd
00000360: 8394 ce3a 885f 73bc 6b13 113b 96de 6bbb
00000370: 0d9e 7b3c 19e5 073a b76a 17bd 0d32 63bd
00000380: 9426 9abb a885 393d 772b b8bc f1af c2bc
00000390: 5ca1 63bd fe56 6b3a 78a7 37bd 3fb7 8c3c
000003a0: af99 f53c 9a50 7cbc d94b 35bd 0aa7 e339
000003b0: dbc3 a8bd 480a 09bc 06bb 653d 6ef4 0cbb
000003c0: e0f0 0e3c 4386 d2bc d6bb 353d 6106 f4bc
000003d0: 0d14 b13d a10d 253c fc08 45bd 0470 703c
000003e0: 2922 eebd 72a7 373d adca a0bc 6212 1cbc
000003f0: b234 f83b 2a5b cebd 2e19 6b3d bea1 30bd
0.056417562 0.009187755 -0.018250054 0.03069715 -0.046248578 0.015838962 -0.03428226 -0.03714785
-0.016121956 0.021158524 -0.021746641 -0.011550059 -0.0030235888 -0.009175526 0.0051588467 -0.0020091
0.0074232295 0.086148016 0.023578051 -0.022318378 0.07657864 -0.04718022 -0.04076335 0.10400085
0.0073740003 -0.03019013 -0.0038494745 -0.0085028 -0.04348058 -0.039628323 0.067678764 -0.020247096
-0.031814016 -0.010993965 0.029964928 0.03573853 -0.026815034 -0.02299222 -0.033160184 0.08760742
-0.045289516 0.023634164 0.0028109804 -0.12122866 0.04499085 -0.027416429 0.057051152 0.057304736
-0.024220487 -0.025976108 -0.031882595 0.022218537 -0.07863656 -0.07207864 -0.029082261 -0.038807932
0.02918677 0.035483077 -0.015592551 -0.01792192 0.008933226 -0.019996377 0.0422586 0.014297873
0.06913252 -0.027400078 -0.039853804 -0.0071649067 0.020606726 0.031271186 0.014568589 0.019502126
0.02722055 0.009408071 -0.006118121 0.03227089 -0.0028804769 0.042839598 -0.012803668 0.04280929
0.033941872 0.064337775 0.004279005 0.060409226 -0.05612729 -0.013987683 -0.08879889 0.015390727
0.0020390966 0.0076698055 -0.022048041 0.055650584 0.02474498 -0.018102264 -0.044159234 -0.0001361849
-0.012772277 0.015479046 0.01510992 -0.038793873 0.011380086 -0.012899385 0.0018616758 0.02525453
0.044102147 0.03705152 0.01915311 0.033944752 -0.018308071 -0.030137762 -0.044897467 -0.042186268
-0.05965419 0.013652437 -0.023608364 0.036108844 0.04771309 0.037079558 -0.005080882 0.0046397224
-0.038086165 0.013051722 -0.011393588 0.015256193 -0.02246926 -0.01728302 0.0119681815 -0.040630892
0.06448709 0.061548825 0.06699096 -0.025501728 0.013147089 -0.0130768875 -0.04136642 0.05469127
0.009476366 -0.02641255 -0.027283339 -0.028646806 -0.011029544 -0.03111834 0.009021692 -0.045323092
0.031517033 0.05138907 0.022254009 -0.0328664 -0.127833 0.04562172 0.040813316 0.043011352
-0.015103025 -0.01726862 0.06464703 0.02489232 -0.000613911 -0.018322608 0.02032225 0.054550786
0.0036863117 0.008268384 0.07995269 -0.09673103 0.042458452 -0.001791438 -0.06667722 0.0013009884
0.017068947 0.016331453 0.109134264 0.017037742 -0.04423656 -0.0006244889 -0.022080889 0.02527817
0.03657855 -0.021745108 -0.0711294 0.011749006 -0.113184564 0.003594388 -0.032194547 -0.04631712
-0.020047173 0.044025395 -0.024165364 0.06816989 0.027741298 0.00025941094 -0.01495317 0.08500366
0.027851962 0.017904464 0.045204453 -0.015964251 -0.018994322 0.031861737 0.015043841 -0.030857373
-0.0034077137 0.009673137 0.045187395 -0.000306103 -0.041558843 0.07798453 0.02878584 -0.091333024
-0.01608407 0.001010777 0.070684 0.061776515 -0.0027314746 0.027574161 0.008033621 -0.07151742
0.0015760813 -0.014854319 0.0022136818 -0.0035990826 0.015357506 0.00051839795 -0.036967006 -0.055467654
-0.004704306 0.04529348 -0.022481663 -0.023765536 -0.055573806 0.00089775014 -0.044837445 0.017177222
0.029980509 -0.015400076 -0.044261787 0.00043421268 -0.082404815 -0.008364268 0.056086563 -0.0021507996
0.008724421 -0.025698787 0.044368587 -0.029788198 0.086464025 0.01007405 -0.04810427 0.014675144
-0.11627609 0.044837423 -0.019627893 -0.009525867 0.007574641 -0.10075982 0.05739706 -0.043123

bias f4 [12]
00000000: c9b9 cf3c 8141 e63c 10e4 bdbd 98b0 1a3d
00000010: fd85 073d c477 22be 209a cbbd ae56 483e
00000020: b397 933d 7ac2 95bc e77e 973e 4b61 223e
0.025357144 0.028107407 -0.09272015 0.03776607 0.033086766 -0.15866 -0.099415064 0.19564316
0.07206669 -0.01828121 0.29589006 0.15857427
